…
hood requests:  94%|█████████▎| 133/142 [01:36<00:05,  1.71it/s]Running loglikelihood requests:  95%|█████████▌| 135/142 [01:37<00:04,  1.72it/s]Running loglikelihood requests:  96%|█████████▋| 137/142 [01:38<00:02,  1.74it/s]Running loglikelihood requests:  98%|█████████▊| 139/142 [01:40<00:01,  1.66it/s]Running loglikelihood requests:  99%|█████████▉| 141/142 [01:41<00:00,  1.72it/s]Running loglikelihood requests: 100%|██████████| 142/142 [01:41<00:00,  1.40it/s]
DEBUG:lm_eval.models.huggingface:Failed to get model SHA for LlamaMoEForCausalLM(
  (model): LlamaMoEModel(
    (embed_tokens): Embedding(32000, 4096, padding_idx=0)
    (layers): ModuleList(
      (0-1): 2 x LlamaMoEDecoderLayer(
        (self_attn): LlamaAttention(
          (q_proj): Linear(in_features=4096, out_features=4096, bias=False)
          (k_proj): Linear(in_features=4096, out_features=4096, bias=False)
          (v_proj): Linear(in_features=4096, out_features=4096, bias=False)
          (o_proj): Linear(in_features=4096, out_features=4096, bias=False)
          (rotary_emb): LlamaRotaryEmbedding()
        )
        (mlp): LinearGLUMoELayer(
          (gate): TopKBalancedNoisyGate(
            (gate_network): Sequential(
              (0): Linear(in_features=4096, out_features=8, bias=False)
              (1): Tanh()
              (2): Linear(in_features=8, out_features=8, bias=False)
            )
            (softmax): Softmax(dim=1)
            (weight_noise): Linear(in_features=4096, out_features=8, bias=False)
            (softplus): Softplus(beta=1.0, threshold=20.0)
          )
          (calculator): UniversalCalculator(
            (experts): LinearGLUExperts(
              in_features=4096, hidden_features=11008, out_features=4096, hidden_act=silu, num_experts=8, size_experts=[1376, 1376, 1376, 1376, 1376, 1376, 1376, 1376], bias=False
              (act_fn): SiLU()
…
                  (3): Parameter containing: [torch.float32 of size 4096x1376]
                  (4): Parameter containing: [torch.float32 of size 4096x1376]
                  (5): Parameter containing: [torch.float32 of size 4096x1376]
                  (6): Parameter containing: [torch.float32 of size 4096x1376]
                  (7): Parameter containing: [torch.float32 of size 4096x1376]
              )
            )
          )
        )
        (input_layernorm): LlamaRMSNorm()
        (post_attention_layernorm): LlamaRMSNorm()
      )
      (2-3): 2 x LlamaMoEDecoderLayer(
        (self_attn): LlamaAttention(
          (q_proj): Linear(in_features=4096, out_features=4096, bias=False)
          (k_proj): Linear(in_features=4096, out_features=4096, bias=False)
          (v_proj): Linear(in_features=4096, out_features=4096, bias=False)
          (o_proj): Linear(in_features=4096, out_features=4096, bias=False)
          (rotary_emb): LlamaRotaryEmbedding()
        )
        (mlp): LinearGLUMoELayer(
          (gate): TopKBalancedNoisyGate(
            (gate_network): Sequential(
              (0): Linear(in_features=4096, out_features=8, bias=False)
              (1): Tanh()
              (2): Linear(in_features=8, out_features=8, bias=False)
            )
            (softmax): Softmax(dim=1)
            (weight_noise): Linear(in_features=4096, out_features=8, bias=False)
            (softplus): Softplus(beta=1.0, threshold=20.0)
          )
          (calculator): UniversalCalculator(
            (experts): LinearGLUExperts(
              in_features=4096, hidden_features=11008, out_features=4096, hidden_act=silu, num_experts=8, size_experts=[1376, 1376, 1376, 1376, 1376, 1376, 1376, 1376], bias=False
              (act_fn): SiLU()
…
                  (3): Parameter containing: [torch.float32 of size 1x1 (cuda:0)]
                  (4): Parameter containing: [torch.float32 of size 1x1 (cuda:0)]
                  (5): Parameter containing: [torch.float32 of size 1x1 (cuda:0)]
                  (6): Parameter containing: [torch.float32 of size 1x1 (cuda:0)]
                  (7): Parameter containing: [torch.float32 of size 1x1 (cuda:0)]
              )
            )
          )
        )
        (input_layernorm): LlamaRMSNorm()
        (post_attention_layernorm): LlamaRMSNorm()
      )
    )
    (norm): LlamaRMSNorm()
  )
  (lm_head): Linear(in_features=4096, out_features=32000, bias=False)
) at revision main. Error: Repo id must be a string, not <class 'transformers_modules.LLaMA-MoE-v1-3_5B-2_8.modeling_llama_moe_hf.LlamaMoEForCausalLM'>: 'LlamaMoEForCausalLM(
  (model): LlamaMoEModel(
    (embed_tokens): Embedding(32000, 4096, padding_idx=0)
    (layers): ModuleList(
      (0-1): 2 x LlamaMoEDecoderLayer(
        (self_attn): LlamaAttention(
          (q_proj): Linear(in_features=4096, out_features=4096, bias=False)
          (k_proj): Linear(in_features=4096, out_features=4096, bias=False)
          (v_proj): Linear(in_features=4096, out_features=4096, bias=False)
          (o_proj): Linear(in_features=4096, out_features=4096, bias=False)
          (rotary_emb): LlamaRotaryEmbedding()
        )
        (mlp): LinearGLUMoELayer(
          (gate): TopKBalancedNoisyGate(
            (gate_network): Sequential(
              (0): Linear(in_features=4096, out_features=8, bias=False)
              (1): Tanh()
              (2): Linear(in_features=8, out_features=8, bias=False)
            )
            (softmax): Softmax(dim=1)
            (weight_noise): Linear(in_features=4096, out_features=8, bias=False)
            (softplus): Softplus(beta=1.0, threshold=20.0)
          )
          (calculator): UniversalCalculator(
            (experts): LinearGLUExperts(
              in_features=4096, hidden_features=11008, out_features=4096, hidden_act=silu, num_experts=8, size_experts=[1376, 1376, 1376, 1376, 1376, 1376, 1376, 1376], bias=False
              (act_fn): SiLU()
…
