…
%|â–ˆâ–ˆâ–ˆâ–ˆâ–ˆâ–ˆâ–ˆâ–ˆâ–ˆâ–Œ| 135/142 [54:20<02:12, 18.88s/it]Running loglikelihood requests:  96%|â–ˆâ–ˆâ–ˆâ–ˆâ–ˆâ–ˆâ–ˆâ–ˆâ–ˆâ–‹| 137/142 [54:37<01:19, 15.83s/it]Running loglikelihood requests:  98%|â–ˆâ–ˆâ–ˆâ–ˆâ–ˆâ–ˆâ–ˆâ–ˆâ–ˆâ–Š| 139/142 [54:47<00:37, 12.59s/it]Running loglikelihood requests:  99%|â–ˆâ–ˆâ–ˆâ–ˆâ–ˆâ–ˆâ–ˆâ–ˆâ–ˆâ–‰| 141/142 [54:59<00:10, 10.64s/it]Running loglikelihood requests: 100%|â–ˆâ–ˆâ–ˆâ–ˆâ–ˆâ–ˆâ–ˆâ–ˆâ–ˆâ–ˆ| 142/142 [54:59<00:00, 23.24s/it]
DEBUG:lm_eval.models.huggingface:Failed to get model SHA for LlamaMoEForCausalLM(
  (model): LlamaMoEModel(
    (embed_tokens): Embedding(32000, 4096, padding_idx=0)
    (layers): ModuleList(
      (0-2): 3 x LlamaMoEDecoderLayer(
        (self_attn): LlamaAttention(
          (q_proj): Linear(in_features=4096, out_features=4096, bias=False)
          (k_proj): Linear(in_features=4096, out_features=4096, bias=False)
          (v_proj): Linear(in_features=4096, out_features=4096, bias=False)
          (o_proj): Linear(in_features=4096, out_features=4096, bias=False)
          (rotary_emb): LlamaRotaryEmbedding()
        )
        (mlp): LinearGLUMoELayer(
          (gate): TopKBalancedNoisyGate(
            (gate_network): Sequential(
              (0): Linear(in_features=4096, out_features=8, bias=False)
              (1): Tanh()
              (2): Linear(in_features=8, out_features=8, bias=False)
            )
            (softmax): Softmax(dim=1)
            (weight_noise): Linear(in_features=4096, out_features=8, bias=False)
            (softplus): Softplus(beta=1.0, threshold=20.0)
          )
          (calculator): UniversalCalculator(
            (experts): LinearGLUExperts(
              in_features=4096, hidden_features=11008, out_features=4096, hidden_act=silu, num_experts=8, size_experts=[1376, 1376, 1376, 1376, 1376, 1376, 1376, 1376], bias=False
              (act_fn): SiLU()
…
                  (3): Parameter containing: [torch.float32 of size 4096x1376]
                  (4): Parameter containing: [torch.float32 of size 4096x1376]
                  (5): Parameter containing: [torch.float32 of size 4096x1376]
                  (6): Parameter containing: [torch.float32 of size 4096x1376]
                  (7): Parameter containing: [torch.float32 of size 4096x1376]
              )
            )
          )
        )
        (input_layernorm): LlamaRMSNorm()
        (post_attention_layernorm): LlamaRMSNorm()
      )
      (3-4): 2 x LlamaMoEDecoderLayer(
        (self_attn): LlamaAttention(
          (q_proj): Linear(in_features=4096, out_features=4096, bias=False)
          (k_proj): Linear(in_features=4096, out_features=4096, bias=False)
          (v_proj): Linear(in_features=4096, out_features=4096, bias=False)
          (o_proj): Linear(in_features=4096, out_features=4096, bias=False)
          (rotary_emb): LlamaRotaryEmbedding()
        )
        (mlp): LinearGLUMoELayer(
          (gate): TopKBalancedNoisyGate(
            (gate_network): Sequential(
              (0): Linear(in_features=4096, out_features=8, bias=False)
              (1): Tanh()
              (2): Linear(in_features=8, out_features=8, bias=False)
            )
            (softmax): Softmax(dim=1)
            (weight_noise): Linear(in_features=4096, out_features=8, bias=False)
            (softplus): Softplus(beta=1.0, threshold=20.0)
          )
          (calculator): UniversalCalculator(
            (experts): LinearGLUExperts(
              in_features=4096, hidden_features=11008, out_features=4096, hidden_act=silu, num_experts=8, size_experts=[1376, 1376, 1376, 1376, 1376, 1376, 1376, 1376], bias=False
              (act_fn): SiLU()
…
                  (2): Parameter containing: [torch.float32 of size 1x1]
                  (3): Parameter containing: [torch.float32 of size 1x1]
                  (4): Parameter containing: [torch.float32 of size 1x1]
                  (5): Parameter containing: [torch.float32 of size 1x1]
                  (6): Parameter containing: [torch.float32 of size 1x1]
                  (7): Parameter containing: [torch.float32 of size 1x1]
              )
            )
          )
        )
        (input_layernorm): LlamaRMSNorm()
        (post_attention_layernorm): LlamaRMSNorm()
      )
    )
    (norm): LlamaRMSNorm()
  )
  (lm_head): Linear(in_features=4096, out_features=32000, bias=False)
) at revision main. Error: Repo id must be a string, not <class 'transformers_modules.LLaMA-MoE-v1-3_5B-2_8.modeling_llama_moe_hf.LlamaMoEForCausalLM'>: 'LlamaMoEForCausalLM(
  (model): LlamaMoEModel(
    (embed_tokens): Embedding(32000, 4096, padding_idx=0)
    (layers): ModuleList(
      (0-2): 3 x LlamaMoEDecoderLayer(
        (self_attn): LlamaAttention(
          (q_proj): Linear(in_features=4096, out_features=4096, bias=False)
          (k_proj): Linear(in_features=4096, out_features=4096, bias=False)
          (v_proj): Linear(in_features=4096, out_features=4096, bias=False)
          (o_proj): Linear(in_features=4096, out_features=4096, bias=False)
          (rotary_emb): LlamaRotaryEmbedding()
        )
        (mlp): LinearGLUMoELayer(
          (gate): TopKBalancedNoisyGate(
            (gate_network): Sequential(
              (0): Linear(in_features=4096, out_features=8, bias=False)
              (1): Tanh()
              (2): Linear(in_features=8, out_features=8, bias=False)
            )
            (softmax): Softmax(dim=1)
            (weight_noise): Linear(in_features=4096, out_features=8, bias=False)
            (softplus): Softplus(beta=1.0, threshold=20.0)
          )
          (calculator): UniversalCalculator(
            (experts): LinearGLUExperts(
              in_features=4096, hidden_features=11008, out_features=4096, hidden_act=silu, num_experts=8, size_experts=[1376, 1376, 1376, 1376, 1376, 1376, 1376, 1376], bias=False
              (act_fn): SiLU()
…
