…
tensor(0)
done!
21
tensor(0)
tensor(2)
tensor(4)
done!
22
tensor(2)
tensor(1)
tensor(0)
tensor(3)
done!
23
tensor(0)
tensor(1)
tensor(5)
tensor(2)
done!
24
tensor(2)
tensor(0)
tensor(3)
tensor(13)
done!
25
tensor(3)
tensor(0)
tensor(10)
tensor(9)
done!
26
tensor(2)
tensor(0)
tensor(6)
done!
27
tensor(0)
tensor(3)
tensor(2)
done!
28
tensor(1)
tensor(0)
tensor(3)
done!
29
tensor(1)
tensor(0)
tensor(4)
tensor(11)
done!
30
tensor(0)
tensor(1)
tensor(5)
tensor(3)
done!
31
tensor(3)
tensor(0)
tensor(4)
tensor(6)
done!
all done!
all_gate number:32

PhiMoEForCausalLM(
  (model): PhiMoEModel(
    (embed_tokens): Embedding(32064, 4096)
    (layers): ModuleList(
      (0-31): 32 x PhiMoEDecoderLayer(
        (self_attn): PhiMoESdpaAttention(
          (q_proj): Linear(in_features=4096, out_features=4096, bias=True)
          (k_proj): Linear(in_features=4096, out_features=1024, bias=True)
          (v_proj): Linear(in_features=4096, out_features=1024, bias=True)
          (o_proj): Linear(in_features=4096, out_features=4096, bias=True)
          (rotary_emb): Phi3LongRoPEScaledRotaryEmbedding()
        )
        (block_sparse_moe): PhiMoESparseMoeBlock(
          (gate): Linear(in_features=4096, out_features=16, bias=False)
          (experts): ModuleList(
            (0-15): 16 x PhiMoEBlockSparseTop2MLP(
              (w1): Linear(in_features=4096, out_features=6400, bias=False)
              (w2): Linear(in_features=6400, out_features=4096, bias=False)
              (w3): Linear(in_features=4096, out_features=6400, bias=False)
              (act_fn): SiLU()
            )
          )
        )
        (input_layernorm): LayerNorm((4096,), eps=1e-05, elementwise_affine=True)
        (post_attention_layernorm): LayerNorm((4096,), eps=1e-05, elementwise_affine=True)
      )
    )
    (norm): LayerNorm((4096,), eps=1e-05, elementwise_affine=True)
  )
  (lm_head): Linear(in_features=4096, out_features=32064, bias=True)
)
model
PhiMoEModel(
  (embed_tokens): Embedding(32064, 4096)
  (layers): ModuleList(
    (0-31): 32 x PhiMoEDecoderLayer(
      (self_attn): PhiMoESdpaAttention(
        (q_proj): Linear(in_features=4096, out_features=4096, bias=True)
        (k_proj): Linear(in_features=4096, out_features=1024, bias=True)
        (v_proj): Linear(in_features=4096, out_features=1024, bias=True)
        (o_proj): Linear(in_features=4096, out_features=4096, bias=True)
        (rotary_emb): Phi3LongRoPEScaledRotaryEmbedding()
      )
      (block_sparse_moe): PhiMoESparseMoeBlock(
        (gate): Linear(in_features=4096, out_features=16, bias=False)
        (experts): ModuleList(
          (0-15): 16 x PhiMoEBlockSparseTop2MLP(
            (w1): Linear(in_features=4096, out_features=6400, bias=False)
            (w2): Linear(in_features=6400, out_features=4096, bias=False)
            (w3): Linear(in_features=4096, out_features=6400, bias=False)
            (act_fn): SiLU()
          )
        )
      )
      (input_layernorm): LayerNorm((4096,), eps=1e-05, elementwise_affine=True)
      (post_attention_layernorm): LayerNorm((4096,), eps=1e-05, elementwise_affine=True)
    )
  )
  (norm): LayerNorm((4096,), eps=1e-05, elementwise_affine=True)
)
model.embed_tokens
Embedding(32064, 4096)
model.layers
ModuleList(
  (0-31): 32 x PhiMoEDecoderLayer(
    (self_attn): PhiMoESdpaAttention(
      (q_proj): Linear(in_features=4096, out_features=4096, bias=True)
      (k_proj): Linear(in_features=4096, out_features=1024, bias=True)
      (v_proj): Linear(in_features=4096, out_features=1024, bias=True)
      (o_proj): Linear(in_features=4096, out_features=4096, bias=True)
      (rotary_emb): Phi3LongRoPEScaledRotaryEmbedding()
    )
    (block_sparse_moe): PhiMoESparseMoeBlock(
      (gate): Linear(in_features=4096, out_features=16, bias=False)
      (experts): ModuleList(
        (0-15): 16 x PhiMoEBlockSparseTop2MLP(
          (w1): Linear(in_features=4096, out_features=6400, bias=False)
          (w2): Linear(in_features=6400, out_features=4096, bias=False)
          (w3): Linear(in_features=4096, out_features=6400, bias=False)
          (act_fn): SiLU()
        )
      )
    )
    (input_layernorm): LayerNorm((4096,), eps=1e-05, elementwise_affine=True)
    (post_attention_layernorm): LayerNorm((4096,), eps=1e-05, elementwise_affine=True)
  )
)
model.layers.0
PhiMoEDecoderLayer(
  (self_attn): PhiMoESdpaAttention(
    (q_proj): Linear(in_features=4096, out_features=4096, bias=True)
    (k_proj): Linear(in_features=4096, out_features=1024, bias=True)
    (v_proj): Linear(in_features=4096, out_features=1024, bias=True)
    (o_proj): Linear(in_features=4096, out_features=4096, bias=True)
    (rotary_emb): Phi3LongRoPEScaledRotaryEmbedding()
  )
  (block_sparse_moe): PhiMoESparseMoeBlock(
    (gate): Linear(in_features=4096, out_features=16, bias=False)
    (experts): ModuleList(
      (0-15): 16 x PhiMoEBlockSparseTop2MLP(
        (w1): Linear(in_features=4096, out_features=6400, bias=False)
        (w2): Linear(in_features=6400, out_features=4096, bias=False)
        (w3): Linear(in_features=4096, out_features=6400, bias=False)
        (act_fn): SiLU()
      )
    )
  )
  (input_layernorm): LayerNorm((4096,), eps=1e-05, elementwise_affine=True)
  (post_attention_layernorm): LayerNorm((4096,), eps=1e-05, elementwise_affine=True)
)
model.layers.0.self_attn
PhiMoESdpaAttention(
  (q_proj): Linear(in_features=4096, out_features=4096, bias=True)
  (k_proj): Linear(in_features=4096, out_features=1024, bias=True)
  (v_proj): Linear(in_features=4096, out_features=1024, bias=True)
  (o_proj): Linear(in_features=4096, out_features=4096, bias=True)
  (rotary_emb): Phi3LongRoPEScaledRotaryEmbedding()
)
model.layers.0.self_attn.q_proj
Linear(in_features=4096, out_features=4096, bias=True)
model.layers.0.self_attn.k_proj
Linear(in_features=4096, out_features=1024, bias=True)
model.layers.0.self_attn.v_proj
Linear(in_features=4096, out_features=1024, bias=True)
model.layers.0.self_attn.o_proj
Linear(in_features=4096, out_features=4096, bias=True)
model.layers.0.self_attn.rotary_emb
Phi3LongRoPEScaledRotaryEmbedding()
model.layers.0.block_sparse_moe
PhiMoESparseMoeBlock(
  (gate): Linear(in_features=4096, out_features=16, bias=False)
  (experts): ModuleList(
    (0-15): 16 x PhiMoEBlockSparseTop2MLP(
      (w1): Linear(in_features=4096, out_features=6400, bias=False)
      (w2): Linear(in_features=6400, out_features=4096, bias=False)
      (w3): Linear(in_features=4096, out_features=6400, bias=False)
      (act_fn): SiLU()
    )
  )
)
model.layers.0.block_sparse_moe.gate
Linear(in_features=4096, out_features=16, bias=False)
model.layers.0.block_sparse_moe.experts
ModuleList(
  (0-15): 16 x PhiMoEBlockSparseTop2MLP(
    (w1): Linear(in_features=4096, out_features=6400, bias=False)
    (w2): Linear(in_features=6400, out_features=4096, bias=False)
    (w3): Linear(in_features=4096, out_features=6400, bias=False)
    (act_fn): SiLU()
  )
)
model.layers.0.block_sparse_moe.experts.0
PhiMoEBlockSparseTop2MLP(
  (w1): Linear(in_features=4096, out_features=6400, bias=False)
  (w2): Linear(in_features=6400, out_features=4096, bias=False)
  (w3): Linear(in_features=4096, out_features=6400, bias=False)
  (act_fn): SiLU()
)
model.layers.0.block_sparse_moe.experts.0.w1
Linear(in_features=4096, out_features=6400, bias=False)
model.layers.0.block_sparse_moe.experts.0.w2
Linear(in_features=6400, out_features=4096, bias=False)
model.layers.0.block_sparse_moe.experts.0.w3
Linear(in_features=4096, out_features=6400, bias=False)
model.layers.0.block_sparse_moe.experts.0.act_fn
SiLU()
model.layers.0.block_sparse_moe.experts.1
PhiMoEBlockSparseTop2MLP(
  (w1): Linear(in_features=4096, out_features=6400, bias=False)
  (w2): Linear(in_features=6400, out_features=4096, bias=False)
  (w3): Linear(in_features=4096, out_features=6400, bias=False)
  (act_fn): SiLU()
)
model.layers.0.block_sparse_moe.experts.1.w1
Linear(in_features=4096, out_features=6400, bias=False)
model.layers.0.block_sparse_moe.experts.1.w2
Linear(in_features=6400, out_features=4096, bias=False)
model.layers.0.block_sparse_moe.experts.1.w3
Linear(in_features=4096, out_features=6400, bias=False)
model.layers.0.block_sparse_moe.experts.1.act_fn
SiLU()
model.layers.0.block_sparse_moe.experts.3
PhiMoEBlockSparseTop2MLP(
  (w1): Linear(in_features=4096, out_features=6400, bias=False)
  (w2): Linear(in_features=6400, out_features=4096, bias=False)
  (w3): Linear(in_features=4096, out_features=6400, bias=False)
  (act_fn): SiLU()
)
model.layers.0.block_sparse_moe.experts.3.w1
Linear(in_features=4096, out_features=6400, bias=False)
model.layers.0.block_sparse_moe.experts.3.w2
Linear(in_features=6400, out_features=4096, bias=False)
model.layers.0.block_sparse_moe.experts.3.w3
Linear(in_features=4096, out_features=6400, bias=False)
model.layers.0.block_sparse_moe.experts.3.act_fn
SiLU()
model.layers.0.input_layernorm
LayerNorm((4096,), eps=1e-05, elementwise_affine=True)
model.layers.0.post_attention_layernorm
LayerNorm((4096,), eps=1e-05, elementwise_affine=True)
model.layers.1
PhiMoEDecoderLayer(
  (self_attn): PhiMoESdpaAttention(
    (q_proj): Linear(in_features=4096, out_features=4096, bias=True)
    (k_proj): Linear(in_features=4096, out_features=1024, bias=True)
    (v_proj): Linear(in_features=4096, out_features=1024, bias=True)
    (o_proj): Linear(in_features=4096, out_features=4096, bias=True)
    (rotary_emb): Phi3LongRoPEScaledRotaryEmbedding()
  )
  (block_sparse_moe): PhiMoESparseMoeBlock(
    (gate): Linear(in_features=4096, out_features=16, bias=False)
    (experts): ModuleList(
      (0-15): 16 x PhiMoEBlockSparseTop2MLP(
        (w1): Linear(in_features=4096, out_features=6400, bias=False)
        (w2): Linear(in_features=6400, out_features=4096, bias=False)
        (w3): Linear(in_features=4096, out_features=6400, bias=False)
        (act_fn): SiLU()
      )
    )
  )
  (input_layernorm): LayerNorm((4096,), eps=1e-05, elementwise_affine=True)
  (post_attention_layernorm): LayerNorm((4096,), eps=1e-05, elementwise_affine=True)
)
model.layers.1.self_attn
PhiMoESdpaAttention(
  (q_proj): Linear(in_features=4096, out_features=4096, bias=True)
  (k_proj): Linear(in_features=4096, out_features=1024, bias=True)
  (v_proj): Linear(in_features=4096, out_features=1024, bias=True)
  (o_proj): Linear(in_features=4096, out_features=4096, bias=True)
  (rotary_emb): Phi3LongRoPEScaledRotaryEmbedding()
)
model.layers.1.self_attn.q_proj
Linear(in_features=4096, out_features=4096, bias=True)
model.layers.1.self_attn.k_proj
Linear(in_features=4096, out_features=1024, bias=True)
model.layers.1.self_attn.v_proj
Linear(in_features=4096, out_features=1024, bias=True)
model.layers.1.self_attn.o_proj
Linear(in_features=4096, out_features=4096, bias=True)
model.layers.1.self_attn.rotary_emb
Phi3LongRoPEScaledRotaryEmbedding()
model.layers.1.block_sparse_moe
PhiMoESparseMoeBlock(
  (gate): Linear(in_features=4096, out_features=16, bias=False)
  (experts): ModuleList(
    (0-15): 16 x PhiMoEBlockSparseTop2MLP(
      (w1): Linear(in_features=4096, out_features=6400, bias=False)
      (w2): Linear(in_features=6400, out_features=4096, bias=False)
      (w3): Linear(in_features=4096, out_features=6400, bias=False)
      (act_fn): SiLU()
    )
  )
)
model.layers.1.block_sparse_moe.gate
Linear(in_features=4096, out_features=16, bias=False)
model.layers.1.block_sparse_moe.experts
ModuleList(
  (0-15): 16 x PhiMoEBlockSparseTop2MLP(
    (w1): Linear(in_features=4096, out_features=6400, bias=False)
    (w2): Linear(in_features=6400, out_features=4096, bias=False)
    (w3): Linear(in_features=4096, out_features=6400, bias=False)
    (act_fn): SiLU()
  )
)
model.layers.1.block_sparse_moe.experts.0
PhiMoEBlockSparseTop2MLP(
  (w1): Linear(in_features=4096, out_features=6400, bias=False)
  (w2): Linear(in_features=6400, out_features=4096, bias=False)
  (w3): Linear(in_features=4096, out_features=6400, bias=False)
  (act_fn): SiLU()
)
model.layers.1.block_sparse_moe.experts.0.w1
Linear(in_features=4096, out_features=6400, bias=False)
model.layers.1.block_sparse_moe.experts.0.w2
Linear(in_features=6400, out_features=4096, bias=False)
model.layers.1.block_sparse_moe.experts.0.w3
Linear(in_features=4096, out_features=6400, bias=False)
model.layers.1.block_sparse_moe.experts.0.act_fn
SiLU()
model.layers.1.block_sparse_moe.experts.1
PhiMoEBlockSparseTop2MLP(
  (w1): Linear(in_features=4096, out_features=6400, bias=False)
  (w2): Linear(in_features=6400, out_features=4096, bias=False)
  (w3): Linear(in_features=4096, out_features=6400, bias=False)
  (act_fn): SiLU()
)
model.layers.1.block_sparse_moe.experts.1.w1
Linear(in_features=4096, out_features=6400, bias=False)
model.layers.1.block_sparse_moe.experts.1.w2
Linear(in_features=6400, out_features=4096, bias=False)
model.layers.1.block_sparse_moe.experts.1.w3
Linear(in_features=4096, out_features=6400, bias=False)
model.layers.1.block_sparse_moe.experts.1.act_fn
SiLU()
model.layers.1.block_sparse_moe.experts.2
PhiMoEBlockSparseTop2MLP(
  (w1): Linear(in_features=4096, out_features=6400, bias=False)
  (w2): Linear(in_features=6400, out_features=4096, bias=False)
  (w3): Linear(in_features=4096, out_features=6400, bias=False)
  (act_fn): SiLU()
)
model.layers.1.block_sparse_moe.experts.2.w1
Linear(in_features=4096, out_features=6400, bias=False)
model.layers.1.block_sparse_moe.experts.2.w2
Linear(in_features=6400, out_features=4096, bias=False)
model.layers.1.block_sparse_moe.experts.2.w3
Linear(in_features=4096, out_features=6400, bias=False)
model.layers.1.block_sparse_moe.experts.2.act_fn
SiLU()
model.layers.1.input_layernorm
LayerNorm((4096,), eps=1e-05, elementwise_affine=True)
model.layers.1.post_attention_layernorm
LayerNorm((4096,), eps=1e-05, elementwise_affine=True)
model.layers.2
PhiMoEDecoderLayer(
  (self_attn): PhiMoESdpaAttention(
    (q_proj): Linear(in_features=4096, out_features=4096, bias=True)
    (k_proj): Linear(in_features=4096, out_features=1024, bias=True)
    (v_proj): Linear(in_features=4096, out_features=1024, bias=True)
    (o_proj): Linear(in_features=4096, out_features=4096, bias=True)
    (rotary_emb): Phi3LongRoPEScaledRotaryEmbedding()
  )
  (block_sparse_moe): PhiMoESparseMoeBlock(
    (gate): Linear(in_features=4096, out_features=16, bias=False)
    (experts): ModuleList(
      (0-15): 16 x PhiMoEBlockSparseTop2MLP(
        (w1): Linear(in_features=4096, out_features=6400, bias=False)
        (w2): Linear(in_features=6400, out_features=4096, bias=False)
        (w3): Linear(in_features=4096, out_features=6400, bias=False)
        (act_fn): SiLU()
      )
    )
  )
  (input_layernorm): LayerNorm((4096,), eps=1e-05, elementwise_affine=True)
  (post_attention_layernorm): LayerNorm((4096,), eps=1e-05, elementwise_affine=True)
)
model.layers.2.self_attn
PhiMoESdpaAttention(
  (q_proj): Linear(in_features=4096, out_features=4096, bias=True)
  (k_proj): Linear(in_features=4096, out_features=1024, bias=True)
  (v_proj): Linear(in_features=4096, out_features=1024, bias=True)
  (o_proj): Linear(in_features=4096, out_features=4096, bias=True)
  (rotary_emb): Phi3LongRoPEScaledRotaryEmbedding()
)
model.layers.2.self_attn.q_proj
Linear(in_features=4096, out_features=4096, bias=True)
model.layers.2.self_attn.k_proj
Linear(in_features=4096, out_features=1024, bias=True)
model.layers.2.self_attn.v_proj
Linear(in_features=4096, out_features=1024, bias=True)
model.layers.2.self_attn.o_proj
Linear(in_features=4096, out_features=4096, bias=True)
model.layers.2.self_attn.rotary_emb
Phi3LongRoPEScaledRotaryEmbedding()
model.layers.2.block_sparse_moe
PhiMoESparseMoeBlock(
  (gate): Linear(in_features=4096, out_features=16, bias=False)
  (experts): ModuleList(
    (0-15): 16 x PhiMoEBlockSparseTop2MLP(
      (w1): Linear(in_features=4096, out_features=6400, bias=False)
      (w2): Linear(in_features=6400, out_features=4096, bias=False)
      (w3): Linear(in_features=4096, out_features=6400, bias=False)
      (act_fn): SiLU()
    )
  )
)
model.layers.2.block_sparse_moe.gate
Linear(in_features=4096, out_features=16, bias=False)
model.layers.2.block_sparse_moe.experts
ModuleList(
  (0-15): 16 x PhiMoEBlockSparseTop2MLP(
    (w1): Linear(in_features=4096, out_features=6400, bias=False)
    (w2): Linear(in_features=6400, out_features=4096, bias=False)
    (w3): Linear(in_features=4096, out_features=6400, bias=False)
    (act_fn): SiLU()
  )
)
model.layers.2.block_sparse_moe.experts.0
PhiMoEBlockSparseTop2MLP(
  (w1): Linear(in_features=4096, out_features=6400, bias=False)
  (w2): Linear(in_features=6400, out_features=4096, bias=False)
  (w3): Linear(in_features=4096, out_features=6400, bias=False)
  (act_fn): SiLU()
)
model.layers.2.block_sparse_moe.experts.0.w1
Linear(in_features=4096, out_features=6400, bias=False)
model.layers.2.block_sparse_moe.experts.0.w2
Linear(in_features=6400, out_features=4096, bias=False)
model.layers.2.block_sparse_moe.experts.0.w3
Linear(in_features=4096, out_features=6400, bias=False)
model.layers.2.block_sparse_moe.experts.0.act_fn
SiLU()
model.layers.2.block_sparse_moe.experts.3
PhiMoEBlockSparseTop2MLP(
  (w1): Linear(in_features=4096, out_features=6400, bias=False)
  (w2): Linear(in_features=6400, out_features=4096, bias=False)
  (w3): Linear(in_features=4096, out_features=6400, bias=False)
  (act_fn): SiLU()
)
model.layers.2.block_sparse_moe.experts.3.w1
Linear(in_features=4096, out_features=6400, bias=False)
model.layers.2.block_sparse_moe.experts.3.w2
Linear(in_features=6400, out_features=4096, bias=False)
model.layers.2.block_sparse_moe.experts.3.w3
Linear(in_features=4096, out_features=6400, bias=False)
model.layers.2.block_sparse_moe.experts.3.act_fn
SiLU()
model.layers.2.block_sparse_moe.experts.4
PhiMoEBlockSparseTop2MLP(
  (w1): Linear(in_features=4096, out_features=6400, bias=False)
  (w2): Linear(in_features=6400, out_features=4096, bias=False)
  (w3): Linear(in_features=4096, out_features=6400, bias=False)
  (act_fn): SiLU()
)
model.layers.2.block_sparse_moe.experts.4.w1
Linear(in_features=4096, out_features=6400, bias=False)
model.layers.2.block_sparse_moe.experts.4.w2
Linear(in_features=6400, out_features=4096, bias=False)
model.layers.2.block_sparse_moe.experts.4.w3
Linear(in_features=4096, out_features=6400, bias=False)
model.layers.2.block_sparse_moe.experts.4.act_fn
SiLU()
model.layers.2.input_layernorm
LayerNorm((4096,), eps=1e-05, elementwise_affine=True)
model.layers.2.post_attention_layernorm
LayerNorm((4096,), eps=1e-05, elementwise_affine=True)
model.layers.3
PhiMoEDecoderLayer(
  (self_attn): PhiMoESdpaAttention(
    (q_proj): Linear(in_features=4096, out_features=4096, bias=True)
    (k_proj): Linear(in_features=4096, out_features=1024, bias=True)
    (v_proj): Linear(in_features=4096, out_features=1024, bias=True)
    (o_proj): Linear(in_features=4096, out_features=4096, bias=True)
    (rotary_emb): Phi3LongRoPEScaledRotaryEmbedding()
  )
  (block_sparse_moe): PhiMoESparseMoeBlock(
    (gate): Linear(in_features=4096, out_features=16, bias=False)
    (experts): ModuleList(
      (0-15): 16 x PhiMoEBlockSparseTop2MLP(
        (w1): Linear(in_features=4096, out_features=6400, bias=False)
        (w2): Linear(in_features=6400, out_features=4096, bias=False)
        (w3): Linear(in_features=4096, out_features=6400, bias=False)
        (act_fn): SiLU()
      )
    )
  )
  (input_layernorm): LayerNorm((4096,), eps=1e-05, elementwise_affine=True)
  (post_attention_layernorm): LayerNorm((4096,), eps=1e-05, elementwise_affine=True)
)
model.layers.3.self_attn
PhiMoESdpaAttention(
  (q_proj): Linear(in_features=4096, out_features=4096, bias=True)
  (k_proj): Linear(in_features=4096, out_features=1024, bias=True)
  (v_proj): Linear(in_features=4096, out_features=1024, bias=True)
  (o_proj): Linear(in_features=4096, out_features=4096, bias=True)
  (rotary_emb): Phi3LongRoPEScaledRotaryEmbedding()
)
model.layers.3.self_attn.q_proj
Linear(in_features=4096, out_features=4096, bias=True)
model.layers.3.self_attn.k_proj
Linear(in_features=4096, out_features=1024, bias=True)
model.layers.3.self_attn.v_proj
Linear(in_features=4096, out_features=1024, bias=True)
model.layers.3.self_attn.o_proj
Linear(in_features=4096, out_features=4096, bias=True)
model.layers.3.self_attn.rotary_emb
Phi3LongRoPEScaledRotaryEmbedding()
model.layers.3.block_sparse_moe
PhiMoESparseMoeBlock(
  (gate): Linear(in_features=4096, out_features=16, bias=False)
  (experts): ModuleList(
    (0-15): 16 x PhiMoEBlockSparseTop2MLP(
      (w1): Linear(in_features=4096, out_features=6400, bias=False)
      (w2): Linear(in_features=6400, out_features=4096, bias=False)
      (w3): Linear(in_features=4096, out_features=6400, bias=False)
      (act_fn): SiLU()
    )
  )
)
model.layers.3.block_sparse_moe.gate
Linear(in_features=4096, out_features=16, bias=False)
model.layers.3.block_sparse_moe.experts
ModuleList(
  (0-15): 16 x PhiMoEBlockSparseTop2MLP(
    (w1): Linear(in_features=4096, out_features=6400, bias=False)
    (w2): Linear(in_features=6400, out_features=4096, bias=False)
    (w3): Linear(in_features=4096, out_features=6400, bias=False)
    (act_fn): SiLU()
  )
)
model.layers.3.block_sparse_moe.experts.0
PhiMoEBlockSparseTop2MLP(
  (w1): Linear(in_features=4096, out_features=6400, bias=False)
  (w2): Linear(in_features=6400, out_features=4096, bias=False)
  (w3): Linear(in_features=4096, out_features=6400, bias=False)
  (act_fn): SiLU()
)
model.layers.3.block_sparse_moe.experts.0.w1
Linear(in_features=4096, out_features=6400, bias=False)
model.layers.3.block_sparse_moe.experts.0.w2
Linear(in_features=6400, out_features=4096, bias=False)
model.layers.3.block_sparse_moe.experts.0.w3
Linear(in_features=4096, out_features=6400, bias=False)
model.layers.3.block_sparse_moe.experts.0.act_fn
SiLU()
model.layers.3.block_sparse_moe.experts.1
PhiMoEBlockSparseTop2MLP(
  (w1): Linear(in_features=4096, out_features=6400, bias=False)
  (w2): Linear(in_features=6400, out_features=4096, bias=False)
  (w3): Linear(in_features=4096, out_features=6400, bias=False)
  (act_fn): SiLU()
)
model.layers.3.block_sparse_moe.experts.1.w1
Linear(in_features=4096, out_features=6400, bias=False)
model.layers.3.block_sparse_moe.experts.1.w2
Linear(in_features=6400, out_features=4096, bias=False)
model.layers.3.block_sparse_moe.experts.1.w3
Linear(in_features=4096, out_features=6400, bias=False)
model.layers.3.block_sparse_moe.experts.1.act_fn
SiLU()
model.layers.3.block_sparse_moe.experts.2
PhiMoEBlockSparseTop2MLP(
  (w1): Linear(in_features=4096, out_features=6400, bias=False)
  (w2): Linear(in_features=6400, out_features=4096, bias=False)
  (w3): Linear(in_features=4096, out_features=6400, bias=False)
  (act_fn): SiLU()
)
model.layers.3.block_sparse_moe.experts.2.w1
Linear(in_features=4096, out_features=6400, bias=False)
model.layers.3.block_sparse_moe.experts.2.w2
Linear(in_features=6400, out_features=4096, bias=False)
model.layers.3.block_sparse_moe.experts.2.w3
Linear(in_features=4096, out_features=6400, bias=False)
model.layers.3.block_sparse_moe.experts.2.act_fn
SiLU()
model.layers.3.block_sparse_moe.experts.4
PhiMoEBlockSparseTop2MLP(
  (w1): Linear(in_features=4096, out_features=6400, bias=False)
  (w2): Linear(in_features=6400, out_features=4096, bias=False)
  (w3): Linear(in_features=4096, out_features=6400, bias=False)
  (act_fn): SiLU()
)
model.layers.3.block_sparse_moe.experts.4.w1
Linear(in_features=4096, out_features=6400, bias=False)
model.layers.3.block_sparse_moe.experts.4.w2
Linear(in_features=6400, out_features=4096, bias=False)
model.layers.3.block_sparse_moe.experts.4.w3
Linear(in_features=4096, out_features=6400, bias=False)
model.layers.3.block_sparse_moe.experts.4.act_fn
SiLU()
model.layers.3.input_layernorm
LayerNorm((4096,), eps=1e-05, elementwise_affine=True)
model.layers.3.post_attention_layernorm
LayerNorm((4096,), eps=1e-05, elementwise_affine=True)
model.layers.4
PhiMoEDecoderLayer(
  (self_attn): PhiMoESdpaAttention(
    (q_proj): Linear(in_features=4096, out_features=4096, bias=True)
    (k_proj): Linear(in_features=4096, out_features=1024, bias=True)
    (v_proj): Linear(in_features=4096, out_features=1024, bias=True)
    (o_proj): Linear(in_features=4096, out_features=4096, bias=True)
    (rotary_emb): Phi3LongRoPEScaledRotaryEmbedding()
  )
  (block_sparse_moe): PhiMoESparseMoeBlock(
    (gate): Linear(in_features=4096, out_features=16, bias=False)
    (experts): ModuleList(
      (0-15): 16 x PhiMoEBlockSparseTop2MLP(
        (w1): Linear(in_features=4096, out_features=6400, bias=False)
        (w2): Linear(in_features=6400, out_features=4096, bias=False)
        (w3): Linear(in_features=4096, out_features=6400, bias=False)
        (act_fn): SiLU()
      )
    )
  )
  (input_layernorm): LayerNorm((4096,), eps=1e-05, elementwise_affine=True)
  (post_attention_layernorm): LayerNorm((4096,), eps=1e-05, elementwise_affine=True)
)
model.layers.4.self_attn
PhiMoESdpaAttention(
  (q_proj): Linear(in_features=4096, out_features=4096, bias=True)
  (k_proj): Linear(in_features=4096, out_features=1024, bias=True)
  (v_proj): Linear(in_features=4096, out_features=1024, bias=True)
  (o_proj): Linear(in_features=4096, out_features=4096, bias=True)
  (rotary_emb): Phi3LongRoPEScaledRotaryEmbedding()
)
model.layers.4.self_attn.q_proj
Linear(in_features=4096, out_features=4096, bias=True)
model.layers.4.self_attn.k_proj
Linear(in_features=4096, out_features=1024, bias=True)
model.layers.4.self_attn.v_proj
Linear(in_features=4096, out_features=1024, bias=True)
model.layers.4.self_attn.o_proj
Linear(in_features=4096, out_features=4096, bias=True)
model.layers.4.self_attn.rotary_emb
Phi3LongRoPEScaledRotaryEmbedding()
model.layers.4.block_sparse_moe
PhiMoESparseMoeBlock(
  (gate): Linear(in_features=4096, out_features=16, bias=False)
  (experts): ModuleList(
    (0-15): 16 x PhiMoEBlockSparseTop2MLP(
      (w1): Linear(in_features=4096, out_features=6400, bias=False)
      (w2): Linear(in_features=6400, out_features=4096, bias=False)
      (w3): Linear(in_features=4096, out_features=6400, bias=False)
      (act_fn): SiLU()
    )
  )
)
model.layers.4.block_sparse_moe.gate
Linear(in_features=4096, out_features=16, bias=False)
model.layers.4.block_sparse_moe.experts
ModuleList(
  (0-15): 16 x PhiMoEBlockSparseTop2MLP(
    (w1): Linear(in_features=4096, out_features=6400, bias=False)
    (w2): Linear(in_features=6400, out_features=4096, bias=False)
    (w3): Linear(in_features=4096, out_features=6400, bias=False)
    (act_fn): SiLU()
  )
)
model.layers.4.block_sparse_moe.experts.0
PhiMoEBlockSparseTop2MLP(
  (w1): Linear(in_features=4096, out_features=6400, bias=False)
  (w2): Linear(in_features=6400, out_features=4096, bias=False)
  (w3): Linear(in_features=4096, out_features=6400, bias=False)
  (act_fn): SiLU()
)
model.layers.4.block_sparse_moe.experts.0.w1
Linear(in_features=4096, out_features=6400, bias=False)
model.layers.4.block_sparse_moe.experts.0.w2
Linear(in_features=6400, out_features=4096, bias=False)
model.layers.4.block_sparse_moe.experts.0.w3
Linear(in_features=4096, out_features=6400, bias=False)
model.layers.4.block_sparse_moe.experts.0.act_fn
SiLU()
model.layers.4.block_sparse_moe.experts.1
PhiMoEBlockSparseTop2MLP(
  (w1): Linear(in_features=4096, out_features=6400, bias=False)
  (w2): Linear(in_features=6400, out_features=4096, bias=False)
  (w3): Linear(in_features=4096, out_features=6400, bias=False)
  (act_fn): SiLU()
)
model.layers.4.block_sparse_moe.experts.1.w1
Linear(in_features=4096, out_features=6400, bias=False)
model.layers.4.block_sparse_moe.experts.1.w2
Linear(in_features=6400, out_features=4096, bias=False)
model.layers.4.block_sparse_moe.experts.1.w3
Linear(in_features=4096, out_features=6400, bias=False)
model.layers.4.block_sparse_moe.experts.1.act_fn
SiLU()
model.layers.4.block_sparse_moe.experts.2
PhiMoEBlockSparseTop2MLP(
  (w1): Linear(in_features=4096, out_features=6400, bias=False)
  (w2): Linear(in_features=6400, out_features=4096, bias=False)
  (w3): Linear(in_features=4096, out_features=6400, bias=False)
  (act_fn): SiLU()
)
model.layers.4.block_sparse_moe.experts.2.w1
Linear(in_features=4096, out_features=6400, bias=False)
model.layers.4.block_sparse_moe.experts.2.w2
Linear(in_features=6400, out_features=4096, bias=False)
model.layers.4.block_sparse_moe.experts.2.w3
Linear(in_features=4096, out_features=6400, bias=False)
model.layers.4.block_sparse_moe.experts.2.act_fn
SiLU()
model.layers.4.input_layernorm
LayerNorm((4096,), eps=1e-05, elementwise_affine=True)
model.layers.4.post_attention_layernorm
LayerNorm((4096,), eps=1e-05, elementwise_affine=True)
model.layers.5
PhiMoEDecoderLayer(
  (self_attn): PhiMoESdpaAttention(
    (q_proj): Linear(in_features=4096, out_features=4096, bias=True)
    (k_proj): Linear(in_features=4096, out_features=1024, bias=True)
    (v_proj): Linear(in_features=4096, out_features=1024, bias=True)
    (o_proj): Linear(in_features=4096, out_features=4096, bias=True)
    (rotary_emb): Phi3LongRoPEScaledRotaryEmbedding()
  )
  (block_sparse_moe): PhiMoESparseMoeBlock(
    (gate): Linear(in_features=4096, out_features=16, bias=False)
    (experts): ModuleList(
      (0-15): 16 x PhiMoEBlockSparseTop2MLP(
        (w1): Linear(in_features=4096, out_features=6400, bias=False)
        (w2): Linear(in_features=6400, out_features=4096, bias=False)
        (w3): Linear(in_features=4096, out_features=6400, bias=False)
        (act_fn): SiLU()
      )
    )
  )
  (input_layernorm): LayerNorm((4096,), eps=1e-05, elementwise_affine=True)
  (post_attention_layernorm): LayerNorm((4096,), eps=1e-05, elementwise_affine=True)
)
model.layers.5.self_attn
PhiMoESdpaAttention(
  (q_proj): Linear(in_features=4096, out_features=4096, bias=True)
  (k_proj): Linear(in_features=4096, out_features=1024, bias=True)
  (v_proj): Linear(in_features=4096, out_features=1024, bias=True)
  (o_proj): Linear(in_features=4096, out_features=4096, bias=True)
  (rotary_emb): Phi3LongRoPEScaledRotaryEmbedding()
)
model.layers.5.self_attn.q_proj
Linear(in_features=4096, out_features=4096, bias=True)
model.layers.5.self_attn.k_proj
Linear(in_features=4096, out_features=1024, bias=True)
model.layers.5.self_attn.v_proj
Linear(in_features=4096, out_features=1024, bias=True)
model.layers.5.self_attn.o_proj
Linear(in_features=4096, out_features=4096, bias=True)
model.layers.5.self_attn.rotary_emb
Phi3LongRoPEScaledRotaryEmbedding()
model.layers.5.block_sparse_moe
PhiMoESparseMoeBlock(
  (gate): Linear(in_features=4096, out_features=16, bias=False)
  (experts): ModuleList(
    (0-15): 16 x PhiMoEBlockSparseTop2MLP(
      (w1): Linear(in_features=4096, out_features=6400, bias=False)
      (w2): Linear(in_features=6400, out_features=4096, bias=False)
      (w3): Linear(in_features=4096, out_features=6400, bias=False)
      (act_fn): SiLU()
    )
  )
)
model.layers.5.block_sparse_moe.gate
Linear(in_features=4096, out_features=16, bias=False)
model.layers.5.block_sparse_moe.experts
ModuleList(
  (0-15): 16 x PhiMoEBlockSparseTop2MLP(
    (w1): Linear(in_features=4096, out_features=6400, bias=False)
    (w2): Linear(in_features=6400, out_features=4096, bias=False)
    (w3): Linear(in_features=4096, out_features=6400, bias=False)
    (act_fn): SiLU()
  )
)
model.layers.5.block_sparse_moe.experts.0
PhiMoEBlockSparseTop2MLP(
  (w1): Linear(in_features=4096, out_features=6400, bias=False)
  (w2): Linear(in_features=6400, out_features=4096, bias=False)
  (w3): Linear(in_features=4096, out_features=6400, bias=False)
  (act_fn): SiLU()
)
model.layers.5.block_sparse_moe.experts.0.w1
Linear(in_features=4096, out_features=6400, bias=False)
model.layers.5.block_sparse_moe.experts.0.w2
Linear(in_features=6400, out_features=4096, bias=False)
model.layers.5.block_sparse_moe.experts.0.w3
Linear(in_features=4096, out_features=6400, bias=False)
model.layers.5.block_sparse_moe.experts.0.act_fn
SiLU()
model.layers.5.block_sparse_moe.experts.1
PhiMoEBlockSparseTop2MLP(
  (w1): Linear(in_features=4096, out_features=6400, bias=False)
  (w2): Linear(in_features=6400, out_features=4096, bias=False)
  (w3): Linear(in_features=4096, out_features=6400, bias=False)
  (act_fn): SiLU()
)
model.layers.5.block_sparse_moe.experts.1.w1
Linear(in_features=4096, out_features=6400, bias=False)
model.layers.5.block_sparse_moe.experts.1.w2
Linear(in_features=6400, out_features=4096, bias=False)
model.layers.5.block_sparse_moe.experts.1.w3
Linear(in_features=4096, out_features=6400, bias=False)
model.layers.5.block_sparse_moe.experts.1.act_fn
SiLU()
model.layers.5.block_sparse_moe.experts.3
PhiMoEBlockSparseTop2MLP(
  (w1): Linear(in_features=4096, out_features=6400, bias=False)
  (w2): Linear(in_features=6400, out_features=4096, bias=False)
  (w3): Linear(in_features=4096, out_features=6400, bias=False)
  (act_fn): SiLU()
)
model.layers.5.block_sparse_moe.experts.3.w1
Linear(in_features=4096, out_features=6400, bias=False)
model.layers.5.block_sparse_moe.experts.3.w2
Linear(in_features=6400, out_features=4096, bias=False)
model.layers.5.block_sparse_moe.experts.3.w3
Linear(in_features=4096, out_features=6400, bias=False)
model.layers.5.block_sparse_moe.experts.3.act_fn
SiLU()
model.layers.5.input_layernorm
LayerNorm((4096,), eps=1e-05, elementwise_affine=True)
model.layers.5.post_attention_layernorm
LayerNorm((4096,), eps=1e-05, elementwise_affine=True)
model.layers.6
PhiMoEDecoderLayer(
  (self_attn): PhiMoESdpaAttention(
    (q_proj): Linear(in_features=4096, out_features=4096, bias=True)
    (k_proj): Linear(in_features=4096, out_features=1024, bias=True)
    (v_proj): Linear(in_features=4096, out_features=1024, bias=True)
    (o_proj): Linear(in_features=4096, out_features=4096, bias=True)
    (rotary_emb): Phi3LongRoPEScaledRotaryEmbedding()
  )
  (block_sparse_moe): PhiMoESparseMoeBlock(
    (gate): Linear(in_features=4096, out_features=16, bias=False)
    (experts): ModuleList(
      (0-15): 16 x PhiMoEBlockSparseTop2MLP(
        (w1): Linear(in_features=4096, out_features=6400, bias=False)
        (w2): Linear(in_features=6400, out_features=4096, bias=False)
        (w3): Linear(in_features=4096, out_features=6400, bias=False)
        (act_fn): SiLU()
      )
    )
  )
  (input_layernorm): LayerNorm((4096,), eps=1e-05, elementwise_affine=True)
  (post_attention_layernorm): LayerNorm((4096,), eps=1e-05, elementwise_affine=True)
)
model.layers.6.self_attn
PhiMoESdpaAttention(
  (q_proj): Linear(in_features=4096, out_features=4096, bias=True)
  (k_proj): Linear(in_features=4096, out_features=1024, bias=True)
  (v_proj): Linear(in_features=4096, out_features=1024, bias=True)
  (o_proj): Linear(in_features=4096, out_features=4096, bias=True)
  (rotary_emb): Phi3LongRoPEScaledRotaryEmbedding()
)
model.layers.6.self_attn.q_proj
Linear(in_features=4096, out_features=4096, bias=True)
model.layers.6.self_attn.k_proj
Linear(in_features=4096, out_features=1024, bias=True)
model.layers.6.self_attn.v_proj
Linear(in_features=4096, out_features=1024, bias=True)
model.layers.6.self_attn.o_proj
Linear(in_features=4096, out_features=4096, bias=True)
model.layers.6.self_attn.rotary_emb
Phi3LongRoPEScaledRotaryEmbedding()
model.layers.6.block_sparse_moe
PhiMoESparseMoeBlock(
  (gate): Linear(in_features=4096, out_features=16, bias=False)
  (experts): ModuleList(
    (0-15): 16 x PhiMoEBlockSparseTop2MLP(
      (w1): Linear(in_features=4096, out_features=6400, bias=False)
      (w2): Linear(in_features=6400, out_features=4096, bias=False)
      (w3): Linear(in_features=4096, out_features=6400, bias=False)
      (act_fn): SiLU()
    )
  )
)
model.layers.6.block_sparse_moe.gate
Linear(in_features=4096, out_features=16, bias=False)
model.layers.6.block_sparse_moe.experts
ModuleList(
  (0-15): 16 x PhiMoEBlockSparseTop2MLP(
    (w1): Linear(in_features=4096, out_features=6400, bias=False)
    (w2): Linear(in_features=6400, out_features=4096, bias=False)
    (w3): Linear(in_features=4096, out_features=6400, bias=False)
    (act_fn): SiLU()
  )
)
model.layers.6.block_sparse_moe.experts.0
PhiMoEBlockSparseTop2MLP(
  (w1): Linear(in_features=4096, out_features=6400, bias=False)
  (w2): Linear(in_features=6400, out_features=4096, bias=False)
  (w3): Linear(in_features=4096, out_features=6400, bias=False)
  (act_fn): SiLU()
)
model.layers.6.block_sparse_moe.experts.0.w1
Linear(in_features=4096, out_features=6400, bias=False)
model.layers.6.block_sparse_moe.experts.0.w2
Linear(in_features=6400, out_features=4096, bias=False)
model.layers.6.block_sparse_moe.experts.0.w3
Linear(in_features=4096, out_features=6400, bias=False)
model.layers.6.block_sparse_moe.experts.0.act_fn
SiLU()
model.layers.6.block_sparse_moe.experts.1
PhiMoEBlockSparseTop2MLP(
  (w1): Linear(in_features=4096, out_features=6400, bias=False)
  (w2): Linear(in_features=6400, out_features=4096, bias=False)
  (w3): Linear(in_features=4096, out_features=6400, bias=False)
  (act_fn): SiLU()
)
model.layers.6.block_sparse_moe.experts.1.w1
Linear(in_features=4096, out_features=6400, bias=False)
model.layers.6.block_sparse_moe.experts.1.w2
Linear(in_features=6400, out_features=4096, bias=False)
model.layers.6.block_sparse_moe.experts.1.w3
Linear(in_features=4096, out_features=6400, bias=False)
model.layers.6.block_sparse_moe.experts.1.act_fn
SiLU()
model.layers.6.block_sparse_moe.experts.2
PhiMoEBlockSparseTop2MLP(
  (w1): Linear(in_features=4096, out_features=6400, bias=False)
  (w2): Linear(in_features=6400, out_features=4096, bias=False)
  (w3): Linear(in_features=4096, out_features=6400, bias=False)
  (act_fn): SiLU()
)
model.layers.6.block_sparse_moe.experts.2.w1
Linear(in_features=4096, out_features=6400, bias=False)
model.layers.6.block_sparse_moe.experts.2.w2
Linear(in_features=6400, out_features=4096, bias=False)
model.layers.6.block_sparse_moe.experts.2.w3
Linear(in_features=4096, out_features=6400, bias=False)
model.layers.6.block_sparse_moe.experts.2.act_fn
SiLU()
model.layers.6.block_sparse_moe.experts.11
PhiMoEBlockSparseTop2MLP(
  (w1): Linear(in_features=4096, out_features=6400, bias=False)
  (w2): Linear(in_features=6400, out_features=4096, bias=False)
  (w3): Linear(in_features=4096, out_features=6400, bias=False)
  (act_fn): SiLU()
)
model.layers.6.block_sparse_moe.experts.11.w1
Linear(in_features=4096, out_features=6400, bias=False)
model.layers.6.block_sparse_moe.experts.11.w2
Linear(in_features=6400, out_features=4096, bias=False)
model.layers.6.block_sparse_moe.experts.11.w3
Linear(in_features=4096, out_features=6400, bias=False)
model.layers.6.block_sparse_moe.experts.11.act_fn
SiLU()
model.layers.6.input_layernorm
LayerNorm((4096,), eps=1e-05, elementwise_affine=True)
model.layers.6.post_attention_layernorm
LayerNorm((4096,), eps=1e-05, elementwise_affine=True)
model.layers.7
PhiMoEDecoderLayer(
  (self_attn): PhiMoESdpaAttention(
    (q_proj): Linear(in_features=4096, out_features=4096, bias=True)
    (k_proj): Linear(in_features=4096, out_features=1024, bias=True)
    (v_proj): Linear(in_features=4096, out_features=1024, bias=True)
    (o_proj): Linear(in_features=4096, out_features=4096, bias=True)
    (rotary_emb): Phi3LongRoPEScaledRotaryEmbedding()
  )
  (block_sparse_moe): PhiMoESparseMoeBlock(
    (gate): Linear(in_features=4096, out_features=16, bias=False)
    (experts): ModuleList(
      (0-15): 16 x PhiMoEBlockSparseTop2MLP(
        (w1): Linear(in_features=4096, out_features=6400, bias=False)
        (w2): Linear(in_features=6400, out_features=4096, bias=False)
        (w3): Linear(in_features=4096, out_features=6400, bias=False)
        (act_fn): SiLU()
      )
    )
  )
  (input_layernorm): LayerNorm((4096,), eps=1e-05, elementwise_affine=True)
  (post_attention_layernorm): LayerNorm((4096,), eps=1e-05, elementwise_affine=True)
)
model.layers.7.self_attn
PhiMoESdpaAttention(
  (q_proj): Linear(in_features=4096, out_features=4096, bias=True)
  (k_proj): Linear(in_features=4096, out_features=1024, bias=True)
  (v_proj): Linear(in_features=4096, out_features=1024, bias=True)
  (o_proj): Linear(in_features=4096, out_features=4096, bias=True)
  (rotary_emb): Phi3LongRoPEScaledRotaryEmbedding()
)
model.layers.7.self_attn.q_proj
Linear(in_features=4096, out_features=4096, bias=True)
model.layers.7.self_attn.k_proj
Linear(in_features=4096, out_features=1024, bias=True)
model.layers.7.self_attn.v_proj
Linear(in_features=4096, out_features=1024, bias=True)
model.layers.7.self_attn.o_proj
Linear(in_features=4096, out_features=4096, bias=True)
model.layers.7.self_attn.rotary_emb
Phi3LongRoPEScaledRotaryEmbedding()
model.layers.7.block_sparse_moe
PhiMoESparseMoeBlock(
  (gate): Linear(in_features=4096, out_features=16, bias=False)
  (experts): ModuleList(
    (0-15): 16 x PhiMoEBlockSparseTop2MLP(
      (w1): Linear(in_features=4096, out_features=6400, bias=False)
      (w2): Linear(in_features=6400, out_features=4096, bias=False)
      (w3): Linear(in_features=4096, out_features=6400, bias=False)
      (act_fn): SiLU()
    )
  )
)
model.layers.7.block_sparse_moe.gate
Linear(in_features=4096, out_features=16, bias=False)
model.layers.7.block_sparse_moe.experts
ModuleList(
  (0-15): 16 x PhiMoEBlockSparseTop2MLP(
    (w1): Linear(in_features=4096, out_features=6400, bias=False)
    (w2): Linear(in_features=6400, out_features=4096, bias=False)
    (w3): Linear(in_features=4096, out_features=6400, bias=False)
    (act_fn): SiLU()
  )
)
model.layers.7.block_sparse_moe.experts.0
PhiMoEBlockSparseTop2MLP(
  (w1): Linear(in_features=4096, out_features=6400, bias=False)
  (w2): Linear(in_features=6400, out_features=4096, bias=False)
  (w3): Linear(in_features=4096, out_features=6400, bias=False)
  (act_fn): SiLU()
)
model.layers.7.block_sparse_moe.experts.0.w1
Linear(in_features=4096, out_features=6400, bias=False)
model.layers.7.block_sparse_moe.experts.0.w2
Linear(in_features=6400, out_features=4096, bias=False)
model.layers.7.block_sparse_moe.experts.0.w3
Linear(in_features=4096, out_features=6400, bias=False)
model.layers.7.block_sparse_moe.experts.0.act_fn
SiLU()
model.layers.7.block_sparse_moe.experts.2
PhiMoEBlockSparseTop2MLP(
  (w1): Linear(in_features=4096, out_features=6400, bias=False)
  (w2): Linear(in_features=6400, out_features=4096, bias=False)
  (w3): Linear(in_features=4096, out_features=6400, bias=False)
  (act_fn): SiLU()
)
model.layers.7.block_sparse_moe.experts.2.w1
Linear(in_features=4096, out_features=6400, bias=False)
model.layers.7.block_sparse_moe.experts.2.w2
Linear(in_features=6400, out_features=4096, bias=False)
model.layers.7.block_sparse_moe.experts.2.w3
Linear(in_features=4096, out_features=6400, bias=False)
model.layers.7.block_sparse_moe.experts.2.act_fn
SiLU()
model.layers.7.block_sparse_moe.experts.4
PhiMoEBlockSparseTop2MLP(
  (w1): Linear(in_features=4096, out_features=6400, bias=False)
  (w2): Linear(in_features=6400, out_features=4096, bias=False)
  (w3): Linear(in_features=4096, out_features=6400, bias=False)
  (act_fn): SiLU()
)
model.layers.7.block_sparse_moe.experts.4.w1
Linear(in_features=4096, out_features=6400, bias=False)
model.layers.7.block_sparse_moe.experts.4.w2
Linear(in_features=6400, out_features=4096, bias=False)
model.layers.7.block_sparse_moe.experts.4.w3
Linear(in_features=4096, out_features=6400, bias=False)
model.layers.7.block_sparse_moe.experts.4.act_fn
SiLU()
model.layers.7.input_layernorm
LayerNorm((4096,), eps=1e-05, elementwise_affine=True)
model.layers.7.post_attention_layernorm
LayerNorm((4096,), eps=1e-05, elementwise_affine=True)
model.layers.8
PhiMoEDecoderLayer(
  (self_attn): PhiMoESdpaAttention(
    (q_proj): Linear(in_features=4096, out_features=4096, bias=True)
    (k_proj): Linear(in_features=4096, out_features=1024, bias=True)
    (v_proj): Linear(in_features=4096, out_features=1024, bias=True)
    (o_proj): Linear(in_features=4096, out_features=4096, bias=True)
    (rotary_emb): Phi3LongRoPEScaledRotaryEmbedding()
  )
  (block_sparse_moe): PhiMoESparseMoeBlock(
    (gate): Linear(in_features=4096, out_features=16, bias=False)
    (experts): ModuleList(
      (0-15): 16 x PhiMoEBlockSparseTop2MLP(
        (w1): Linear(in_features=4096, out_features=6400, bias=False)
        (w2): Linear(in_features=6400, out_features=4096, bias=False)
        (w3): Linear(in_features=4096, out_features=6400, bias=False)
        (act_fn): SiLU()
      )
    )
  )
  (input_layernorm): LayerNorm((4096,), eps=1e-05, elementwise_affine=True)
  (post_attention_layernorm): LayerNorm((4096,), eps=1e-05, elementwise_affine=True)
)
model.layers.8.self_attn
PhiMoESdpaAttention(
  (q_proj): Linear(in_features=4096, out_features=4096, bias=True)
  (k_proj): Linear(in_features=4096, out_features=1024, bias=True)
  (v_proj): Linear(in_features=4096, out_features=1024, bias=True)
  (o_proj): Linear(in_features=4096, out_features=4096, bias=True)
  (rotary_emb): Phi3LongRoPEScaledRotaryEmbedding()
)
model.layers.8.self_attn.q_proj
Linear(in_features=4096, out_features=4096, bias=True)
model.layers.8.self_attn.k_proj
Linear(in_features=4096, out_features=1024, bias=True)
model.layers.8.self_attn.v_proj
Linear(in_features=4096, out_features=1024, bias=True)
model.layers.8.self_attn.o_proj
Linear(in_features=4096, out_features=4096, bias=True)
model.layers.8.self_attn.rotary_emb
Phi3LongRoPEScaledRotaryEmbedding()
model.layers.8.block_sparse_moe
PhiMoESparseMoeBlock(
  (gate): Linear(in_features=4096, out_features=16, bias=False)
  (experts): ModuleList(
    (0-15): 16 x PhiMoEBlockSparseTop2MLP(
      (w1): Linear(in_features=4096, out_features=6400, bias=False)
      (w2): Linear(in_features=6400, out_features=4096, bias=False)
      (w3): Linear(in_features=4096, out_features=6400, bias=False)
      (act_fn): SiLU()
    )
  )
)
model.layers.8.block_sparse_moe.gate
Linear(in_features=4096, out_features=16, bias=False)
model.layers.8.block_sparse_moe.experts
ModuleList(
  (0-15): 16 x PhiMoEBlockSparseTop2MLP(
    (w1): Linear(in_features=4096, out_features=6400, bias=False)
    (w2): Linear(in_features=6400, out_features=4096, bias=False)
    (w3): Linear(in_features=4096, out_features=6400, bias=False)
    (act_fn): SiLU()
  )
)
model.layers.8.block_sparse_moe.experts.0
PhiMoEBlockSparseTop2MLP(
  (w1): Linear(in_features=4096, out_features=6400, bias=False)
  (w2): Linear(in_features=6400, out_features=4096, bias=False)
  (w3): Linear(in_features=4096, out_features=6400, bias=False)
  (act_fn): SiLU()
)
model.layers.8.block_sparse_moe.experts.0.w1
Linear(in_features=4096, out_features=6400, bias=False)
model.layers.8.block_sparse_moe.experts.0.w2
Linear(in_features=6400, out_features=4096, bias=False)
model.layers.8.block_sparse_moe.experts.0.w3
Linear(in_features=4096, out_features=6400, bias=False)
model.layers.8.block_sparse_moe.experts.0.act_fn
SiLU()
model.layers.8.block_sparse_moe.experts.1
PhiMoEBlockSparseTop2MLP(
  (w1): Linear(in_features=4096, out_features=6400, bias=False)
  (w2): Linear(in_features=6400, out_features=4096, bias=False)
  (w3): Linear(in_features=4096, out_features=6400, bias=False)
  (act_fn): SiLU()
)
model.layers.8.block_sparse_moe.experts.1.w1
Linear(in_features=4096, out_features=6400, bias=False)
model.layers.8.block_sparse_moe.experts.1.w2
Linear(in_features=6400, out_features=4096, bias=False)
model.layers.8.block_sparse_moe.experts.1.w3
Linear(in_features=4096, out_features=6400, bias=False)
model.layers.8.block_sparse_moe.experts.1.act_fn
SiLU()
model.layers.8.block_sparse_moe.experts.2
PhiMoEBlockSparseTop2MLP(
  (w1): Linear(in_features=4096, out_features=6400, bias=False)
  (w2): Linear(in_features=6400, out_features=4096, bias=False)
  (w3): Linear(in_features=4096, out_features=6400, bias=False)
  (act_fn): SiLU()
)
model.layers.8.block_sparse_moe.experts.2.w1
Linear(in_features=4096, out_features=6400, bias=False)
model.layers.8.block_sparse_moe.experts.2.w2
Linear(in_features=6400, out_features=4096, bias=False)
model.layers.8.block_sparse_moe.experts.2.w3
Linear(in_features=4096, out_features=6400, bias=False)
model.layers.8.block_sparse_moe.experts.2.act_fn
SiLU()
model.layers.8.input_layernorm
LayerNorm((4096,), eps=1e-05, elementwise_affine=True)
model.layers.8.post_attention_layernorm
LayerNorm((4096,), eps=1e-05, elementwise_affine=True)
model.layers.9
PhiMoEDecoderLayer(
  (self_attn): PhiMoESdpaAttention(
    (q_proj): Linear(in_features=4096, out_features=4096, bias=True)
    (k_proj): Linear(in_features=4096, out_features=1024, bias=True)
    (v_proj): Linear(in_features=4096, out_features=1024, bias=True)
    (o_proj): Linear(in_features=4096, out_features=4096, bias=True)
    (rotary_emb): Phi3LongRoPEScaledRotaryEmbedding()
  )
  (block_sparse_moe): PhiMoESparseMoeBlock(
    (gate): Linear(in_features=4096, out_features=16, bias=False)
    (experts): ModuleList(
      (0-15): 16 x PhiMoEBlockSparseTop2MLP(
        (w1): Linear(in_features=4096, out_features=6400, bias=False)
        (w2): Linear(in_features=6400, out_features=4096, bias=False)
        (w3): Linear(in_features=4096, out_features=6400, bias=False)
        (act_fn): SiLU()
      )
    )
  )
  (input_layernorm): LayerNorm((4096,), eps=1e-05, elementwise_affine=True)
  (post_attention_layernorm): LayerNorm((4096,), eps=1e-05, elementwise_affine=True)
)
model.layers.9.self_attn
PhiMoESdpaAttention(
  (q_proj): Linear(in_features=4096, out_features=4096, bias=True)
  (k_proj): Linear(in_features=4096, out_features=1024, bias=True)
  (v_proj): Linear(in_features=4096, out_features=1024, bias=True)
  (o_proj): Linear(in_features=4096, out_features=4096, bias=True)
  (rotary_emb): Phi3LongRoPEScaledRotaryEmbedding()
)
model.layers.9.self_attn.q_proj
Linear(in_features=4096, out_features=4096, bias=True)
model.layers.9.self_attn.k_proj
Linear(in_features=4096, out_features=1024, bias=True)
model.layers.9.self_attn.v_proj
Linear(in_features=4096, out_features=1024, bias=True)
model.layers.9.self_attn.o_proj
Linear(in_features=4096, out_features=4096, bias=True)
model.layers.9.self_attn.rotary_emb
Phi3LongRoPEScaledRotaryEmbedding()
model.layers.9.block_sparse_moe
PhiMoESparseMoeBlock(
  (gate): Linear(in_features=4096, out_features=16, bias=False)
  (experts): ModuleList(
    (0-15): 16 x PhiMoEBlockSparseTop2MLP(
      (w1): Linear(in_features=4096, out_features=6400, bias=False)
      (w2): Linear(in_features=6400, out_features=4096, bias=False)
      (w3): Linear(in_features=4096, out_features=6400, bias=False)
      (act_fn): SiLU()
    )
  )
)
model.layers.9.block_sparse_moe.gate
Linear(in_features=4096, out_features=16, bias=False)
model.layers.9.block_sparse_moe.experts
ModuleList(
  (0-15): 16 x PhiMoEBlockSparseTop2MLP(
    (w1): Linear(in_features=4096, out_features=6400, bias=False)
    (w2): Linear(in_features=6400, out_features=4096, bias=False)
    (w3): Linear(in_features=4096, out_features=6400, bias=False)
    (act_fn): SiLU()
  )
)
model.layers.9.block_sparse_moe.experts.0
PhiMoEBlockSparseTop2MLP(
  (w1): Linear(in_features=4096, out_features=6400, bias=False)
  (w2): Linear(in_features=6400, out_features=4096, bias=False)
  (w3): Linear(in_features=4096, out_features=6400, bias=False)
  (act_fn): SiLU()
)
model.layers.9.block_sparse_moe.experts.0.w1
Linear(in_features=4096, out_features=6400, bias=False)
model.layers.9.block_sparse_moe.experts.0.w2
Linear(in_features=6400, out_features=4096, bias=False)
model.layers.9.block_sparse_moe.experts.0.w3
Linear(in_features=4096, out_features=6400, bias=False)
model.layers.9.block_sparse_moe.experts.0.act_fn
SiLU()
model.layers.9.block_sparse_moe.experts.1
PhiMoEBlockSparseTop2MLP(
  (w1): Linear(in_features=4096, out_features=6400, bias=False)
  (w2): Linear(in_features=6400, out_features=4096, bias=False)
  (w3): Linear(in_features=4096, out_features=6400, bias=False)
  (act_fn): SiLU()
)
model.layers.9.block_sparse_moe.experts.1.w1
Linear(in_features=4096, out_features=6400, bias=False)
model.layers.9.block_sparse_moe.experts.1.w2
Linear(in_features=6400, out_features=4096, bias=False)
model.layers.9.block_sparse_moe.experts.1.w3
Linear(in_features=4096, out_features=6400, bias=False)
model.layers.9.block_sparse_moe.experts.1.act_fn
SiLU()
model.layers.9.block_sparse_moe.experts.2
PhiMoEBlockSparseTop2MLP(
  (w1): Linear(in_features=4096, out_features=6400, bias=False)
  (w2): Linear(in_features=6400, out_features=4096, bias=False)
  (w3): Linear(in_features=4096, out_features=6400, bias=False)
  (act_fn): SiLU()
)
model.layers.9.block_sparse_moe.experts.2.w1
Linear(in_features=4096, out_features=6400, bias=False)
model.layers.9.block_sparse_moe.experts.2.w2
Linear(in_features=6400, out_features=4096, bias=False)
model.layers.9.block_sparse_moe.experts.2.w3
Linear(in_features=4096, out_features=6400, bias=False)
model.layers.9.block_sparse_moe.experts.2.act_fn
SiLU()
model.layers.9.block_sparse_moe.experts.7
PhiMoEBlockSparseTop2MLP(
  (w1): Linear(in_features=4096, out_features=6400, bias=False)
  (w2): Linear(in_features=6400, out_features=4096, bias=False)
  (w3): Linear(in_features=4096, out_features=6400, bias=False)
  (act_fn): SiLU()
)
model.layers.9.block_sparse_moe.experts.7.w1
Linear(in_features=4096, out_features=6400, bias=False)
model.layers.9.block_sparse_moe.experts.7.w2
Linear(in_features=6400, out_features=4096, bias=False)
model.layers.9.block_sparse_moe.experts.7.w3
Linear(in_features=4096, out_features=6400, bias=False)
model.layers.9.block_sparse_moe.experts.7.act_fn
SiLU()
model.layers.9.input_layernorm
LayerNorm((4096,), eps=1e-05, elementwise_affine=True)
model.layers.9.post_attention_layernorm
LayerNorm((4096,), eps=1e-05, elementwise_affine=True)
model.layers.10
PhiMoEDecoderLayer(
  (self_attn): PhiMoESdpaAttention(
    (q_proj): Linear(in_features=4096, out_features=4096, bias=True)
    (k_proj): Linear(in_features=4096, out_features=1024, bias=True)
    (v_proj): Linear(in_features=4096, out_features=1024, bias=True)
    (o_proj): Linear(in_features=4096, out_features=4096, bias=True)
    (rotary_emb): Phi3LongRoPEScaledRotaryEmbedding()
  )
  (block_sparse_moe): PhiMoESparseMoeBlock(
    (gate): Linear(in_features=4096, out_features=16, bias=False)
    (experts): ModuleList(
      (0-15): 16 x PhiMoEBlockSparseTop2MLP(
        (w1): Linear(in_features=4096, out_features=6400, bias=False)
        (w2): Linear(in_features=6400, out_features=4096, bias=False)
        (w3): Linear(in_features=4096, out_features=6400, bias=False)
        (act_fn): SiLU()
      )
    )
  )
  (input_layernorm): LayerNorm((4096,), eps=1e-05, elementwise_affine=True)
  (post_attention_layernorm): LayerNorm((4096,), eps=1e-05, elementwise_affine=True)
)
model.layers.10.self_attn
PhiMoESdpaAttention(
  (q_proj): Linear(in_features=4096, out_features=4096, bias=True)
  (k_proj): Linear(in_features=4096, out_features=1024, bias=True)
  (v_proj): Linear(in_features=4096, out_features=1024, bias=True)
  (o_proj): Linear(in_features=4096, out_features=4096, bias=True)
  (rotary_emb): Phi3LongRoPEScaledRotaryEmbedding()
)
model.layers.10.self_attn.q_proj
Linear(in_features=4096, out_features=4096, bias=True)
model.layers.10.self_attn.k_proj
Linear(in_features=4096, out_features=1024, bias=True)
model.layers.10.self_attn.v_proj
Linear(in_features=4096, out_features=1024, bias=True)
model.layers.10.self_attn.o_proj
Linear(in_features=4096, out_features=4096, bias=True)
model.layers.10.self_attn.rotary_emb
Phi3LongRoPEScaledRotaryEmbedding()
model.layers.10.block_sparse_moe
PhiMoESparseMoeBlock(
  (gate): Linear(in_features=4096, out_features=16, bias=False)
  (experts): ModuleList(
    (0-15): 16 x PhiMoEBlockSparseTop2MLP(
      (w1): Linear(in_features=4096, out_features=6400, bias=False)
      (w2): Linear(in_features=6400, out_features=4096, bias=False)
      (w3): Linear(in_features=4096, out_features=6400, bias=False)
      (act_fn): SiLU()
    )
  )
)
model.layers.10.block_sparse_moe.gate
Linear(in_features=4096, out_features=16, bias=False)
model.layers.10.block_sparse_moe.experts
ModuleList(
  (0-15): 16 x PhiMoEBlockSparseTop2MLP(
    (w1): Linear(in_features=4096, out_features=6400, bias=False)
    (w2): Linear(in_features=6400, out_features=4096, bias=False)
    (w3): Linear(in_features=4096, out_features=6400, bias=False)
    (act_fn): SiLU()
  )
)
model.layers.10.block_sparse_moe.experts.0
PhiMoEBlockSparseTop2MLP(
  (w1): Linear(in_features=4096, out_features=6400, bias=False)
  (w2): Linear(in_features=6400, out_features=4096, bias=False)
  (w3): Linear(in_features=4096, out_features=6400, bias=False)
  (act_fn): SiLU()
)
model.layers.10.block_sparse_moe.experts.0.w1
Linear(in_features=4096, out_features=6400, bias=False)
model.layers.10.block_sparse_moe.experts.0.w2
Linear(in_features=6400, out_features=4096, bias=False)
model.layers.10.block_sparse_moe.experts.0.w3
Linear(in_features=4096, out_features=6400, bias=False)
model.layers.10.block_sparse_moe.experts.0.act_fn
SiLU()
model.layers.10.block_sparse_moe.experts.1
PhiMoEBlockSparseTop2MLP(
  (w1): Linear(in_features=4096, out_features=6400, bias=False)
  (w2): Linear(in_features=6400, out_features=4096, bias=False)
  (w3): Linear(in_features=4096, out_features=6400, bias=False)
  (act_fn): SiLU()
)
model.layers.10.block_sparse_moe.experts.1.w1
Linear(in_features=4096, out_features=6400, bias=False)
model.layers.10.block_sparse_moe.experts.1.w2
Linear(in_features=6400, out_features=4096, bias=False)
model.layers.10.block_sparse_moe.experts.1.w3
Linear(in_features=4096, out_features=6400, bias=False)
model.layers.10.block_sparse_moe.experts.1.act_fn
SiLU()
model.layers.10.block_sparse_moe.experts.2
PhiMoEBlockSparseTop2MLP(
  (w1): Linear(in_features=4096, out_features=6400, bias=False)
  (w2): Linear(in_features=6400, out_features=4096, bias=False)
  (w3): Linear(in_features=4096, out_features=6400, bias=False)
  (act_fn): SiLU()
)
model.layers.10.block_sparse_moe.experts.2.w1
Linear(in_features=4096, out_features=6400, bias=False)
model.layers.10.block_sparse_moe.experts.2.w2
Linear(in_features=6400, out_features=4096, bias=False)
model.layers.10.block_sparse_moe.experts.2.w3
Linear(in_features=4096, out_features=6400, bias=False)
model.layers.10.block_sparse_moe.experts.2.act_fn
SiLU()
model.layers.10.input_layernorm
LayerNorm((4096,), eps=1e-05, elementwise_affine=True)
model.layers.10.post_attention_layernorm
LayerNorm((4096,), eps=1e-05, elementwise_affine=True)
model.layers.11
PhiMoEDecoderLayer(
  (self_attn): PhiMoESdpaAttention(
    (q_proj): Linear(in_features=4096, out_features=4096, bias=True)
    (k_proj): Linear(in_features=4096, out_features=1024, bias=True)
    (v_proj): Linear(in_features=4096, out_features=1024, bias=True)
    (o_proj): Linear(in_features=4096, out_features=4096, bias=True)
    (rotary_emb): Phi3LongRoPEScaledRotaryEmbedding()
  )
  (block_sparse_moe): PhiMoESparseMoeBlock(
    (gate): Linear(in_features=4096, out_features=16, bias=False)
    (experts): ModuleList(
      (0-15): 16 x PhiMoEBlockSparseTop2MLP(
        (w1): Linear(in_features=4096, out_features=6400, bias=False)
        (w2): Linear(in_features=6400, out_features=4096, bias=False)
        (w3): Linear(in_features=4096, out_features=6400, bias=False)
        (act_fn): SiLU()
      )
    )
  )
  (input_layernorm): LayerNorm((4096,), eps=1e-05, elementwise_affine=True)
  (post_attention_layernorm): LayerNorm((4096,), eps=1e-05, elementwise_affine=True)
)
model.layers.11.self_attn
PhiMoESdpaAttention(
  (q_proj): Linear(in_features=4096, out_features=4096, bias=True)
  (k_proj): Linear(in_features=4096, out_features=1024, bias=True)
  (v_proj): Linear(in_features=4096, out_features=1024, bias=True)
  (o_proj): Linear(in_features=4096, out_features=4096, bias=True)
  (rotary_emb): Phi3LongRoPEScaledRotaryEmbedding()
)
model.layers.11.self_attn.q_proj
Linear(in_features=4096, out_features=4096, bias=True)
model.layers.11.self_attn.k_proj
Linear(in_features=4096, out_features=1024, bias=True)
model.layers.11.self_attn.v_proj
Linear(in_features=4096, out_features=1024, bias=True)
model.layers.11.self_attn.o_proj
Linear(in_features=4096, out_features=4096, bias=True)
model.layers.11.self_attn.rotary_emb
Phi3LongRoPEScaledRotaryEmbedding()
model.layers.11.block_sparse_moe
PhiMoESparseMoeBlock(
  (gate): Linear(in_features=4096, out_features=16, bias=False)
  (experts): ModuleList(
    (0-15): 16 x PhiMoEBlockSparseTop2MLP(
      (w1): Linear(in_features=4096, out_features=6400, bias=False)
      (w2): Linear(in_features=6400, out_features=4096, bias=False)
      (w3): Linear(in_features=4096, out_features=6400, bias=False)
      (act_fn): SiLU()
    )
  )
)
model.layers.11.block_sparse_moe.gate
Linear(in_features=4096, out_features=16, bias=False)
model.layers.11.block_sparse_moe.experts
ModuleList(
  (0-15): 16 x PhiMoEBlockSparseTop2MLP(
    (w1): Linear(in_features=4096, out_features=6400, bias=False)
    (w2): Linear(in_features=6400, out_features=4096, bias=False)
    (w3): Linear(in_features=4096, out_features=6400, bias=False)
    (act_fn): SiLU()
  )
)
model.layers.11.block_sparse_moe.experts.0
PhiMoEBlockSparseTop2MLP(
  (w1): Linear(in_features=4096, out_features=6400, bias=False)
  (w2): Linear(in_features=6400, out_features=4096, bias=False)
  (w3): Linear(in_features=4096, out_features=6400, bias=False)
  (act_fn): SiLU()
)
model.layers.11.block_sparse_moe.experts.0.w1
Linear(in_features=4096, out_features=6400, bias=False)
model.layers.11.block_sparse_moe.experts.0.w2
Linear(in_features=6400, out_features=4096, bias=False)
model.layers.11.block_sparse_moe.experts.0.w3
Linear(in_features=4096, out_features=6400, bias=False)
model.layers.11.block_sparse_moe.experts.0.act_fn
SiLU()
model.layers.11.block_sparse_moe.experts.1
PhiMoEBlockSparseTop2MLP(
  (w1): Linear(in_features=4096, out_features=6400, bias=False)
  (w2): Linear(in_features=6400, out_features=4096, bias=False)
  (w3): Linear(in_features=4096, out_features=6400, bias=False)
  (act_fn): SiLU()
)
model.layers.11.block_sparse_moe.experts.1.w1
Linear(in_features=4096, out_features=6400, bias=False)
model.layers.11.block_sparse_moe.experts.1.w2
Linear(in_features=6400, out_features=4096, bias=False)
model.layers.11.block_sparse_moe.experts.1.w3
Linear(in_features=4096, out_features=6400, bias=False)
model.layers.11.block_sparse_moe.experts.1.act_fn
SiLU()
model.layers.11.block_sparse_moe.experts.3
PhiMoEBlockSparseTop2MLP(
  (w1): Linear(in_features=4096, out_features=6400, bias=False)
  (w2): Linear(in_features=6400, out_features=4096, bias=False)
  (w3): Linear(in_features=4096, out_features=6400, bias=False)
  (act_fn): SiLU()
)
model.layers.11.block_sparse_moe.experts.3.w1
Linear(in_features=4096, out_features=6400, bias=False)
model.layers.11.block_sparse_moe.experts.3.w2
Linear(in_features=6400, out_features=4096, bias=False)
model.layers.11.block_sparse_moe.experts.3.w3
Linear(in_features=4096, out_features=6400, bias=False)
model.layers.11.block_sparse_moe.experts.3.act_fn
SiLU()
model.layers.11.block_sparse_moe.experts.4
PhiMoEBlockSparseTop2MLP(
  (w1): Linear(in_features=4096, out_features=6400, bias=False)
  (w2): Linear(in_features=6400, out_features=4096, bias=False)
  (w3): Linear(in_features=4096, out_features=6400, bias=False)
  (act_fn): SiLU()
)
model.layers.11.block_sparse_moe.experts.4.w1
Linear(in_features=4096, out_features=6400, bias=False)
model.layers.11.block_sparse_moe.experts.4.w2
Linear(in_features=6400, out_features=4096, bias=False)
model.layers.11.block_sparse_moe.experts.4.w3
Linear(in_features=4096, out_features=6400, bias=False)
model.layers.11.block_sparse_moe.experts.4.act_fn
SiLU()
model.layers.11.input_layernorm
LayerNorm((4096,), eps=1e-05, elementwise_affine=True)
model.layers.11.post_attention_layernorm
LayerNorm((4096,), eps=1e-05, elementwise_affine=True)
model.layers.12
PhiMoEDecoderLayer(
  (self_attn): PhiMoESdpaAttention(
    (q_proj): Linear(in_features=4096, out_features=4096, bias=True)
    (k_proj): Linear(in_features=4096, out_features=1024, bias=True)
    (v_proj): Linear(in_features=4096, out_features=1024, bias=True)
    (o_proj): Linear(in_features=4096, out_features=4096, bias=True)
    (rotary_emb): Phi3LongRoPEScaledRotaryEmbedding()
  )
  (block_sparse_moe): PhiMoESparseMoeBlock(
    (gate): Linear(in_features=4096, out_features=16, bias=False)
    (experts): ModuleList(
      (0-15): 16 x PhiMoEBlockSparseTop2MLP(
        (w1): Linear(in_features=4096, out_features=6400, bias=False)
        (w2): Linear(in_features=6400, out_features=4096, bias=False)
        (w3): Linear(in_features=4096, out_features=6400, bias=False)
        (act_fn): SiLU()
      )
    )
  )
  (input_layernorm): LayerNorm((4096,), eps=1e-05, elementwise_affine=True)
  (post_attention_layernorm): LayerNorm((4096,), eps=1e-05, elementwise_affine=True)
)
model.layers.12.self_attn
PhiMoESdpaAttention(
  (q_proj): Linear(in_features=4096, out_features=4096, bias=True)
  (k_proj): Linear(in_features=4096, out_features=1024, bias=True)
  (v_proj): Linear(in_features=4096, out_features=1024, bias=True)
  (o_proj): Linear(in_features=4096, out_features=4096, bias=True)
  (rotary_emb): Phi3LongRoPEScaledRotaryEmbedding()
)
model.layers.12.self_attn.q_proj
Linear(in_features=4096, out_features=4096, bias=True)
model.layers.12.self_attn.k_proj
Linear(in_features=4096, out_features=1024, bias=True)
model.layers.12.self_attn.v_proj
Linear(in_features=4096, out_features=1024, bias=True)
model.layers.12.self_attn.o_proj
Linear(in_features=4096, out_features=4096, bias=True)
model.layers.12.self_attn.rotary_emb
Phi3LongRoPEScaledRotaryEmbedding()
model.layers.12.block_sparse_moe
PhiMoESparseMoeBlock(
  (gate): Linear(in_features=4096, out_features=16, bias=False)
  (experts): ModuleList(
    (0-15): 16 x PhiMoEBlockSparseTop2MLP(
      (w1): Linear(in_features=4096, out_features=6400, bias=False)
      (w2): Linear(in_features=6400, out_features=4096, bias=False)
      (w3): Linear(in_features=4096, out_features=6400, bias=False)
      (act_fn): SiLU()
    )
  )
)
model.layers.12.block_sparse_moe.gate
Linear(in_features=4096, out_features=16, bias=False)
model.layers.12.block_sparse_moe.experts
ModuleList(
  (0-15): 16 x PhiMoEBlockSparseTop2MLP(
    (w1): Linear(in_features=4096, out_features=6400, bias=False)
    (w2): Linear(in_features=6400, out_features=4096, bias=False)
    (w3): Linear(in_features=4096, out_features=6400, bias=False)
    (act_fn): SiLU()
  )
)
model.layers.12.block_sparse_moe.experts.0
PhiMoEBlockSparseTop2MLP(
  (w1): Linear(in_features=4096, out_features=6400, bias=False)
  (w2): Linear(in_features=6400, out_features=4096, bias=False)
  (w3): Linear(in_features=4096, out_features=6400, bias=False)
  (act_fn): SiLU()
)
model.layers.12.block_sparse_moe.experts.0.w1
Linear(in_features=4096, out_features=6400, bias=False)
model.layers.12.block_sparse_moe.experts.0.w2
Linear(in_features=6400, out_features=4096, bias=False)
model.layers.12.block_sparse_moe.experts.0.w3
Linear(in_features=4096, out_features=6400, bias=False)
model.layers.12.block_sparse_moe.experts.0.act_fn
SiLU()
model.layers.12.block_sparse_moe.experts.1
PhiMoEBlockSparseTop2MLP(
  (w1): Linear(in_features=4096, out_features=6400, bias=False)
  (w2): Linear(in_features=6400, out_features=4096, bias=False)
  (w3): Linear(in_features=4096, out_features=6400, bias=False)
  (act_fn): SiLU()
)
model.layers.12.block_sparse_moe.experts.1.w1
Linear(in_features=4096, out_features=6400, bias=False)
model.layers.12.block_sparse_moe.experts.1.w2
Linear(in_features=6400, out_features=4096, bias=False)
model.layers.12.block_sparse_moe.experts.1.w3
Linear(in_features=4096, out_features=6400, bias=False)
model.layers.12.block_sparse_moe.experts.1.act_fn
SiLU()
model.layers.12.block_sparse_moe.experts.2
PhiMoEBlockSparseTop2MLP(
  (w1): Linear(in_features=4096, out_features=6400, bias=False)
  (w2): Linear(in_features=6400, out_features=4096, bias=False)
  (w3): Linear(in_features=4096, out_features=6400, bias=False)
  (act_fn): SiLU()
)
model.layers.12.block_sparse_moe.experts.2.w1
Linear(in_features=4096, out_features=6400, bias=False)
model.layers.12.block_sparse_moe.experts.2.w2
Linear(in_features=6400, out_features=4096, bias=False)
model.layers.12.block_sparse_moe.experts.2.w3
Linear(in_features=4096, out_features=6400, bias=False)
model.layers.12.block_sparse_moe.experts.2.act_fn
SiLU()
model.layers.12.block_sparse_moe.experts.3
PhiMoEBlockSparseTop2MLP(
  (w1): Linear(in_features=4096, out_features=6400, bias=False)
  (w2): Linear(in_features=6400, out_features=4096, bias=False)
  (w3): Linear(in_features=4096, out_features=6400, bias=False)
  (act_fn): SiLU()
)
model.layers.12.block_sparse_moe.experts.3.w1
Linear(in_features=4096, out_features=6400, bias=False)
model.layers.12.block_sparse_moe.experts.3.w2
Linear(in_features=6400, out_features=4096, bias=False)
model.layers.12.block_sparse_moe.experts.3.w3
Linear(in_features=4096, out_features=6400, bias=False)
model.layers.12.block_sparse_moe.experts.3.act_fn
SiLU()
model.layers.12.input_layernorm
LayerNorm((4096,), eps=1e-05, elementwise_affine=True)
model.layers.12.post_attention_layernorm
LayerNorm((4096,), eps=1e-05, elementwise_affine=True)
model.layers.13
PhiMoEDecoderLayer(
  (self_attn): PhiMoESdpaAttention(
    (q_proj): Linear(in_features=4096, out_features=4096, bias=True)
    (k_proj): Linear(in_features=4096, out_features=1024, bias=True)
    (v_proj): Linear(in_features=4096, out_features=1024, bias=True)
    (o_proj): Linear(in_features=4096, out_features=4096, bias=True)
    (rotary_emb): Phi3LongRoPEScaledRotaryEmbedding()
  )
  (block_sparse_moe): PhiMoESparseMoeBlock(
    (gate): Linear(in_features=4096, out_features=16, bias=False)
    (experts): ModuleList(
      (0-15): 16 x PhiMoEBlockSparseTop2MLP(
        (w1): Linear(in_features=4096, out_features=6400, bias=False)
        (w2): Linear(in_features=6400, out_features=4096, bias=False)
        (w3): Linear(in_features=4096, out_features=6400, bias=False)
        (act_fn): SiLU()
      )
    )
  )
  (input_layernorm): LayerNorm((4096,), eps=1e-05, elementwise_affine=True)
  (post_attention_layernorm): LayerNorm((4096,), eps=1e-05, elementwise_affine=True)
)
model.layers.13.self_attn
PhiMoESdpaAttention(
  (q_proj): Linear(in_features=4096, out_features=4096, bias=True)
  (k_proj): Linear(in_features=4096, out_features=1024, bias=True)
  (v_proj): Linear(in_features=4096, out_features=1024, bias=True)
  (o_proj): Linear(in_features=4096, out_features=4096, bias=True)
  (rotary_emb): Phi3LongRoPEScaledRotaryEmbedding()
)
model.layers.13.self_attn.q_proj
Linear(in_features=4096, out_features=4096, bias=True)
model.layers.13.self_attn.k_proj
Linear(in_features=4096, out_features=1024, bias=True)
model.layers.13.self_attn.v_proj
Linear(in_features=4096, out_features=1024, bias=True)
model.layers.13.self_attn.o_proj
Linear(in_features=4096, out_features=4096, bias=True)
model.layers.13.self_attn.rotary_emb
Phi3LongRoPEScaledRotaryEmbedding()
model.layers.13.block_sparse_moe
PhiMoESparseMoeBlock(
  (gate): Linear(in_features=4096, out_features=16, bias=False)
  (experts): ModuleList(
    (0-15): 16 x PhiMoEBlockSparseTop2MLP(
      (w1): Linear(in_features=4096, out_features=6400, bias=False)
      (w2): Linear(in_features=6400, out_features=4096, bias=False)
      (w3): Linear(in_features=4096, out_features=6400, bias=False)
      (act_fn): SiLU()
    )
  )
)
model.layers.13.block_sparse_moe.gate
Linear(in_features=4096, out_features=16, bias=False)
model.layers.13.block_sparse_moe.experts
ModuleList(
  (0-15): 16 x PhiMoEBlockSparseTop2MLP(
    (w1): Linear(in_features=4096, out_features=6400, bias=False)
    (w2): Linear(in_features=6400, out_features=4096, bias=False)
    (w3): Linear(in_features=4096, out_features=6400, bias=False)
    (act_fn): SiLU()
  )
)
model.layers.13.block_sparse_moe.experts.0
PhiMoEBlockSparseTop2MLP(
  (w1): Linear(in_features=4096, out_features=6400, bias=False)
  (w2): Linear(in_features=6400, out_features=4096, bias=False)
  (w3): Linear(in_features=4096, out_features=6400, bias=False)
  (act_fn): SiLU()
)
model.layers.13.block_sparse_moe.experts.0.w1
Linear(in_features=4096, out_features=6400, bias=False)
model.layers.13.block_sparse_moe.experts.0.w2
Linear(in_features=6400, out_features=4096, bias=False)
model.layers.13.block_sparse_moe.experts.0.w3
Linear(in_features=4096, out_features=6400, bias=False)
model.layers.13.block_sparse_moe.experts.0.act_fn
SiLU()
model.layers.13.block_sparse_moe.experts.1
PhiMoEBlockSparseTop2MLP(
  (w1): Linear(in_features=4096, out_features=6400, bias=False)
  (w2): Linear(in_features=6400, out_features=4096, bias=False)
  (w3): Linear(in_features=4096, out_features=6400, bias=False)
  (act_fn): SiLU()
)
model.layers.13.block_sparse_moe.experts.1.w1
Linear(in_features=4096, out_features=6400, bias=False)
model.layers.13.block_sparse_moe.experts.1.w2
Linear(in_features=6400, out_features=4096, bias=False)
model.layers.13.block_sparse_moe.experts.1.w3
Linear(in_features=4096, out_features=6400, bias=False)
model.layers.13.block_sparse_moe.experts.1.act_fn
SiLU()
model.layers.13.block_sparse_moe.experts.6
PhiMoEBlockSparseTop2MLP(
  (w1): Linear(in_features=4096, out_features=6400, bias=False)
  (w2): Linear(in_features=6400, out_features=4096, bias=False)
  (w3): Linear(in_features=4096, out_features=6400, bias=False)
  (act_fn): SiLU()
)
model.layers.13.block_sparse_moe.experts.6.w1
Linear(in_features=4096, out_features=6400, bias=False)
model.layers.13.block_sparse_moe.experts.6.w2
Linear(in_features=6400, out_features=4096, bias=False)
model.layers.13.block_sparse_moe.experts.6.w3
Linear(in_features=4096, out_features=6400, bias=False)
model.layers.13.block_sparse_moe.experts.6.act_fn
SiLU()
model.layers.13.block_sparse_moe.experts.15
PhiMoEBlockSparseTop2MLP(
  (w1): Linear(in_features=4096, out_features=6400, bias=False)
  (w2): Linear(in_features=6400, out_features=4096, bias=False)
  (w3): Linear(in_features=4096, out_features=6400, bias=False)
  (act_fn): SiLU()
)
model.layers.13.block_sparse_moe.experts.15.w1
Linear(in_features=4096, out_features=6400, bias=False)
model.layers.13.block_sparse_moe.experts.15.w2
Linear(in_features=6400, out_features=4096, bias=False)
model.layers.13.block_sparse_moe.experts.15.w3
Linear(in_features=4096, out_features=6400, bias=False)
model.layers.13.block_sparse_moe.experts.15.act_fn
SiLU()
model.layers.13.input_layernorm
LayerNorm((4096,), eps=1e-05, elementwise_affine=True)
model.layers.13.post_attention_layernorm
LayerNorm((4096,), eps=1e-05, elementwise_affine=True)
model.layers.14
PhiMoEDecoderLayer(
  (self_attn): PhiMoESdpaAttention(
    (q_proj): Linear(in_features=4096, out_features=4096, bias=True)
    (k_proj): Linear(in_features=4096, out_features=1024, bias=True)
    (v_proj): Linear(in_features=4096, out_features=1024, bias=True)
    (o_proj): Linear(in_features=4096, out_features=4096, bias=True)
    (rotary_emb): Phi3LongRoPEScaledRotaryEmbedding()
  )
  (block_sparse_moe): PhiMoESparseMoeBlock(
    (gate): Linear(in_features=4096, out_features=16, bias=False)
    (experts): ModuleList(
      (0-15): 16 x PhiMoEBlockSparseTop2MLP(
        (w1): Linear(in_features=4096, out_features=6400, bias=False)
        (w2): Linear(in_features=6400, out_features=4096, bias=False)
        (w3): Linear(in_features=4096, out_features=6400, bias=False)
        (act_fn): SiLU()
      )
    )
  )
  (input_layernorm): LayerNorm((4096,), eps=1e-05, elementwise_affine=True)
  (post_attention_layernorm): LayerNorm((4096,), eps=1e-05, elementwise_affine=True)
)
model.layers.14.self_attn
PhiMoESdpaAttention(
  (q_proj): Linear(in_features=4096, out_features=4096, bias=True)
  (k_proj): Linear(in_features=4096, out_features=1024, bias=True)
  (v_proj): Linear(in_features=4096, out_features=1024, bias=True)
  (o_proj): Linear(in_features=4096, out_features=4096, bias=True)
  (rotary_emb): Phi3LongRoPEScaledRotaryEmbedding()
)
model.layers.14.self_attn.q_proj
Linear(in_features=4096, out_features=4096, bias=True)
model.layers.14.self_attn.k_proj
Linear(in_features=4096, out_features=1024, bias=True)
model.layers.14.self_attn.v_proj
Linear(in_features=4096, out_features=1024, bias=True)
model.layers.14.self_attn.o_proj
Linear(in_features=4096, out_features=4096, bias=True)
model.layers.14.self_attn.rotary_emb
Phi3LongRoPEScaledRotaryEmbedding()
model.layers.14.block_sparse_moe
PhiMoESparseMoeBlock(
  (gate): Linear(in_features=4096, out_features=16, bias=False)
  (experts): ModuleList(
    (0-15): 16 x PhiMoEBlockSparseTop2MLP(
      (w1): Linear(in_features=4096, out_features=6400, bias=False)
      (w2): Linear(in_features=6400, out_features=4096, bias=False)
      (w3): Linear(in_features=4096, out_features=6400, bias=False)
      (act_fn): SiLU()
    )
  )
)
model.layers.14.block_sparse_moe.gate
Linear(in_features=4096, out_features=16, bias=False)
model.layers.14.block_sparse_moe.experts
ModuleList(
  (0-15): 16 x PhiMoEBlockSparseTop2MLP(
    (w1): Linear(in_features=4096, out_features=6400, bias=False)
    (w2): Linear(in_features=6400, out_features=4096, bias=False)
    (w3): Linear(in_features=4096, out_features=6400, bias=False)
    (act_fn): SiLU()
  )
)
model.layers.14.block_sparse_moe.experts.0
PhiMoEBlockSparseTop2MLP(
  (w1): Linear(in_features=4096, out_features=6400, bias=False)
  (w2): Linear(in_features=6400, out_features=4096, bias=False)
  (w3): Linear(in_features=4096, out_features=6400, bias=False)
  (act_fn): SiLU()
)
model.layers.14.block_sparse_moe.experts.0.w1
Linear(in_features=4096, out_features=6400, bias=False)
model.layers.14.block_sparse_moe.experts.0.w2
Linear(in_features=6400, out_features=4096, bias=False)
model.layers.14.block_sparse_moe.experts.0.w3
Linear(in_features=4096, out_features=6400, bias=False)
model.layers.14.block_sparse_moe.experts.0.act_fn
SiLU()
model.layers.14.block_sparse_moe.experts.2
PhiMoEBlockSparseTop2MLP(
  (w1): Linear(in_features=4096, out_features=6400, bias=False)
  (w2): Linear(in_features=6400, out_features=4096, bias=False)
  (w3): Linear(in_features=4096, out_features=6400, bias=False)
  (act_fn): SiLU()
)
model.layers.14.block_sparse_moe.experts.2.w1
Linear(in_features=4096, out_features=6400, bias=False)
model.layers.14.block_sparse_moe.experts.2.w2
Linear(in_features=6400, out_features=4096, bias=False)
model.layers.14.block_sparse_moe.experts.2.w3
Linear(in_features=4096, out_features=6400, bias=False)
model.layers.14.block_sparse_moe.experts.2.act_fn
SiLU()
model.layers.14.block_sparse_moe.experts.3
PhiMoEBlockSparseTop2MLP(
  (w1): Linear(in_features=4096, out_features=6400, bias=False)
  (w2): Linear(in_features=6400, out_features=4096, bias=False)
  (w3): Linear(in_features=4096, out_features=6400, bias=False)
  (act_fn): SiLU()
)
model.layers.14.block_sparse_moe.experts.3.w1
Linear(in_features=4096, out_features=6400, bias=False)
model.layers.14.block_sparse_moe.experts.3.w2
Linear(in_features=6400, out_features=4096, bias=False)
model.layers.14.block_sparse_moe.experts.3.w3
Linear(in_features=4096, out_features=6400, bias=False)
model.layers.14.block_sparse_moe.experts.3.act_fn
SiLU()
model.layers.14.block_sparse_moe.experts.8
PhiMoEBlockSparseTop2MLP(
  (w1): Linear(in_features=4096, out_features=6400, bias=False)
  (w2): Linear(in_features=6400, out_features=4096, bias=False)
  (w3): Linear(in_features=4096, out_features=6400, bias=False)
  (act_fn): SiLU()
)
model.layers.14.block_sparse_moe.experts.8.w1
Linear(in_features=4096, out_features=6400, bias=False)
model.layers.14.block_sparse_moe.experts.8.w2
Linear(in_features=6400, out_features=4096, bias=False)
model.layers.14.block_sparse_moe.experts.8.w3
Linear(in_features=4096, out_features=6400, bias=False)
model.layers.14.block_sparse_moe.experts.8.act_fn
SiLU()
model.layers.14.input_layernorm
LayerNorm((4096,), eps=1e-05, elementwise_affine=True)
model.layers.14.post_attention_layernorm
LayerNorm((4096,), eps=1e-05, elementwise_affine=True)
model.layers.15
PhiMoEDecoderLayer(
  (self_attn): PhiMoESdpaAttention(
    (q_proj): Linear(in_features=4096, out_features=4096, bias=True)
    (k_proj): Linear(in_features=4096, out_features=1024, bias=True)
    (v_proj): Linear(in_features=4096, out_features=1024, bias=True)
    (o_proj): Linear(in_features=4096, out_features=4096, bias=True)
    (rotary_emb): Phi3LongRoPEScaledRotaryEmbedding()
  )
  (block_sparse_moe): PhiMoESparseMoeBlock(
    (gate): Linear(in_features=4096, out_features=16, bias=False)
    (experts): ModuleList(
      (0-15): 16 x PhiMoEBlockSparseTop2MLP(
        (w1): Linear(in_features=4096, out_features=6400, bias=False)
        (w2): Linear(in_features=6400, out_features=4096, bias=False)
        (w3): Linear(in_features=4096, out_features=6400, bias=False)
        (act_fn): SiLU()
      )
    )
  )
  (input_layernorm): LayerNorm((4096,), eps=1e-05, elementwise_affine=True)
  (post_attention_layernorm): LayerNorm((4096,), eps=1e-05, elementwise_affine=True)
)
model.layers.15.self_attn
PhiMoESdpaAttention(
  (q_proj): Linear(in_features=4096, out_features=4096, bias=True)
  (k_proj): Linear(in_features=4096, out_features=1024, bias=True)
  (v_proj): Linear(in_features=4096, out_features=1024, bias=True)
  (o_proj): Linear(in_features=4096, out_features=4096, bias=True)
  (rotary_emb): Phi3LongRoPEScaledRotaryEmbedding()
)
model.layers.15.self_attn.q_proj
Linear(in_features=4096, out_features=4096, bias=True)
model.layers.15.self_attn.k_proj
Linear(in_features=4096, out_features=1024, bias=True)
model.layers.15.self_attn.v_proj
Linear(in_features=4096, out_features=1024, bias=True)
model.layers.15.self_attn.o_proj
Linear(in_features=4096, out_features=4096, bias=True)
model.layers.15.self_attn.rotary_emb
Phi3LongRoPEScaledRotaryEmbedding()
model.layers.15.block_sparse_moe
PhiMoESparseMoeBlock(
  (gate): Linear(in_features=4096, out_features=16, bias=False)
  (experts): ModuleList(
    (0-15): 16 x PhiMoEBlockSparseTop2MLP(
      (w1): Linear(in_features=4096, out_features=6400, bias=False)
      (w2): Linear(in_features=6400, out_features=4096, bias=False)
      (w3): Linear(in_features=4096, out_features=6400, bias=False)
      (act_fn): SiLU()
    )
  )
)
model.layers.15.block_sparse_moe.gate
Linear(in_features=4096, out_features=16, bias=False)
model.layers.15.block_sparse_moe.experts
ModuleList(
  (0-15): 16 x PhiMoEBlockSparseTop2MLP(
    (w1): Linear(in_features=4096, out_features=6400, bias=False)
    (w2): Linear(in_features=6400, out_features=4096, bias=False)
    (w3): Linear(in_features=4096, out_features=6400, bias=False)
    (act_fn): SiLU()
  )
)
model.layers.15.block_sparse_moe.experts.0
PhiMoEBlockSparseTop2MLP(
  (w1): Linear(in_features=4096, out_features=6400, bias=False)
  (w2): Linear(in_features=6400, out_features=4096, bias=False)
  (w3): Linear(in_features=4096, out_features=6400, bias=False)
  (act_fn): SiLU()
)
model.layers.15.block_sparse_moe.experts.0.w1
Linear(in_features=4096, out_features=6400, bias=False)
model.layers.15.block_sparse_moe.experts.0.w2
Linear(in_features=6400, out_features=4096, bias=False)
model.layers.15.block_sparse_moe.experts.0.w3
Linear(in_features=4096, out_features=6400, bias=False)
model.layers.15.block_sparse_moe.experts.0.act_fn
SiLU()
model.layers.15.block_sparse_moe.experts.2
PhiMoEBlockSparseTop2MLP(
  (w1): Linear(in_features=4096, out_features=6400, bias=False)
  (w2): Linear(in_features=6400, out_features=4096, bias=False)
  (w3): Linear(in_features=4096, out_features=6400, bias=False)
  (act_fn): SiLU()
)
model.layers.15.block_sparse_moe.experts.2.w1
Linear(in_features=4096, out_features=6400, bias=False)
model.layers.15.block_sparse_moe.experts.2.w2
Linear(in_features=6400, out_features=4096, bias=False)
model.layers.15.block_sparse_moe.experts.2.w3
Linear(in_features=4096, out_features=6400, bias=False)
model.layers.15.block_sparse_moe.experts.2.act_fn
SiLU()
model.layers.15.block_sparse_moe.experts.3
PhiMoEBlockSparseTop2MLP(
  (w1): Linear(in_features=4096, out_features=6400, bias=False)
  (w2): Linear(in_features=6400, out_features=4096, bias=False)
  (w3): Linear(in_features=4096, out_features=6400, bias=False)
  (act_fn): SiLU()
)
model.layers.15.block_sparse_moe.experts.3.w1
Linear(in_features=4096, out_features=6400, bias=False)
model.layers.15.block_sparse_moe.experts.3.w2
Linear(in_features=6400, out_features=4096, bias=False)
model.layers.15.block_sparse_moe.experts.3.w3
Linear(in_features=4096, out_features=6400, bias=False)
model.layers.15.block_sparse_moe.experts.3.act_fn
SiLU()
model.layers.15.input_layernorm
LayerNorm((4096,), eps=1e-05, elementwise_affine=True)
model.layers.15.post_attention_layernorm
LayerNorm((4096,), eps=1e-05, elementwise_affine=True)
model.layers.16
PhiMoEDecoderLayer(
  (self_attn): PhiMoESdpaAttention(
    (q_proj): Linear(in_features=4096, out_features=4096, bias=True)
    (k_proj): Linear(in_features=4096, out_features=1024, bias=True)
    (v_proj): Linear(in_features=4096, out_features=1024, bias=True)
    (o_proj): Linear(in_features=4096, out_features=4096, bias=True)
    (rotary_emb): Phi3LongRoPEScaledRotaryEmbedding()
  )
  (block_sparse_moe): PhiMoESparseMoeBlock(
    (gate): Linear(in_features=4096, out_features=16, bias=False)
    (experts): ModuleList(
      (0-15): 16 x PhiMoEBlockSparseTop2MLP(
        (w1): Linear(in_features=4096, out_features=6400, bias=False)
        (w2): Linear(in_features=6400, out_features=4096, bias=False)
        (w3): Linear(in_features=4096, out_features=6400, bias=False)
        (act_fn): SiLU()
      )
    )
  )
  (input_layernorm): LayerNorm((4096,), eps=1e-05, elementwise_affine=True)
  (post_attention_layernorm): LayerNorm((4096,), eps=1e-05, elementwise_affine=True)
)
model.layers.16.self_attn
PhiMoESdpaAttention(
  (q_proj): Linear(in_features=4096, out_features=4096, bias=True)
  (k_proj): Linear(in_features=4096, out_features=1024, bias=True)
  (v_proj): Linear(in_features=4096, out_features=1024, bias=True)
  (o_proj): Linear(in_features=4096, out_features=4096, bias=True)
  (rotary_emb): Phi3LongRoPEScaledRotaryEmbedding()
)
model.layers.16.self_attn.q_proj
Linear(in_features=4096, out_features=4096, bias=True)
model.layers.16.self_attn.k_proj
Linear(in_features=4096, out_features=1024, bias=True)
model.layers.16.self_attn.v_proj
Linear(in_features=4096, out_features=1024, bias=True)
model.layers.16.self_attn.o_proj
Linear(in_features=4096, out_features=4096, bias=True)
model.layers.16.self_attn.rotary_emb
Phi3LongRoPEScaledRotaryEmbedding()
model.layers.16.block_sparse_moe
PhiMoESparseMoeBlock(
  (gate): Linear(in_features=4096, out_features=16, bias=False)
  (experts): ModuleList(
    (0-15): 16 x PhiMoEBlockSparseTop2MLP(
      (w1): Linear(in_features=4096, out_features=6400, bias=False)
      (w2): Linear(in_features=6400, out_features=4096, bias=False)
      (w3): Linear(in_features=4096, out_features=6400, bias=False)
      (act_fn): SiLU()
    )
  )
)
model.layers.16.block_sparse_moe.gate
Linear(in_features=4096, out_features=16, bias=False)
model.layers.16.block_sparse_moe.experts
ModuleList(
  (0-15): 16 x PhiMoEBlockSparseTop2MLP(
    (w1): Linear(in_features=4096, out_features=6400, bias=False)
    (w2): Linear(in_features=6400, out_features=4096, bias=False)
    (w3): Linear(in_features=4096, out_features=6400, bias=False)
    (act_fn): SiLU()
  )
)
model.layers.16.block_sparse_moe.experts.0
PhiMoEBlockSparseTop2MLP(
  (w1): Linear(in_features=4096, out_features=6400, bias=False)
  (w2): Linear(in_features=6400, out_features=4096, bias=False)
  (w3): Linear(in_features=4096, out_features=6400, bias=False)
  (act_fn): SiLU()
)
model.layers.16.block_sparse_moe.experts.0.w1
Linear(in_features=4096, out_features=6400, bias=False)
model.layers.16.block_sparse_moe.experts.0.w2
Linear(in_features=6400, out_features=4096, bias=False)
model.layers.16.block_sparse_moe.experts.0.w3
Linear(in_features=4096, out_features=6400, bias=False)
model.layers.16.block_sparse_moe.experts.0.act_fn
SiLU()
model.layers.16.block_sparse_moe.experts.1
PhiMoEBlockSparseTop2MLP(
  (w1): Linear(in_features=4096, out_features=6400, bias=False)
  (w2): Linear(in_features=6400, out_features=4096, bias=False)
  (w3): Linear(in_features=4096, out_features=6400, bias=False)
  (act_fn): SiLU()
)
model.layers.16.block_sparse_moe.experts.1.w1
Linear(in_features=4096, out_features=6400, bias=False)
model.layers.16.block_sparse_moe.experts.1.w2
Linear(in_features=6400, out_features=4096, bias=False)
model.layers.16.block_sparse_moe.experts.1.w3
Linear(in_features=4096, out_features=6400, bias=False)
model.layers.16.block_sparse_moe.experts.1.act_fn
SiLU()
model.layers.16.block_sparse_moe.experts.4
PhiMoEBlockSparseTop2MLP(
  (w1): Linear(in_features=4096, out_features=6400, bias=False)
  (w2): Linear(in_features=6400, out_features=4096, bias=False)
  (w3): Linear(in_features=4096, out_features=6400, bias=False)
  (act_fn): SiLU()
)
model.layers.16.block_sparse_moe.experts.4.w1
Linear(in_features=4096, out_features=6400, bias=False)
model.layers.16.block_sparse_moe.experts.4.w2
Linear(in_features=6400, out_features=4096, bias=False)
model.layers.16.block_sparse_moe.experts.4.w3
Linear(in_features=4096, out_features=6400, bias=False)
model.layers.16.block_sparse_moe.experts.4.act_fn
SiLU()
model.layers.16.input_layernorm
LayerNorm((4096,), eps=1e-05, elementwise_affine=True)
model.layers.16.post_attention_layernorm
LayerNorm((4096,), eps=1e-05, elementwise_affine=True)
model.layers.17
PhiMoEDecoderLayer(
  (self_attn): PhiMoESdpaAttention(
    (q_proj): Linear(in_features=4096, out_features=4096, bias=True)
    (k_proj): Linear(in_features=4096, out_features=1024, bias=True)
    (v_proj): Linear(in_features=4096, out_features=1024, bias=True)
    (o_proj): Linear(in_features=4096, out_features=4096, bias=True)
    (rotary_emb): Phi3LongRoPEScaledRotaryEmbedding()
  )
  (block_sparse_moe): PhiMoESparseMoeBlock(
    (gate): Linear(in_features=4096, out_features=16, bias=False)
    (experts): ModuleList(
      (0-15): 16 x PhiMoEBlockSparseTop2MLP(
        (w1): Linear(in_features=4096, out_features=6400, bias=False)
        (w2): Linear(in_features=6400, out_features=4096, bias=False)
        (w3): Linear(in_features=4096, out_features=6400, bias=False)
        (act_fn): SiLU()
      )
    )
  )
  (input_layernorm): LayerNorm((4096,), eps=1e-05, elementwise_affine=True)
  (post_attention_layernorm): LayerNorm((4096,), eps=1e-05, elementwise_affine=True)
)
model.layers.17.self_attn
PhiMoESdpaAttention(
  (q_proj): Linear(in_features=4096, out_features=4096, bias=True)
  (k_proj): Linear(in_features=4096, out_features=1024, bias=True)
  (v_proj): Linear(in_features=4096, out_features=1024, bias=True)
  (o_proj): Linear(in_features=4096, out_features=4096, bias=True)
  (rotary_emb): Phi3LongRoPEScaledRotaryEmbedding()
)
model.layers.17.self_attn.q_proj
Linear(in_features=4096, out_features=4096, bias=True)
model.layers.17.self_attn.k_proj
Linear(in_features=4096, out_features=1024, bias=True)
model.layers.17.self_attn.v_proj
Linear(in_features=4096, out_features=1024, bias=True)
model.layers.17.self_attn.o_proj
Linear(in_features=4096, out_features=4096, bias=True)
model.layers.17.self_attn.rotary_emb
Phi3LongRoPEScaledRotaryEmbedding()
model.layers.17.block_sparse_moe
PhiMoESparseMoeBlock(
  (gate): Linear(in_features=4096, out_features=16, bias=False)
  (experts): ModuleList(
    (0-15): 16 x PhiMoEBlockSparseTop2MLP(
      (w1): Linear(in_features=4096, out_features=6400, bias=False)
      (w2): Linear(in_features=6400, out_features=4096, bias=False)
      (w3): Linear(in_features=4096, out_features=6400, bias=False)
      (act_fn): SiLU()
    )
  )
)
model.layers.17.block_sparse_moe.gate
Linear(in_features=4096, out_features=16, bias=False)
model.layers.17.block_sparse_moe.experts
ModuleList(
  (0-15): 16 x PhiMoEBlockSparseTop2MLP(
    (w1): Linear(in_features=4096, out_features=6400, bias=False)
    (w2): Linear(in_features=6400, out_features=4096, bias=False)
    (w3): Linear(in_features=4096, out_features=6400, bias=False)
    (act_fn): SiLU()
  )
)
model.layers.17.block_sparse_moe.experts.0
PhiMoEBlockSparseTop2MLP(
  (w1): Linear(in_features=4096, out_features=6400, bias=False)
  (w2): Linear(in_features=6400, out_features=4096, bias=False)
  (w3): Linear(in_features=4096, out_features=6400, bias=False)
  (act_fn): SiLU()
)
model.layers.17.block_sparse_moe.experts.0.w1
Linear(in_features=4096, out_features=6400, bias=False)
model.layers.17.block_sparse_moe.experts.0.w2
Linear(in_features=6400, out_features=4096, bias=False)
model.layers.17.block_sparse_moe.experts.0.w3
Linear(in_features=4096, out_features=6400, bias=False)
model.layers.17.block_sparse_moe.experts.0.act_fn
SiLU()
model.layers.17.block_sparse_moe.experts.1
PhiMoEBlockSparseTop2MLP(
  (w1): Linear(in_features=4096, out_features=6400, bias=False)
  (w2): Linear(in_features=6400, out_features=4096, bias=False)
  (w3): Linear(in_features=4096, out_features=6400, bias=False)
  (act_fn): SiLU()
)
model.layers.17.block_sparse_moe.experts.1.w1
Linear(in_features=4096, out_features=6400, bias=False)
model.layers.17.block_sparse_moe.experts.1.w2
Linear(in_features=6400, out_features=4096, bias=False)
model.layers.17.block_sparse_moe.experts.1.w3
Linear(in_features=4096, out_features=6400, bias=False)
model.layers.17.block_sparse_moe.experts.1.act_fn
SiLU()
model.layers.17.block_sparse_moe.experts.2
PhiMoEBlockSparseTop2MLP(
  (w1): Linear(in_features=4096, out_features=6400, bias=False)
  (w2): Linear(in_features=6400, out_features=4096, bias=False)
  (w3): Linear(in_features=4096, out_features=6400, bias=False)
  (act_fn): SiLU()
)
model.layers.17.block_sparse_moe.experts.2.w1
Linear(in_features=4096, out_features=6400, bias=False)
model.layers.17.block_sparse_moe.experts.2.w2
Linear(in_features=6400, out_features=4096, bias=False)
model.layers.17.block_sparse_moe.experts.2.w3
Linear(in_features=4096, out_features=6400, bias=False)
model.layers.17.block_sparse_moe.experts.2.act_fn
SiLU()
model.layers.17.input_layernorm
LayerNorm((4096,), eps=1e-05, elementwise_affine=True)
model.layers.17.post_attention_layernorm
LayerNorm((4096,), eps=1e-05, elementwise_affine=True)
model.layers.18
PhiMoEDecoderLayer(
  (self_attn): PhiMoESdpaAttention(
    (q_proj): Linear(in_features=4096, out_features=4096, bias=True)
    (k_proj): Linear(in_features=4096, out_features=1024, bias=True)
    (v_proj): Linear(in_features=4096, out_features=1024, bias=True)
    (o_proj): Linear(in_features=4096, out_features=4096, bias=True)
    (rotary_emb): Phi3LongRoPEScaledRotaryEmbedding()
  )
  (block_sparse_moe): PhiMoESparseMoeBlock(
    (gate): Linear(in_features=4096, out_features=16, bias=False)
    (experts): ModuleList(
      (0-15): 16 x PhiMoEBlockSparseTop2MLP(
        (w1): Linear(in_features=4096, out_features=6400, bias=False)
        (w2): Linear(in_features=6400, out_features=4096, bias=False)
        (w3): Linear(in_features=4096, out_features=6400, bias=False)
        (act_fn): SiLU()
      )
    )
  )
  (input_layernorm): LayerNorm((4096,), eps=1e-05, elementwise_affine=True)
  (post_attention_layernorm): LayerNorm((4096,), eps=1e-05, elementwise_affine=True)
)
model.layers.18.self_attn
PhiMoESdpaAttention(
  (q_proj): Linear(in_features=4096, out_features=4096, bias=True)
  (k_proj): Linear(in_features=4096, out_features=1024, bias=True)
  (v_proj): Linear(in_features=4096, out_features=1024, bias=True)
  (o_proj): Linear(in_features=4096, out_features=4096, bias=True)
  (rotary_emb): Phi3LongRoPEScaledRotaryEmbedding()
)
model.layers.18.self_attn.q_proj
Linear(in_features=4096, out_features=4096, bias=True)
model.layers.18.self_attn.k_proj
Linear(in_features=4096, out_features=1024, bias=True)
model.layers.18.self_attn.v_proj
Linear(in_features=4096, out_features=1024, bias=True)
model.layers.18.self_attn.o_proj
Linear(in_features=4096, out_features=4096, bias=True)
model.layers.18.self_attn.rotary_emb
Phi3LongRoPEScaledRotaryEmbedding()
model.layers.18.block_sparse_moe
PhiMoESparseMoeBlock(
  (gate): Linear(in_features=4096, out_features=16, bias=False)
  (experts): ModuleList(
    (0-15): 16 x PhiMoEBlockSparseTop2MLP(
      (w1): Linear(in_features=4096, out_features=6400, bias=False)
      (w2): Linear(in_features=6400, out_features=4096, bias=False)
      (w3): Linear(in_features=4096, out_features=6400, bias=False)
      (act_fn): SiLU()
    )
  )
)
model.layers.18.block_sparse_moe.gate
Linear(in_features=4096, out_features=16, bias=False)
model.layers.18.block_sparse_moe.experts
ModuleList(
  (0-15): 16 x PhiMoEBlockSparseTop2MLP(
    (w1): Linear(in_features=4096, out_features=6400, bias=False)
    (w2): Linear(in_features=6400, out_features=4096, bias=False)
    (w3): Linear(in_features=4096, out_features=6400, bias=False)
    (act_fn): SiLU()
  )
)
model.layers.18.block_sparse_moe.experts.0
PhiMoEBlockSparseTop2MLP(
  (w1): Linear(in_features=4096, out_features=6400, bias=False)
  (w2): Linear(in_features=6400, out_features=4096, bias=False)
  (w3): Linear(in_features=4096, out_features=6400, bias=False)
  (act_fn): SiLU()
)
model.layers.18.block_sparse_moe.experts.0.w1
Linear(in_features=4096, out_features=6400, bias=False)
model.layers.18.block_sparse_moe.experts.0.w2
Linear(in_features=6400, out_features=4096, bias=False)
model.layers.18.block_sparse_moe.experts.0.w3
Linear(in_features=4096, out_features=6400, bias=False)
model.layers.18.block_sparse_moe.experts.0.act_fn
SiLU()
model.layers.18.block_sparse_moe.experts.1
PhiMoEBlockSparseTop2MLP(
  (w1): Linear(in_features=4096, out_features=6400, bias=False)
  (w2): Linear(in_features=6400, out_features=4096, bias=False)
  (w3): Linear(in_features=4096, out_features=6400, bias=False)
  (act_fn): SiLU()
)
model.layers.18.block_sparse_moe.experts.1.w1
Linear(in_features=4096, out_features=6400, bias=False)
model.layers.18.block_sparse_moe.experts.1.w2
Linear(in_features=6400, out_features=4096, bias=False)
model.layers.18.block_sparse_moe.experts.1.w3
Linear(in_features=4096, out_features=6400, bias=False)
model.layers.18.block_sparse_moe.experts.1.act_fn
SiLU()
model.layers.18.block_sparse_moe.experts.4
PhiMoEBlockSparseTop2MLP(
  (w1): Linear(in_features=4096, out_features=6400, bias=False)
  (w2): Linear(in_features=6400, out_features=4096, bias=False)
  (w3): Linear(in_features=4096, out_features=6400, bias=False)
  (act_fn): SiLU()
)
model.layers.18.block_sparse_moe.experts.4.w1
Linear(in_features=4096, out_features=6400, bias=False)
model.layers.18.block_sparse_moe.experts.4.w2
Linear(in_features=6400, out_features=4096, bias=False)
model.layers.18.block_sparse_moe.experts.4.w3
Linear(in_features=4096, out_features=6400, bias=False)
model.layers.18.block_sparse_moe.experts.4.act_fn
SiLU()
model.layers.18.block_sparse_moe.experts.9
PhiMoEBlockSparseTop2MLP(
  (w1): Linear(in_features=4096, out_features=6400, bias=False)
  (w2): Linear(in_features=6400, out_features=4096, bias=False)
  (w3): Linear(in_features=4096, out_features=6400, bias=False)
  (act_fn): SiLU()
)
model.layers.18.block_sparse_moe.experts.9.w1
Linear(in_features=4096, out_features=6400, bias=False)
model.layers.18.block_sparse_moe.experts.9.w2
Linear(in_features=6400, out_features=4096, bias=False)
model.layers.18.block_sparse_moe.experts.9.w3
Linear(in_features=4096, out_features=6400, bias=False)
model.layers.18.block_sparse_moe.experts.9.act_fn
SiLU()
model.layers.18.input_layernorm
LayerNorm((4096,), eps=1e-05, elementwise_affine=True)
model.layers.18.post_attention_layernorm
LayerNorm((4096,), eps=1e-05, elementwise_affine=True)
model.layers.19
PhiMoEDecoderLayer(
  (self_attn): PhiMoESdpaAttention(
    (q_proj): Linear(in_features=4096, out_features=4096, bias=True)
    (k_proj): Linear(in_features=4096, out_features=1024, bias=True)
    (v_proj): Linear(in_features=4096, out_features=1024, bias=True)
    (o_proj): Linear(in_features=4096, out_features=4096, bias=True)
    (rotary_emb): Phi3LongRoPEScaledRotaryEmbedding()
  )
  (block_sparse_moe): PhiMoESparseMoeBlock(
    (gate): Linear(in_features=4096, out_features=16, bias=False)
    (experts): ModuleList(
      (0-15): 16 x PhiMoEBlockSparseTop2MLP(
        (w1): Linear(in_features=4096, out_features=6400, bias=False)
        (w2): Linear(in_features=6400, out_features=4096, bias=False)
        (w3): Linear(in_features=4096, out_features=6400, bias=False)
        (act_fn): SiLU()
      )
    )
  )
  (input_layernorm): LayerNorm((4096,), eps=1e-05, elementwise_affine=True)
  (post_attention_layernorm): LayerNorm((4096,), eps=1e-05, elementwise_affine=True)
)
model.layers.19.self_attn
PhiMoESdpaAttention(
  (q_proj): Linear(in_features=4096, out_features=4096, bias=True)
  (k_proj): Linear(in_features=4096, out_features=1024, bias=True)
  (v_proj): Linear(in_features=4096, out_features=1024, bias=True)
  (o_proj): Linear(in_features=4096, out_features=4096, bias=True)
  (rotary_emb): Phi3LongRoPEScaledRotaryEmbedding()
)
model.layers.19.self_attn.q_proj
Linear(in_features=4096, out_features=4096, bias=True)
model.layers.19.self_attn.k_proj
Linear(in_features=4096, out_features=1024, bias=True)
model.layers.19.self_attn.v_proj
Linear(in_features=4096, out_features=1024, bias=True)
model.layers.19.self_attn.o_proj
Linear(in_features=4096, out_features=4096, bias=True)
model.layers.19.self_attn.rotary_emb
Phi3LongRoPEScaledRotaryEmbedding()
model.layers.19.block_sparse_moe
PhiMoESparseMoeBlock(
  (gate): Linear(in_features=4096, out_features=16, bias=False)
  (experts): ModuleList(
    (0-15): 16 x PhiMoEBlockSparseTop2MLP(
      (w1): Linear(in_features=4096, out_features=6400, bias=False)
      (w2): Linear(in_features=6400, out_features=4096, bias=False)
      (w3): Linear(in_features=4096, out_features=6400, bias=False)
      (act_fn): SiLU()
    )
  )
)
model.layers.19.block_sparse_moe.gate
Linear(in_features=4096, out_features=16, bias=False)
model.layers.19.block_sparse_moe.experts
ModuleList(
  (0-15): 16 x PhiMoEBlockSparseTop2MLP(
    (w1): Linear(in_features=4096, out_features=6400, bias=False)
    (w2): Linear(in_features=6400, out_features=4096, bias=False)
    (w3): Linear(in_features=4096, out_features=6400, bias=False)
    (act_fn): SiLU()
  )
)
model.layers.19.block_sparse_moe.experts.0
PhiMoEBlockSparseTop2MLP(
  (w1): Linear(in_features=4096, out_features=6400, bias=False)
  (w2): Linear(in_features=6400, out_features=4096, bias=False)
  (w3): Linear(in_features=4096, out_features=6400, bias=False)
  (act_fn): SiLU()
)
model.layers.19.block_sparse_moe.experts.0.w1
Linear(in_features=4096, out_features=6400, bias=False)
model.layers.19.block_sparse_moe.experts.0.w2
Linear(in_features=6400, out_features=4096, bias=False)
model.layers.19.block_sparse_moe.experts.0.w3
Linear(in_features=4096, out_features=6400, bias=False)
model.layers.19.block_sparse_moe.experts.0.act_fn
SiLU()
model.layers.19.block_sparse_moe.experts.1
PhiMoEBlockSparseTop2MLP(
  (w1): Linear(in_features=4096, out_features=6400, bias=False)
  (w2): Linear(in_features=6400, out_features=4096, bias=False)
  (w3): Linear(in_features=4096, out_features=6400, bias=False)
  (act_fn): SiLU()
)
model.layers.19.block_sparse_moe.experts.1.w1
Linear(in_features=4096, out_features=6400, bias=False)
model.layers.19.block_sparse_moe.experts.1.w2
Linear(in_features=6400, out_features=4096, bias=False)
model.layers.19.block_sparse_moe.experts.1.w3
Linear(in_features=4096, out_features=6400, bias=False)
model.layers.19.block_sparse_moe.experts.1.act_fn
SiLU()
model.layers.19.block_sparse_moe.experts.2
PhiMoEBlockSparseTop2MLP(
  (w1): Linear(in_features=4096, out_features=6400, bias=False)
  (w2): Linear(in_features=6400, out_features=4096, bias=False)
  (w3): Linear(in_features=4096, out_features=6400, bias=False)
  (act_fn): SiLU()
)
model.layers.19.block_sparse_moe.experts.2.w1
Linear(in_features=4096, out_features=6400, bias=False)
model.layers.19.block_sparse_moe.experts.2.w2
Linear(in_features=6400, out_features=4096, bias=False)
model.layers.19.block_sparse_moe.experts.2.w3
Linear(in_features=4096, out_features=6400, bias=False)
model.layers.19.block_sparse_moe.experts.2.act_fn
SiLU()
model.layers.19.block_sparse_moe.experts.5
PhiMoEBlockSparseTop2MLP(
  (w1): Linear(in_features=4096, out_features=6400, bias=False)
  (w2): Linear(in_features=6400, out_features=4096, bias=False)
  (w3): Linear(in_features=4096, out_features=6400, bias=False)
  (act_fn): SiLU()
)
model.layers.19.block_sparse_moe.experts.5.w1
Linear(in_features=4096, out_features=6400, bias=False)
model.layers.19.block_sparse_moe.experts.5.w2
Linear(in_features=6400, out_features=4096, bias=False)
model.layers.19.block_sparse_moe.experts.5.w3
Linear(in_features=4096, out_features=6400, bias=False)
model.layers.19.block_sparse_moe.experts.5.act_fn
SiLU()
model.layers.19.input_layernorm
LayerNorm((4096,), eps=1e-05, elementwise_affine=True)
model.layers.19.post_attention_layernorm
LayerNorm((4096,), eps=1e-05, elementwise_affine=True)
model.layers.20
PhiMoEDecoderLayer(
  (self_attn): PhiMoESdpaAttention(
    (q_proj): Linear(in_features=4096, out_features=4096, bias=True)
    (k_proj): Linear(in_features=4096, out_features=1024, bias=True)
    (v_proj): Linear(in_features=4096, out_features=1024, bias=True)
    (o_proj): Linear(in_features=4096, out_features=4096, bias=True)
    (rotary_emb): Phi3LongRoPEScaledRotaryEmbedding()
  )
  (block_sparse_moe): PhiMoESparseMoeBlock(
    (gate): Linear(in_features=4096, out_features=16, bias=False)
    (experts): ModuleList(
      (0-15): 16 x PhiMoEBlockSparseTop2MLP(
        (w1): Linear(in_features=4096, out_features=6400, bias=False)
        (w2): Linear(in_features=6400, out_features=4096, bias=False)
        (w3): Linear(in_features=4096, out_features=6400, bias=False)
        (act_fn): SiLU()
      )
    )
  )
  (input_layernorm): LayerNorm((4096,), eps=1e-05, elementwise_affine=True)
  (post_attention_layernorm): LayerNorm((4096,), eps=1e-05, elementwise_affine=True)
)
model.layers.20.self_attn
PhiMoESdpaAttention(
  (q_proj): Linear(in_features=4096, out_features=4096, bias=True)
  (k_proj): Linear(in_features=4096, out_features=1024, bias=True)
  (v_proj): Linear(in_features=4096, out_features=1024, bias=True)
  (o_proj): Linear(in_features=4096, out_features=4096, bias=True)
  (rotary_emb): Phi3LongRoPEScaledRotaryEmbedding()
)
model.layers.20.self_attn.q_proj
Linear(in_features=4096, out_features=4096, bias=True)
model.layers.20.self_attn.k_proj
Linear(in_features=4096, out_features=1024, bias=True)
model.layers.20.self_attn.v_proj
Linear(in_features=4096, out_features=1024, bias=True)
model.layers.20.self_attn.o_proj
Linear(in_features=4096, out_features=4096, bias=True)
model.layers.20.self_attn.rotary_emb
Phi3LongRoPEScaledRotaryEmbedding()
model.layers.20.block_sparse_moe
PhiMoESparseMoeBlock(
  (gate): Linear(in_features=4096, out_features=16, bias=False)
  (experts): ModuleList(
    (0-15): 16 x PhiMoEBlockSparseTop2MLP(
      (w1): Linear(in_features=4096, out_features=6400, bias=False)
      (w2): Linear(in_features=6400, out_features=4096, bias=False)
      (w3): Linear(in_features=4096, out_features=6400, bias=False)
      (act_fn): SiLU()
    )
  )
)
model.layers.20.block_sparse_moe.gate
Linear(in_features=4096, out_features=16, bias=False)
model.layers.20.block_sparse_moe.experts
ModuleList(
  (0-15): 16 x PhiMoEBlockSparseTop2MLP(
    (w1): Linear(in_features=4096, out_features=6400, bias=False)
    (w2): Linear(in_features=6400, out_features=4096, bias=False)
    (w3): Linear(in_features=4096, out_features=6400, bias=False)
    (act_fn): SiLU()
  )
)
model.layers.20.block_sparse_moe.experts.0
PhiMoEBlockSparseTop2MLP(
  (w1): Linear(in_features=4096, out_features=6400, bias=False)
  (w2): Linear(in_features=6400, out_features=4096, bias=False)
  (w3): Linear(in_features=4096, out_features=6400, bias=False)
  (act_fn): SiLU()
)
model.layers.20.block_sparse_moe.experts.0.w1
Linear(in_features=4096, out_features=6400, bias=False)
model.layers.20.block_sparse_moe.experts.0.w2
Linear(in_features=6400, out_features=4096, bias=False)
model.layers.20.block_sparse_moe.experts.0.w3
Linear(in_features=4096, out_features=6400, bias=False)
model.layers.20.block_sparse_moe.experts.0.act_fn
SiLU()
model.layers.20.block_sparse_moe.experts.1
PhiMoEBlockSparseTop2MLP(
  (w1): Linear(in_features=4096, out_features=6400, bias=False)
  (w2): Linear(in_features=6400, out_features=4096, bias=False)
  (w3): Linear(in_features=4096, out_features=6400, bias=False)
  (act_fn): SiLU()
)
model.layers.20.block_sparse_moe.experts.1.w1
Linear(in_features=4096, out_features=6400, bias=False)
model.layers.20.block_sparse_moe.experts.1.w2
Linear(in_features=6400, out_features=4096, bias=False)
model.layers.20.block_sparse_moe.experts.1.w3
Linear(in_features=4096, out_features=6400, bias=False)
model.layers.20.block_sparse_moe.experts.1.act_fn
SiLU()
model.layers.20.block_sparse_moe.experts.5
PhiMoEBlockSparseTop2MLP(
  (w1): Linear(in_features=4096, out_features=6400, bias=False)
  (w2): Linear(in_features=6400, out_features=4096, bias=False)
  (w3): Linear(in_features=4096, out_features=6400, bias=False)
  (act_fn): SiLU()
)
model.layers.20.block_sparse_moe.experts.5.w1
Linear(in_features=4096, out_features=6400, bias=False)
model.layers.20.block_sparse_moe.experts.5.w2
Linear(in_features=6400, out_features=4096, bias=False)
model.layers.20.block_sparse_moe.experts.5.w3
Linear(in_features=4096, out_features=6400, bias=False)
model.layers.20.block_sparse_moe.experts.5.act_fn
SiLU()
model.layers.20.block_sparse_moe.experts.6
PhiMoEBlockSparseTop2MLP(
  (w1): Linear(in_features=4096, out_features=6400, bias=False)
  (w2): Linear(in_features=6400, out_features=4096, bias=False)
  (w3): Linear(in_features=4096, out_features=6400, bias=False)
  (act_fn): SiLU()
)
model.layers.20.block_sparse_moe.experts.6.w1
Linear(in_features=4096, out_features=6400, bias=False)
model.layers.20.block_sparse_moe.experts.6.w2
Linear(in_features=6400, out_features=4096, bias=False)
model.layers.20.block_sparse_moe.experts.6.w3
Linear(in_features=4096, out_features=6400, bias=False)
model.layers.20.block_sparse_moe.experts.6.act_fn
SiLU()
model.layers.20.input_layernorm
LayerNorm((4096,), eps=1e-05, elementwise_affine=True)
model.layers.20.post_attention_layernorm
LayerNorm((4096,), eps=1e-05, elementwise_affine=True)
model.layers.21
PhiMoEDecoderLayer(
  (self_attn): PhiMoESdpaAttention(
    (q_proj): Linear(in_features=4096, out_features=4096, bias=True)
    (k_proj): Linear(in_features=4096, out_features=1024, bias=True)
    (v_proj): Linear(in_features=4096, out_features=1024, bias=True)
    (o_proj): Linear(in_features=4096, out_features=4096, bias=True)
    (rotary_emb): Phi3LongRoPEScaledRotaryEmbedding()
  )
  (block_sparse_moe): PhiMoESparseMoeBlock(
    (gate): Linear(in_features=4096, out_features=16, bias=False)
    (experts): ModuleList(
      (0-15): 16 x PhiMoEBlockSparseTop2MLP(
        (w1): Linear(in_features=4096, out_features=6400, bias=False)
        (w2): Linear(in_features=6400, out_features=4096, bias=False)
        (w3): Linear(in_features=4096, out_features=6400, bias=False)
        (act_fn): SiLU()
      )
    )
  )
  (input_layernorm): LayerNorm((4096,), eps=1e-05, elementwise_affine=True)
  (post_attention_layernorm): LayerNorm((4096,), eps=1e-05, elementwise_affine=True)
)
model.layers.21.self_attn
PhiMoESdpaAttention(
  (q_proj): Linear(in_features=4096, out_features=4096, bias=True)
  (k_proj): Linear(in_features=4096, out_features=1024, bias=True)
  (v_proj): Linear(in_features=4096, out_features=1024, bias=True)
  (o_proj): Linear(in_features=4096, out_features=4096, bias=True)
  (rotary_emb): Phi3LongRoPEScaledRotaryEmbedding()
)
model.layers.21.self_attn.q_proj
Linear(in_features=4096, out_features=4096, bias=True)
model.layers.21.self_attn.k_proj
Linear(in_features=4096, out_features=1024, bias=True)
model.layers.21.self_attn.v_proj
Linear(in_features=4096, out_features=1024, bias=True)
model.layers.21.self_attn.o_proj
Linear(in_features=4096, out_features=4096, bias=True)
model.layers.21.self_attn.rotary_emb
Phi3LongRoPEScaledRotaryEmbedding()
model.layers.21.block_sparse_moe
PhiMoESparseMoeBlock(
  (gate): Linear(in_features=4096, out_features=16, bias=False)
  (experts): ModuleList(
    (0-15): 16 x PhiMoEBlockSparseTop2MLP(
      (w1): Linear(in_features=4096, out_features=6400, bias=False)
      (w2): Linear(in_features=6400, out_features=4096, bias=False)
      (w3): Linear(in_features=4096, out_features=6400, bias=False)
      (act_fn): SiLU()
    )
  )
)
model.layers.21.block_sparse_moe.gate
Linear(in_features=4096, out_features=16, bias=False)
model.layers.21.block_sparse_moe.experts
ModuleList(
  (0-15): 16 x PhiMoEBlockSparseTop2MLP(
    (w1): Linear(in_features=4096, out_features=6400, bias=False)
    (w2): Linear(in_features=6400, out_features=4096, bias=False)
    (w3): Linear(in_features=4096, out_features=6400, bias=False)
    (act_fn): SiLU()
  )
)
model.layers.21.block_sparse_moe.experts.0
PhiMoEBlockSparseTop2MLP(
  (w1): Linear(in_features=4096, out_features=6400, bias=False)
  (w2): Linear(in_features=6400, out_features=4096, bias=False)
  (w3): Linear(in_features=4096, out_features=6400, bias=False)
  (act_fn): SiLU()
)
model.layers.21.block_sparse_moe.experts.0.w1
Linear(in_features=4096, out_features=6400, bias=False)
model.layers.21.block_sparse_moe.experts.0.w2
Linear(in_features=6400, out_features=4096, bias=False)
model.layers.21.block_sparse_moe.experts.0.w3
Linear(in_features=4096, out_features=6400, bias=False)
model.layers.21.block_sparse_moe.experts.0.act_fn
SiLU()
model.layers.21.block_sparse_moe.experts.2
PhiMoEBlockSparseTop2MLP(
  (w1): Linear(in_features=4096, out_features=6400, bias=False)
  (w2): Linear(in_features=6400, out_features=4096, bias=False)
  (w3): Linear(in_features=4096, out_features=6400, bias=False)
  (act_fn): SiLU()
)
model.layers.21.block_sparse_moe.experts.2.w1
Linear(in_features=4096, out_features=6400, bias=False)
model.layers.21.block_sparse_moe.experts.2.w2
Linear(in_features=6400, out_features=4096, bias=False)
model.layers.21.block_sparse_moe.experts.2.w3
Linear(in_features=4096, out_features=6400, bias=False)
model.layers.21.block_sparse_moe.experts.2.act_fn
SiLU()
model.layers.21.block_sparse_moe.experts.4
PhiMoEBlockSparseTop2MLP(
  (w1): Linear(in_features=4096, out_features=6400, bias=False)
  (w2): Linear(in_features=6400, out_features=4096, bias=False)
  (w3): Linear(in_features=4096, out_features=6400, bias=False)
  (act_fn): SiLU()
)
model.layers.21.block_sparse_moe.experts.4.w1
Linear(in_features=4096, out_features=6400, bias=False)
model.layers.21.block_sparse_moe.experts.4.w2
Linear(in_features=6400, out_features=4096, bias=False)
model.layers.21.block_sparse_moe.experts.4.w3
Linear(in_features=4096, out_features=6400, bias=False)
model.layers.21.block_sparse_moe.experts.4.act_fn
SiLU()
model.layers.21.input_layernorm
LayerNorm((4096,), eps=1e-05, elementwise_affine=True)
model.layers.21.post_attention_layernorm
LayerNorm((4096,), eps=1e-05, elementwise_affine=True)
model.layers.22
PhiMoEDecoderLayer(
  (self_attn): PhiMoESdpaAttention(
    (q_proj): Linear(in_features=4096, out_features=4096, bias=True)
    (k_proj): Linear(in_features=4096, out_features=1024, bias=True)
    (v_proj): Linear(in_features=4096, out_features=1024, bias=True)
    (o_proj): Linear(in_features=4096, out_features=4096, bias=True)
    (rotary_emb): Phi3LongRoPEScaledRotaryEmbedding()
  )
  (block_sparse_moe): PhiMoESparseMoeBlock(
    (gate): Linear(in_features=4096, out_features=16, bias=False)
    (experts): ModuleList(
      (0-15): 16 x PhiMoEBlockSparseTop2MLP(
        (w1): Linear(in_features=4096, out_features=6400, bias=False)
        (w2): Linear(in_features=6400, out_features=4096, bias=False)
        (w3): Linear(in_features=4096, out_features=6400, bias=False)
        (act_fn): SiLU()
      )
    )
  )
  (input_layernorm): LayerNorm((4096,), eps=1e-05, elementwise_affine=True)
  (post_attention_layernorm): LayerNorm((4096,), eps=1e-05, elementwise_affine=True)
)
model.layers.22.self_attn
PhiMoESdpaAttention(
  (q_proj): Linear(in_features=4096, out_features=4096, bias=True)
  (k_proj): Linear(in_features=4096, out_features=1024, bias=True)
  (v_proj): Linear(in_features=4096, out_features=1024, bias=True)
  (o_proj): Linear(in_features=4096, out_features=4096, bias=True)
  (rotary_emb): Phi3LongRoPEScaledRotaryEmbedding()
)
model.layers.22.self_attn.q_proj
Linear(in_features=4096, out_features=4096, bias=True)
model.layers.22.self_attn.k_proj
Linear(in_features=4096, out_features=1024, bias=True)
model.layers.22.self_attn.v_proj
Linear(in_features=4096, out_features=1024, bias=True)
model.layers.22.self_attn.o_proj
Linear(in_features=4096, out_features=4096, bias=True)
model.layers.22.self_attn.rotary_emb
Phi3LongRoPEScaledRotaryEmbedding()
model.layers.22.block_sparse_moe
PhiMoESparseMoeBlock(
  (gate): Linear(in_features=4096, out_features=16, bias=False)
  (experts): ModuleList(
    (0-15): 16 x PhiMoEBlockSparseTop2MLP(
      (w1): Linear(in_features=4096, out_features=6400, bias=False)
      (w2): Linear(in_features=6400, out_features=4096, bias=False)
      (w3): Linear(in_features=4096, out_features=6400, bias=False)
      (act_fn): SiLU()
    )
  )
)
model.layers.22.block_sparse_moe.gate
Linear(in_features=4096, out_features=16, bias=False)
model.layers.22.block_sparse_moe.experts
ModuleList(
  (0-15): 16 x PhiMoEBlockSparseTop2MLP(
    (w1): Linear(in_features=4096, out_features=6400, bias=False)
    (w2): Linear(in_features=6400, out_features=4096, bias=False)
    (w3): Linear(in_features=4096, out_features=6400, bias=False)
    (act_fn): SiLU()
  )
)
model.layers.22.block_sparse_moe.experts.0
PhiMoEBlockSparseTop2MLP(
  (w1): Linear(in_features=4096, out_features=6400, bias=False)
  (w2): Linear(in_features=6400, out_features=4096, bias=False)
  (w3): Linear(in_features=4096, out_features=6400, bias=False)
  (act_fn): SiLU()
)
model.layers.22.block_sparse_moe.experts.0.w1
Linear(in_features=4096, out_features=6400, bias=False)
model.layers.22.block_sparse_moe.experts.0.w2
Linear(in_features=6400, out_features=4096, bias=False)
model.layers.22.block_sparse_moe.experts.0.w3
Linear(in_features=4096, out_features=6400, bias=False)
model.layers.22.block_sparse_moe.experts.0.act_fn
SiLU()
model.layers.22.block_sparse_moe.experts.1
PhiMoEBlockSparseTop2MLP(
  (w1): Linear(in_features=4096, out_features=6400, bias=False)
  (w2): Linear(in_features=6400, out_features=4096, bias=False)
  (w3): Linear(in_features=4096, out_features=6400, bias=False)
  (act_fn): SiLU()
)
model.layers.22.block_sparse_moe.experts.1.w1
Linear(in_features=4096, out_features=6400, bias=False)
model.layers.22.block_sparse_moe.experts.1.w2
Linear(in_features=6400, out_features=4096, bias=False)
model.layers.22.block_sparse_moe.experts.1.w3
Linear(in_features=4096, out_features=6400, bias=False)
model.layers.22.block_sparse_moe.experts.1.act_fn
SiLU()
model.layers.22.block_sparse_moe.experts.2
PhiMoEBlockSparseTop2MLP(
  (w1): Linear(in_features=4096, out_features=6400, bias=False)
  (w2): Linear(in_features=6400, out_features=4096, bias=False)
  (w3): Linear(in_features=4096, out_features=6400, bias=False)
  (act_fn): SiLU()
)
model.layers.22.block_sparse_moe.experts.2.w1
Linear(in_features=4096, out_features=6400, bias=False)
model.layers.22.block_sparse_moe.experts.2.w2
Linear(in_features=6400, out_features=4096, bias=False)
model.layers.22.block_sparse_moe.experts.2.w3
Linear(in_features=4096, out_features=6400, bias=False)
model.layers.22.block_sparse_moe.experts.2.act_fn
SiLU()
model.layers.22.block_sparse_moe.experts.3
PhiMoEBlockSparseTop2MLP(
  (w1): Linear(in_features=4096, out_features=6400, bias=False)
  (w2): Linear(in_features=6400, out_features=4096, bias=False)
  (w3): Linear(in_features=4096, out_features=6400, bias=False)
  (act_fn): SiLU()
)
model.layers.22.block_sparse_moe.experts.3.w1
Linear(in_features=4096, out_features=6400, bias=False)
model.layers.22.block_sparse_moe.experts.3.w2
Linear(in_features=6400, out_features=4096, bias=False)
model.layers.22.block_sparse_moe.experts.3.w3
Linear(in_features=4096, out_features=6400, bias=False)
model.layers.22.block_sparse_moe.experts.3.act_fn
SiLU()
model.layers.22.input_layernorm
LayerNorm((4096,), eps=1e-05, elementwise_affine=True)
model.layers.22.post_attention_layernorm
LayerNorm((4096,), eps=1e-05, elementwise_affine=True)
model.layers.23
PhiMoEDecoderLayer(
  (self_attn): PhiMoESdpaAttention(
    (q_proj): Linear(in_features=4096, out_features=4096, bias=True)
    (k_proj): Linear(in_features=4096, out_features=1024, bias=True)
    (v_proj): Linear(in_features=4096, out_features=1024, bias=True)
    (o_proj): Linear(in_features=4096, out_features=4096, bias=True)
    (rotary_emb): Phi3LongRoPEScaledRotaryEmbedding()
  )
  (block_sparse_moe): PhiMoESparseMoeBlock(
    (gate): Linear(in_features=4096, out_features=16, bias=False)
    (experts): ModuleList(
      (0-15): 16 x PhiMoEBlockSparseTop2MLP(
        (w1): Linear(in_features=4096, out_features=6400, bias=False)
        (w2): Linear(in_features=6400, out_features=4096, bias=False)
        (w3): Linear(in_features=4096, out_features=6400, bias=False)
        (act_fn): SiLU()
      )
    )
  )
  (input_layernorm): LayerNorm((4096,), eps=1e-05, elementwise_affine=True)
  (post_attention_layernorm): LayerNorm((4096,), eps=1e-05, elementwise_affine=True)
)
model.layers.23.self_attn
PhiMoESdpaAttention(
  (q_proj): Linear(in_features=4096, out_features=4096, bias=True)
  (k_proj): Linear(in_features=4096, out_features=1024, bias=True)
  (v_proj): Linear(in_features=4096, out_features=1024, bias=True)
  (o_proj): Linear(in_features=4096, out_features=4096, bias=True)
  (rotary_emb): Phi3LongRoPEScaledRotaryEmbedding()
)
model.layers.23.self_attn.q_proj
Linear(in_features=4096, out_features=4096, bias=True)
model.layers.23.self_attn.k_proj
Linear(in_features=4096, out_features=1024, bias=True)
model.layers.23.self_attn.v_proj
Linear(in_features=4096, out_features=1024, bias=True)
model.layers.23.self_attn.o_proj
Linear(in_features=4096, out_features=4096, bias=True)
model.layers.23.self_attn.rotary_emb
Phi3LongRoPEScaledRotaryEmbedding()
model.layers.23.block_sparse_moe
PhiMoESparseMoeBlock(
  (gate): Linear(in_features=4096, out_features=16, bias=False)
  (experts): ModuleList(
    (0-15): 16 x PhiMoEBlockSparseTop2MLP(
      (w1): Linear(in_features=4096, out_features=6400, bias=False)
      (w2): Linear(in_features=6400, out_features=4096, bias=False)
      (w3): Linear(in_features=4096, out_features=6400, bias=False)
      (act_fn): SiLU()
    )
  )
)
model.layers.23.block_sparse_moe.gate
Linear(in_features=4096, out_features=16, bias=False)
model.layers.23.block_sparse_moe.experts
ModuleList(
  (0-15): 16 x PhiMoEBlockSparseTop2MLP(
    (w1): Linear(in_features=4096, out_features=6400, bias=False)
    (w2): Linear(in_features=6400, out_features=4096, bias=False)
    (w3): Linear(in_features=4096, out_features=6400, bias=False)
    (act_fn): SiLU()
  )
)
model.layers.23.block_sparse_moe.experts.0
PhiMoEBlockSparseTop2MLP(
  (w1): Linear(in_features=4096, out_features=6400, bias=False)
  (w2): Linear(in_features=6400, out_features=4096, bias=False)
  (w3): Linear(in_features=4096, out_features=6400, bias=False)
  (act_fn): SiLU()
)
model.layers.23.block_sparse_moe.experts.0.w1
Linear(in_features=4096, out_features=6400, bias=False)
model.layers.23.block_sparse_moe.experts.0.w2
Linear(in_features=6400, out_features=4096, bias=False)
model.layers.23.block_sparse_moe.experts.0.w3
Linear(in_features=4096, out_features=6400, bias=False)
model.layers.23.block_sparse_moe.experts.0.act_fn
SiLU()
model.layers.23.block_sparse_moe.experts.1
PhiMoEBlockSparseTop2MLP(
  (w1): Linear(in_features=4096, out_features=6400, bias=False)
  (w2): Linear(in_features=6400, out_features=4096, bias=False)
  (w3): Linear(in_features=4096, out_features=6400, bias=False)
  (act_fn): SiLU()
)
model.layers.23.block_sparse_moe.experts.1.w1
Linear(in_features=4096, out_features=6400, bias=False)
model.layers.23.block_sparse_moe.experts.1.w2
Linear(in_features=6400, out_features=4096, bias=False)
model.layers.23.block_sparse_moe.experts.1.w3
Linear(in_features=4096, out_features=6400, bias=False)
model.layers.23.block_sparse_moe.experts.1.act_fn
SiLU()
model.layers.23.block_sparse_moe.experts.2
PhiMoEBlockSparseTop2MLP(
  (w1): Linear(in_features=4096, out_features=6400, bias=False)
  (w2): Linear(in_features=6400, out_features=4096, bias=False)
  (w3): Linear(in_features=4096, out_features=6400, bias=False)
  (act_fn): SiLU()
)
model.layers.23.block_sparse_moe.experts.2.w1
Linear(in_features=4096, out_features=6400, bias=False)
model.layers.23.block_sparse_moe.experts.2.w2
Linear(in_features=6400, out_features=4096, bias=False)
model.layers.23.block_sparse_moe.experts.2.w3
Linear(in_features=4096, out_features=6400, bias=False)
model.layers.23.block_sparse_moe.experts.2.act_fn
SiLU()
model.layers.23.block_sparse_moe.experts.5
PhiMoEBlockSparseTop2MLP(
  (w1): Linear(in_features=4096, out_features=6400, bias=False)
  (w2): Linear(in_features=6400, out_features=4096, bias=False)
  (w3): Linear(in_features=4096, out_features=6400, bias=False)
  (act_fn): SiLU()
)
model.layers.23.block_sparse_moe.experts.5.w1
Linear(in_features=4096, out_features=6400, bias=False)
model.layers.23.block_sparse_moe.experts.5.w2
Linear(in_features=6400, out_features=4096, bias=False)
model.layers.23.block_sparse_moe.experts.5.w3
Linear(in_features=4096, out_features=6400, bias=False)
model.layers.23.block_sparse_moe.experts.5.act_fn
SiLU()
model.layers.23.input_layernorm
LayerNorm((4096,), eps=1e-05, elementwise_affine=True)
model.layers.23.post_attention_layernorm
LayerNorm((4096,), eps=1e-05, elementwise_affine=True)
model.layers.24
PhiMoEDecoderLayer(
  (self_attn): PhiMoESdpaAttention(
    (q_proj): Linear(in_features=4096, out_features=4096, bias=True)
    (k_proj): Linear(in_features=4096, out_features=1024, bias=True)
    (v_proj): Linear(in_features=4096, out_features=1024, bias=True)
    (o_proj): Linear(in_features=4096, out_features=4096, bias=True)
    (rotary_emb): Phi3LongRoPEScaledRotaryEmbedding()
  )
  (block_sparse_moe): PhiMoESparseMoeBlock(
    (gate): Linear(in_features=4096, out_features=16, bias=False)
    (experts): ModuleList(
      (0-15): 16 x PhiMoEBlockSparseTop2MLP(
        (w1): Linear(in_features=4096, out_features=6400, bias=False)
        (w2): Linear(in_features=6400, out_features=4096, bias=False)
        (w3): Linear(in_features=4096, out_features=6400, bias=False)
        (act_fn): SiLU()
      )
    )
  )
  (input_layernorm): LayerNorm((4096,), eps=1e-05, elementwise_affine=True)
  (post_attention_layernorm): LayerNorm((4096,), eps=1e-05, elementwise_affine=True)
)
model.layers.24.self_attn
PhiMoESdpaAttention(
  (q_proj): Linear(in_features=4096, out_features=4096, bias=True)
  (k_proj): Linear(in_features=4096, out_features=1024, bias=True)
  (v_proj): Linear(in_features=4096, out_features=1024, bias=True)
  (o_proj): Linear(in_features=4096, out_features=4096, bias=True)
  (rotary_emb): Phi3LongRoPEScaledRotaryEmbedding()
)
model.layers.24.self_attn.q_proj
Linear(in_features=4096, out_features=4096, bias=True)
model.layers.24.self_attn.k_proj
Linear(in_features=4096, out_features=1024, bias=True)
model.layers.24.self_attn.v_proj
Linear(in_features=4096, out_features=1024, bias=True)
model.layers.24.self_attn.o_proj
Linear(in_features=4096, out_features=4096, bias=True)
model.layers.24.self_attn.rotary_emb
Phi3LongRoPEScaledRotaryEmbedding()
model.layers.24.block_sparse_moe
PhiMoESparseMoeBlock(
  (gate): Linear(in_features=4096, out_features=16, bias=False)
  (experts): ModuleList(
    (0-15): 16 x PhiMoEBlockSparseTop2MLP(
      (w1): Linear(in_features=4096, out_features=6400, bias=False)
      (w2): Linear(in_features=6400, out_features=4096, bias=False)
      (w3): Linear(in_features=4096, out_features=6400, bias=False)
      (act_fn): SiLU()
    )
  )
)
model.layers.24.block_sparse_moe.gate
Linear(in_features=4096, out_features=16, bias=False)
model.layers.24.block_sparse_moe.experts
ModuleList(
  (0-15): 16 x PhiMoEBlockSparseTop2MLP(
    (w1): Linear(in_features=4096, out_features=6400, bias=False)
    (w2): Linear(in_features=6400, out_features=4096, bias=False)
    (w3): Linear(in_features=4096, out_features=6400, bias=False)
    (act_fn): SiLU()
  )
)
model.layers.24.block_sparse_moe.experts.0
PhiMoEBlockSparseTop2MLP(
  (w1): Linear(in_features=4096, out_features=6400, bias=False)
  (w2): Linear(in_features=6400, out_features=4096, bias=False)
  (w3): Linear(in_features=4096, out_features=6400, bias=False)
  (act_fn): SiLU()
)
model.layers.24.block_sparse_moe.experts.0.w1
Linear(in_features=4096, out_features=6400, bias=False)
model.layers.24.block_sparse_moe.experts.0.w2
Linear(in_features=6400, out_features=4096, bias=False)
model.layers.24.block_sparse_moe.experts.0.w3
Linear(in_features=4096, out_features=6400, bias=False)
model.layers.24.block_sparse_moe.experts.0.act_fn
SiLU()
model.layers.24.block_sparse_moe.experts.2
PhiMoEBlockSparseTop2MLP(
  (w1): Linear(in_features=4096, out_features=6400, bias=False)
  (w2): Linear(in_features=6400, out_features=4096, bias=False)
  (w3): Linear(in_features=4096, out_features=6400, bias=False)
  (act_fn): SiLU()
)
model.layers.24.block_sparse_moe.experts.2.w1
Linear(in_features=4096, out_features=6400, bias=False)
model.layers.24.block_sparse_moe.experts.2.w2
Linear(in_features=6400, out_features=4096, bias=False)
model.layers.24.block_sparse_moe.experts.2.w3
Linear(in_features=4096, out_features=6400, bias=False)
model.layers.24.block_sparse_moe.experts.2.act_fn
SiLU()
model.layers.24.block_sparse_moe.experts.3
PhiMoEBlockSparseTop2MLP(
  (w1): Linear(in_features=4096, out_features=6400, bias=False)
  (w2): Linear(in_features=6400, out_features=4096, bias=False)
  (w3): Linear(in_features=4096, out_features=6400, bias=False)
  (act_fn): SiLU()
)
model.layers.24.block_sparse_moe.experts.3.w1
Linear(in_features=4096, out_features=6400, bias=False)
model.layers.24.block_sparse_moe.experts.3.w2
Linear(in_features=6400, out_features=4096, bias=False)
model.layers.24.block_sparse_moe.experts.3.w3
Linear(in_features=4096, out_features=6400, bias=False)
model.layers.24.block_sparse_moe.experts.3.act_fn
SiLU()
model.layers.24.block_sparse_moe.experts.13
PhiMoEBlockSparseTop2MLP(
  (w1): Linear(in_features=4096, out_features=6400, bias=False)
  (w2): Linear(in_features=6400, out_features=4096, bias=False)
  (w3): Linear(in_features=4096, out_features=6400, bias=False)
  (act_fn): SiLU()
)
model.layers.24.block_sparse_moe.experts.13.w1
Linear(in_features=4096, out_features=6400, bias=False)
model.layers.24.block_sparse_moe.experts.13.w2
Linear(in_features=6400, out_features=4096, bias=False)
model.layers.24.block_sparse_moe.experts.13.w3
Linear(in_features=4096, out_features=6400, bias=False)
model.layers.24.block_sparse_moe.experts.13.act_fn
SiLU()
model.layers.24.input_layernorm
LayerNorm((4096,), eps=1e-05, elementwise_affine=True)
model.layers.24.post_attention_layernorm
LayerNorm((4096,), eps=1e-05, elementwise_affine=True)
model.layers.25
PhiMoEDecoderLayer(
  (self_attn): PhiMoESdpaAttention(
    (q_proj): Linear(in_features=4096, out_features=4096, bias=True)
    (k_proj): Linear(in_features=4096, out_features=1024, bias=True)
    (v_proj): Linear(in_features=4096, out_features=1024, bias=True)
    (o_proj): Linear(in_features=4096, out_features=4096, bias=True)
    (rotary_emb): Phi3LongRoPEScaledRotaryEmbedding()
  )
  (block_sparse_moe): PhiMoESparseMoeBlock(
    (gate): Linear(in_features=4096, out_features=16, bias=False)
    (experts): ModuleList(
      (0-15): 16 x PhiMoEBlockSparseTop2MLP(
        (w1): Linear(in_features=4096, out_features=6400, bias=False)
        (w2): Linear(in_features=6400, out_features=4096, bias=False)
        (w3): Linear(in_features=4096, out_features=6400, bias=False)
        (act_fn): SiLU()
      )
    )
  )
  (input_layernorm): LayerNorm((4096,), eps=1e-05, elementwise_affine=True)
  (post_attention_layernorm): LayerNorm((4096,), eps=1e-05, elementwise_affine=True)
)
model.layers.25.self_attn
PhiMoESdpaAttention(
  (q_proj): Linear(in_features=4096, out_features=4096, bias=True)
  (k_proj): Linear(in_features=4096, out_features=1024, bias=True)
  (v_proj): Linear(in_features=4096, out_features=1024, bias=True)
  (o_proj): Linear(in_features=4096, out_features=4096, bias=True)
  (rotary_emb): Phi3LongRoPEScaledRotaryEmbedding()
)
model.layers.25.self_attn.q_proj
Linear(in_features=4096, out_features=4096, bias=True)
model.layers.25.self_attn.k_proj
Linear(in_features=4096, out_features=1024, bias=True)
model.layers.25.self_attn.v_proj
Linear(in_features=4096, out_features=1024, bias=True)
model.layers.25.self_attn.o_proj
Linear(in_features=4096, out_features=4096, bias=True)
model.layers.25.self_attn.rotary_emb
Phi3LongRoPEScaledRotaryEmbedding()
model.layers.25.block_sparse_moe
PhiMoESparseMoeBlock(
  (gate): Linear(in_features=4096, out_features=16, bias=False)
  (experts): ModuleList(
    (0-15): 16 x PhiMoEBlockSparseTop2MLP(
      (w1): Linear(in_features=4096, out_features=6400, bias=False)
      (w2): Linear(in_features=6400, out_features=4096, bias=False)
      (w3): Linear(in_features=4096, out_features=6400, bias=False)
      (act_fn): SiLU()
    )
  )
)
model.layers.25.block_sparse_moe.gate
Linear(in_features=4096, out_features=16, bias=False)
model.layers.25.block_sparse_moe.experts
ModuleList(
  (0-15): 16 x PhiMoEBlockSparseTop2MLP(
    (w1): Linear(in_features=4096, out_features=6400, bias=False)
    (w2): Linear(in_features=6400, out_features=4096, bias=False)
    (w3): Linear(in_features=4096, out_features=6400, bias=False)
    (act_fn): SiLU()
  )
)
model.layers.25.block_sparse_moe.experts.0
PhiMoEBlockSparseTop2MLP(
  (w1): Linear(in_features=4096, out_features=6400, bias=False)
  (w2): Linear(in_features=6400, out_features=4096, bias=False)
  (w3): Linear(in_features=4096, out_features=6400, bias=False)
  (act_fn): SiLU()
)
model.layers.25.block_sparse_moe.experts.0.w1
Linear(in_features=4096, out_features=6400, bias=False)
model.layers.25.block_sparse_moe.experts.0.w2
Linear(in_features=6400, out_features=4096, bias=False)
model.layers.25.block_sparse_moe.experts.0.w3
Linear(in_features=4096, out_features=6400, bias=False)
model.layers.25.block_sparse_moe.experts.0.act_fn
SiLU()
model.layers.25.block_sparse_moe.experts.3
PhiMoEBlockSparseTop2MLP(
  (w1): Linear(in_features=4096, out_features=6400, bias=False)
  (w2): Linear(in_features=6400, out_features=4096, bias=False)
  (w3): Linear(in_features=4096, out_features=6400, bias=False)
  (act_fn): SiLU()
)
model.layers.25.block_sparse_moe.experts.3.w1
Linear(in_features=4096, out_features=6400, bias=False)
model.layers.25.block_sparse_moe.experts.3.w2
Linear(in_features=6400, out_features=4096, bias=False)
model.layers.25.block_sparse_moe.experts.3.w3
Linear(in_features=4096, out_features=6400, bias=False)
model.layers.25.block_sparse_moe.experts.3.act_fn
SiLU()
model.layers.25.block_sparse_moe.experts.9
PhiMoEBlockSparseTop2MLP(
  (w1): Linear(in_features=4096, out_features=6400, bias=False)
  (w2): Linear(in_features=6400, out_features=4096, bias=False)
  (w3): Linear(in_features=4096, out_features=6400, bias=False)
  (act_fn): SiLU()
)
model.layers.25.block_sparse_moe.experts.9.w1
Linear(in_features=4096, out_features=6400, bias=False)
model.layers.25.block_sparse_moe.experts.9.w2
Linear(in_features=6400, out_features=4096, bias=False)
model.layers.25.block_sparse_moe.experts.9.w3
Linear(in_features=4096, out_features=6400, bias=False)
model.layers.25.block_sparse_moe.experts.9.act_fn
SiLU()
model.layers.25.block_sparse_moe.experts.10
PhiMoEBlockSparseTop2MLP(
  (w1): Linear(in_features=4096, out_features=6400, bias=False)
  (w2): Linear(in_features=6400, out_features=4096, bias=False)
  (w3): Linear(in_features=4096, out_features=6400, bias=False)
  (act_fn): SiLU()
)
model.layers.25.block_sparse_moe.experts.10.w1
Linear(in_features=4096, out_features=6400, bias=False)
model.layers.25.block_sparse_moe.experts.10.w2
Linear(in_features=6400, out_features=4096, bias=False)
model.layers.25.block_sparse_moe.experts.10.w3
Linear(in_features=4096, out_features=6400, bias=False)
model.layers.25.block_sparse_moe.experts.10.act_fn
SiLU()
model.layers.25.input_layernorm
LayerNorm((4096,), eps=1e-05, elementwise_affine=True)
model.layers.25.post_attention_layernorm
LayerNorm((4096,), eps=1e-05, elementwise_affine=True)
model.layers.26
PhiMoEDecoderLayer(
  (self_attn): PhiMoESdpaAttention(
    (q_proj): Linear(in_features=4096, out_features=4096, bias=True)
    (k_proj): Linear(in_features=4096, out_features=1024, bias=True)
    (v_proj): Linear(in_features=4096, out_features=1024, bias=True)
    (o_proj): Linear(in_features=4096, out_features=4096, bias=True)
    (rotary_emb): Phi3LongRoPEScaledRotaryEmbedding()
  )
  (block_sparse_moe): PhiMoESparseMoeBlock(
    (gate): Linear(in_features=4096, out_features=16, bias=False)
    (experts): ModuleList(
      (0-15): 16 x PhiMoEBlockSparseTop2MLP(
        (w1): Linear(in_features=4096, out_features=6400, bias=False)
        (w2): Linear(in_features=6400, out_features=4096, bias=False)
        (w3): Linear(in_features=4096, out_features=6400, bias=False)
        (act_fn): SiLU()
      )
    )
  )
  (input_layernorm): LayerNorm((4096,), eps=1e-05, elementwise_affine=True)
  (post_attention_layernorm): LayerNorm((4096,), eps=1e-05, elementwise_affine=True)
)
model.layers.26.self_attn
PhiMoESdpaAttention(
  (q_proj): Linear(in_features=4096, out_features=4096, bias=True)
  (k_proj): Linear(in_features=4096, out_features=1024, bias=True)
  (v_proj): Linear(in_features=4096, out_features=1024, bias=True)
  (o_proj): Linear(in_features=4096, out_features=4096, bias=True)
  (rotary_emb): Phi3LongRoPEScaledRotaryEmbedding()
)
model.layers.26.self_attn.q_proj
Linear(in_features=4096, out_features=4096, bias=True)
model.layers.26.self_attn.k_proj
Linear(in_features=4096, out_features=1024, bias=True)
model.layers.26.self_attn.v_proj
Linear(in_features=4096, out_features=1024, bias=True)
model.layers.26.self_attn.o_proj
Linear(in_features=4096, out_features=4096, bias=True)
model.layers.26.self_attn.rotary_emb
Phi3LongRoPEScaledRotaryEmbedding()
model.layers.26.block_sparse_moe
PhiMoESparseMoeBlock(
  (gate): Linear(in_features=4096, out_features=16, bias=False)
  (experts): ModuleList(
    (0-15): 16 x PhiMoEBlockSparseTop2MLP(
      (w1): Linear(in_features=4096, out_features=6400, bias=False)
      (w2): Linear(in_features=6400, out_features=4096, bias=False)
      (w3): Linear(in_features=4096, out_features=6400, bias=False)
      (act_fn): SiLU()
    )
  )
)
model.layers.26.block_sparse_moe.gate
Linear(in_features=4096, out_features=16, bias=False)
model.layers.26.block_sparse_moe.experts
ModuleList(
  (0-15): 16 x PhiMoEBlockSparseTop2MLP(
    (w1): Linear(in_features=4096, out_features=6400, bias=False)
    (w2): Linear(in_features=6400, out_features=4096, bias=False)
    (w3): Linear(in_features=4096, out_features=6400, bias=False)
    (act_fn): SiLU()
  )
)
model.layers.26.block_sparse_moe.experts.0
PhiMoEBlockSparseTop2MLP(
  (w1): Linear(in_features=4096, out_features=6400, bias=False)
  (w2): Linear(in_features=6400, out_features=4096, bias=False)
  (w3): Linear(in_features=4096, out_features=6400, bias=False)
  (act_fn): SiLU()
)
model.layers.26.block_sparse_moe.experts.0.w1
Linear(in_features=4096, out_features=6400, bias=False)
model.layers.26.block_sparse_moe.experts.0.w2
Linear(in_features=6400, out_features=4096, bias=False)
model.layers.26.block_sparse_moe.experts.0.w3
Linear(in_features=4096, out_features=6400, bias=False)
model.layers.26.block_sparse_moe.experts.0.act_fn
SiLU()
model.layers.26.block_sparse_moe.experts.2
PhiMoEBlockSparseTop2MLP(
  (w1): Linear(in_features=4096, out_features=6400, bias=False)
  (w2): Linear(in_features=6400, out_features=4096, bias=False)
  (w3): Linear(in_features=4096, out_features=6400, bias=False)
  (act_fn): SiLU()
)
model.layers.26.block_sparse_moe.experts.2.w1
Linear(in_features=4096, out_features=6400, bias=False)
model.layers.26.block_sparse_moe.experts.2.w2
Linear(in_features=6400, out_features=4096, bias=False)
model.layers.26.block_sparse_moe.experts.2.w3
Linear(in_features=4096, out_features=6400, bias=False)
model.layers.26.block_sparse_moe.experts.2.act_fn
SiLU()
model.layers.26.block_sparse_moe.experts.6
PhiMoEBlockSparseTop2MLP(
  (w1): Linear(in_features=4096, out_features=6400, bias=False)
  (w2): Linear(in_features=6400, out_features=4096, bias=False)
  (w3): Linear(in_features=4096, out_features=6400, bias=False)
  (act_fn): SiLU()
)
model.layers.26.block_sparse_moe.experts.6.w1
Linear(in_features=4096, out_features=6400, bias=False)
model.layers.26.block_sparse_moe.experts.6.w2
Linear(in_features=6400, out_features=4096, bias=False)
model.layers.26.block_sparse_moe.experts.6.w3
Linear(in_features=4096, out_features=6400, bias=False)
model.layers.26.block_sparse_moe.experts.6.act_fn
SiLU()
model.layers.26.input_layernorm
LayerNorm((4096,), eps=1e-05, elementwise_affine=True)
model.layers.26.post_attention_layernorm
LayerNorm((4096,), eps=1e-05, elementwise_affine=True)
model.layers.27
PhiMoEDecoderLayer(
  (self_attn): PhiMoESdpaAttention(
    (q_proj): Linear(in_features=4096, out_features=4096, bias=True)
    (k_proj): Linear(in_features=4096, out_features=1024, bias=True)
    (v_proj): Linear(in_features=4096, out_features=1024, bias=True)
    (o_proj): Linear(in_features=4096, out_features=4096, bias=True)
    (rotary_emb): Phi3LongRoPEScaledRotaryEmbedding()
  )
  (block_sparse_moe): PhiMoESparseMoeBlock(
    (gate): Linear(in_features=4096, out_features=16, bias=False)
    (experts): ModuleList(
      (0-15): 16 x PhiMoEBlockSparseTop2MLP(
        (w1): Linear(in_features=4096, out_features=6400, bias=False)
        (w2): Linear(in_features=6400, out_features=4096, bias=False)
        (w3): Linear(in_features=4096, out_features=6400, bias=False)
        (act_fn): SiLU()
      )
    )
  )
  (input_layernorm): LayerNorm((4096,), eps=1e-05, elementwise_affine=True)
  (post_attention_layernorm): LayerNorm((4096,), eps=1e-05, elementwise_affine=True)
)
model.layers.27.self_attn
PhiMoESdpaAttention(
  (q_proj): Linear(in_features=4096, out_features=4096, bias=True)
  (k_proj): Linear(in_features=4096, out_features=1024, bias=True)
  (v_proj): Linear(in_features=4096, out_features=1024, bias=True)
  (o_proj): Linear(in_features=4096, out_features=4096, bias=True)
  (rotary_emb): Phi3LongRoPEScaledRotaryEmbedding()
)
model.layers.27.self_attn.q_proj
Linear(in_features=4096, out_features=4096, bias=True)
model.layers.27.self_attn.k_proj
Linear(in_features=4096, out_features=1024, bias=True)
model.layers.27.self_attn.v_proj
Linear(in_features=4096, out_features=1024, bias=True)
model.layers.27.self_attn.o_proj
Linear(in_features=4096, out_features=4096, bias=True)
model.layers.27.self_attn.rotary_emb
Phi3LongRoPEScaledRotaryEmbedding()
model.layers.27.block_sparse_moe
PhiMoESparseMoeBlock(
  (gate): Linear(in_features=4096, out_features=16, bias=False)
  (experts): ModuleList(
    (0-15): 16 x PhiMoEBlockSparseTop2MLP(
      (w1): Linear(in_features=4096, out_features=6400, bias=False)
      (w2): Linear(in_features=6400, out_features=4096, bias=False)
      (w3): Linear(in_features=4096, out_features=6400, bias=False)
      (act_fn): SiLU()
    )
  )
)
model.layers.27.block_sparse_moe.gate
Linear(in_features=4096, out_features=16, bias=False)
model.layers.27.block_sparse_moe.experts
ModuleList(
  (0-15): 16 x PhiMoEBlockSparseTop2MLP(
    (w1): Linear(in_features=4096, out_features=6400, bias=False)
    (w2): Linear(in_features=6400, out_features=4096, bias=False)
    (w3): Linear(in_features=4096, out_features=6400, bias=False)
    (act_fn): SiLU()
  )
)
model.layers.27.block_sparse_moe.experts.0
PhiMoEBlockSparseTop2MLP(
  (w1): Linear(in_features=4096, out_features=6400, bias=False)
  (w2): Linear(in_features=6400, out_features=4096, bias=False)
  (w3): Linear(in_features=4096, out_features=6400, bias=False)
  (act_fn): SiLU()
)
model.layers.27.block_sparse_moe.experts.0.w1
Linear(in_features=4096, out_features=6400, bias=False)
model.layers.27.block_sparse_moe.experts.0.w2
Linear(in_features=6400, out_features=4096, bias=False)
model.layers.27.block_sparse_moe.experts.0.w3
Linear(in_features=4096, out_features=6400, bias=False)
model.layers.27.block_sparse_moe.experts.0.act_fn
SiLU()
model.layers.27.block_sparse_moe.experts.2
PhiMoEBlockSparseTop2MLP(
  (w1): Linear(in_features=4096, out_features=6400, bias=False)
  (w2): Linear(in_features=6400, out_features=4096, bias=False)
  (w3): Linear(in_features=4096, out_features=6400, bias=False)
  (act_fn): SiLU()
)
model.layers.27.block_sparse_moe.experts.2.w1
Linear(in_features=4096, out_features=6400, bias=False)
model.layers.27.block_sparse_moe.experts.2.w2
Linear(in_features=6400, out_features=4096, bias=False)
model.layers.27.block_sparse_moe.experts.2.w3
Linear(in_features=4096, out_features=6400, bias=False)
model.layers.27.block_sparse_moe.experts.2.act_fn
SiLU()
model.layers.27.block_sparse_moe.experts.3
PhiMoEBlockSparseTop2MLP(
  (w1): Linear(in_features=4096, out_features=6400, bias=False)
  (w2): Linear(in_features=6400, out_features=4096, bias=False)
  (w3): Linear(in_features=4096, out_features=6400, bias=False)
  (act_fn): SiLU()
)
model.layers.27.block_sparse_moe.experts.3.w1
Linear(in_features=4096, out_features=6400, bias=False)
model.layers.27.block_sparse_moe.experts.3.w2
Linear(in_features=6400, out_features=4096, bias=False)
model.layers.27.block_sparse_moe.experts.3.w3
Linear(in_features=4096, out_features=6400, bias=False)
model.layers.27.block_sparse_moe.experts.3.act_fn
SiLU()
model.layers.27.input_layernorm
LayerNorm((4096,), eps=1e-05, elementwise_affine=True)
model.layers.27.post_attention_layernorm
LayerNorm((4096,), eps=1e-05, elementwise_affine=True)
model.layers.28
PhiMoEDecoderLayer(
  (self_attn): PhiMoESdpaAttention(
    (q_proj): Linear(in_features=4096, out_features=4096, bias=True)
    (k_proj): Linear(in_features=4096, out_features=1024, bias=True)
    (v_proj): Linear(in_features=4096, out_features=1024, bias=True)
    (o_proj): Linear(in_features=4096, out_features=4096, bias=True)
    (rotary_emb): Phi3LongRoPEScaledRotaryEmbedding()
  )
  (block_sparse_moe): PhiMoESparseMoeBlock(
    (gate): Linear(in_features=4096, out_features=16, bias=False)
    (experts): ModuleList(
      (0-15): 16 x PhiMoEBlockSparseTop2MLP(
        (w1): Linear(in_features=4096, out_features=6400, bias=False)
        (w2): Linear(in_features=6400, out_features=4096, bias=False)
        (w3): Linear(in_features=4096, out_features=6400, bias=False)
        (act_fn): SiLU()
      )
    )
  )
  (input_layernorm): LayerNorm((4096,), eps=1e-05, elementwise_affine=True)
  (post_attention_layernorm): LayerNorm((4096,), eps=1e-05, elementwise_affine=True)
)
model.layers.28.self_attn
PhiMoESdpaAttention(
  (q_proj): Linear(in_features=4096, out_features=4096, bias=True)
  (k_proj): Linear(in_features=4096, out_features=1024, bias=True)
  (v_proj): Linear(in_features=4096, out_features=1024, bias=True)
  (o_proj): Linear(in_features=4096, out_features=4096, bias=True)
  (rotary_emb): Phi3LongRoPEScaledRotaryEmbedding()
)
model.layers.28.self_attn.q_proj
Linear(in_features=4096, out_features=4096, bias=True)
model.layers.28.self_attn.k_proj
Linear(in_features=4096, out_features=1024, bias=True)
model.layers.28.self_attn.v_proj
Linear(in_features=4096, out_features=1024, bias=True)
model.layers.28.self_attn.o_proj
Linear(in_features=4096, out_features=4096, bias=True)
model.layers.28.self_attn.rotary_emb
Phi3LongRoPEScaledRotaryEmbedding()
model.layers.28.block_sparse_moe
PhiMoESparseMoeBlock(
  (gate): Linear(in_features=4096, out_features=16, bias=False)
  (experts): ModuleList(
    (0-15): 16 x PhiMoEBlockSparseTop2MLP(
      (w1): Linear(in_features=4096, out_features=6400, bias=False)
      (w2): Linear(in_features=6400, out_features=4096, bias=False)
      (w3): Linear(in_features=4096, out_features=6400, bias=False)
      (act_fn): SiLU()
    )
  )
)
model.layers.28.block_sparse_moe.gate
Linear(in_features=4096, out_features=16, bias=False)
model.layers.28.block_sparse_moe.experts
ModuleList(
  (0-15): 16 x PhiMoEBlockSparseTop2MLP(
    (w1): Linear(in_features=4096, out_features=6400, bias=False)
    (w2): Linear(in_features=6400, out_features=4096, bias=False)
    (w3): Linear(in_features=4096, out_features=6400, bias=False)
    (act_fn): SiLU()
  )
)
model.layers.28.block_sparse_moe.experts.0
PhiMoEBlockSparseTop2MLP(
  (w1): Linear(in_features=4096, out_features=6400, bias=False)
  (w2): Linear(in_features=6400, out_features=4096, bias=False)
  (w3): Linear(in_features=4096, out_features=6400, bias=False)
  (act_fn): SiLU()
)
model.layers.28.block_sparse_moe.experts.0.w1
Linear(in_features=4096, out_features=6400, bias=False)
model.layers.28.block_sparse_moe.experts.0.w2
Linear(in_features=6400, out_features=4096, bias=False)
model.layers.28.block_sparse_moe.experts.0.w3
Linear(in_features=4096, out_features=6400, bias=False)
model.layers.28.block_sparse_moe.experts.0.act_fn
SiLU()
model.layers.28.block_sparse_moe.experts.1
PhiMoEBlockSparseTop2MLP(
  (w1): Linear(in_features=4096, out_features=6400, bias=False)
  (w2): Linear(in_features=6400, out_features=4096, bias=False)
  (w3): Linear(in_features=4096, out_features=6400, bias=False)
  (act_fn): SiLU()
)
model.layers.28.block_sparse_moe.experts.1.w1
Linear(in_features=4096, out_features=6400, bias=False)
model.layers.28.block_sparse_moe.experts.1.w2
Linear(in_features=6400, out_features=4096, bias=False)
model.layers.28.block_sparse_moe.experts.1.w3
Linear(in_features=4096, out_features=6400, bias=False)
model.layers.28.block_sparse_moe.experts.1.act_fn
SiLU()
model.layers.28.block_sparse_moe.experts.3
PhiMoEBlockSparseTop2MLP(
  (w1): Linear(in_features=4096, out_features=6400, bias=False)
  (w2): Linear(in_features=6400, out_features=4096, bias=False)
  (w3): Linear(in_features=4096, out_features=6400, bias=False)
  (act_fn): SiLU()
)
model.layers.28.block_sparse_moe.experts.3.w1
Linear(in_features=4096, out_features=6400, bias=False)
model.layers.28.block_sparse_moe.experts.3.w2
Linear(in_features=6400, out_features=4096, bias=False)
model.layers.28.block_sparse_moe.experts.3.w3
Linear(in_features=4096, out_features=6400, bias=False)
model.layers.28.block_sparse_moe.experts.3.act_fn
SiLU()
model.layers.28.input_layernorm
LayerNorm((4096,), eps=1e-05, elementwise_affine=True)
model.layers.28.post_attention_layernorm
LayerNorm((4096,), eps=1e-05, elementwise_affine=True)
model.layers.29
PhiMoEDecoderLayer(
  (self_attn): PhiMoESdpaAttention(
    (q_proj): Linear(in_features=4096, out_features=4096, bias=True)
    (k_proj): Linear(in_features=4096, out_features=1024, bias=True)
    (v_proj): Linear(in_features=4096, out_features=1024, bias=True)
    (o_proj): Linear(in_features=4096, out_features=4096, bias=True)
    (rotary_emb): Phi3LongRoPEScaledRotaryEmbedding()
  )
  (block_sparse_moe): PhiMoESparseMoeBlock(
    (gate): Linear(in_features=4096, out_features=16, bias=False)
    (experts): ModuleList(
      (0-15): 16 x PhiMoEBlockSparseTop2MLP(
        (w1): Linear(in_features=4096, out_features=6400, bias=False)
        (w2): Linear(in_features=6400, out_features=4096, bias=False)
        (w3): Linear(in_features=4096, out_features=6400, bias=False)
        (act_fn): SiLU()
      )
    )
  )
  (input_layernorm): LayerNorm((4096,), eps=1e-05, elementwise_affine=True)
  (post_attention_layernorm): LayerNorm((4096,), eps=1e-05, elementwise_affine=True)
)
model.layers.29.self_attn
PhiMoESdpaAttention(
  (q_proj): Linear(in_features=4096, out_features=4096, bias=True)
  (k_proj): Linear(in_features=4096, out_features=1024, bias=True)
  (v_proj): Linear(in_features=4096, out_features=1024, bias=True)
  (o_proj): Linear(in_features=4096, out_features=4096, bias=True)
  (rotary_emb): Phi3LongRoPEScaledRotaryEmbedding()
)
model.layers.29.self_attn.q_proj
Linear(in_features=4096, out_features=4096, bias=True)
model.layers.29.self_attn.k_proj
Linear(in_features=4096, out_features=1024, bias=True)
model.layers.29.self_attn.v_proj
Linear(in_features=4096, out_features=1024, bias=True)
model.layers.29.self_attn.o_proj
Linear(in_features=4096, out_features=4096, bias=True)
model.layers.29.self_attn.rotary_emb
Phi3LongRoPEScaledRotaryEmbedding()
model.layers.29.block_sparse_moe
PhiMoESparseMoeBlock(
  (gate): Linear(in_features=4096, out_features=16, bias=False)
  (experts): ModuleList(
    (0-15): 16 x PhiMoEBlockSparseTop2MLP(
      (w1): Linear(in_features=4096, out_features=6400, bias=False)
      (w2): Linear(in_features=6400, out_features=4096, bias=False)
      (w3): Linear(in_features=4096, out_features=6400, bias=False)
      (act_fn): SiLU()
    )
  )
)
model.layers.29.block_sparse_moe.gate
Linear(in_features=4096, out_features=16, bias=False)
model.layers.29.block_sparse_moe.experts
ModuleList(
  (0-15): 16 x PhiMoEBlockSparseTop2MLP(
    (w1): Linear(in_features=4096, out_features=6400, bias=False)
    (w2): Linear(in_features=6400, out_features=4096, bias=False)
    (w3): Linear(in_features=4096, out_features=6400, bias=False)
    (act_fn): SiLU()
  )
)
model.layers.29.block_sparse_moe.experts.0
PhiMoEBlockSparseTop2MLP(
  (w1): Linear(in_features=4096, out_features=6400, bias=False)
  (w2): Linear(in_features=6400, out_features=4096, bias=False)
  (w3): Linear(in_features=4096, out_features=6400, bias=False)
  (act_fn): SiLU()
)
model.layers.29.block_sparse_moe.experts.0.w1
Linear(in_features=4096, out_features=6400, bias=False)
model.layers.29.block_sparse_moe.experts.0.w2
Linear(in_features=6400, out_features=4096, bias=False)
model.layers.29.block_sparse_moe.experts.0.w3
Linear(in_features=4096, out_features=6400, bias=False)
model.layers.29.block_sparse_moe.experts.0.act_fn
SiLU()
model.layers.29.block_sparse_moe.experts.1
PhiMoEBlockSparseTop2MLP(
  (w1): Linear(in_features=4096, out_features=6400, bias=False)
  (w2): Linear(in_features=6400, out_features=4096, bias=False)
  (w3): Linear(in_features=4096, out_features=6400, bias=False)
  (act_fn): SiLU()
)
model.layers.29.block_sparse_moe.experts.1.w1
Linear(in_features=4096, out_features=6400, bias=False)
model.layers.29.block_sparse_moe.experts.1.w2
Linear(in_features=6400, out_features=4096, bias=False)
model.layers.29.block_sparse_moe.experts.1.w3
Linear(in_features=4096, out_features=6400, bias=False)
model.layers.29.block_sparse_moe.experts.1.act_fn
SiLU()
model.layers.29.block_sparse_moe.experts.4
PhiMoEBlockSparseTop2MLP(
  (w1): Linear(in_features=4096, out_features=6400, bias=False)
  (w2): Linear(in_features=6400, out_features=4096, bias=False)
  (w3): Linear(in_features=4096, out_features=6400, bias=False)
  (act_fn): SiLU()
)
model.layers.29.block_sparse_moe.experts.4.w1
Linear(in_features=4096, out_features=6400, bias=False)
model.layers.29.block_sparse_moe.experts.4.w2
Linear(in_features=6400, out_features=4096, bias=False)
model.layers.29.block_sparse_moe.experts.4.w3
Linear(in_features=4096, out_features=6400, bias=False)
model.layers.29.block_sparse_moe.experts.4.act_fn
SiLU()
model.layers.29.block_sparse_moe.experts.11
PhiMoEBlockSparseTop2MLP(
  (w1): Linear(in_features=4096, out_features=6400, bias=False)
  (w2): Linear(in_features=6400, out_features=4096, bias=False)
  (w3): Linear(in_features=4096, out_features=6400, bias=False)
  (act_fn): SiLU()
)
model.layers.29.block_sparse_moe.experts.11.w1
Linear(in_features=4096, out_features=6400, bias=False)
model.layers.29.block_sparse_moe.experts.11.w2
Linear(in_features=6400, out_features=4096, bias=False)
model.layers.29.block_sparse_moe.experts.11.w3
Linear(in_features=4096, out_features=6400, bias=False)
model.layers.29.block_sparse_moe.experts.11.act_fn
SiLU()
model.layers.29.input_layernorm
LayerNorm((4096,), eps=1e-05, elementwise_affine=True)
model.layers.29.post_attention_layernorm
LayerNorm((4096,), eps=1e-05, elementwise_affine=True)
model.layers.30
PhiMoEDecoderLayer(
  (self_attn): PhiMoESdpaAttention(
    (q_proj): Linear(in_features=4096, out_features=4096, bias=True)
    (k_proj): Linear(in_features=4096, out_features=1024, bias=True)
    (v_proj): Linear(in_features=4096, out_features=1024, bias=True)
    (o_proj): Linear(in_features=4096, out_features=4096, bias=True)
    (rotary_emb): Phi3LongRoPEScaledRotaryEmbedding()
  )
  (block_sparse_moe): PhiMoESparseMoeBlock(
    (gate): Linear(in_features=4096, out_features=16, bias=False)
    (experts): ModuleList(
      (0-15): 16 x PhiMoEBlockSparseTop2MLP(
        (w1): Linear(in_features=4096, out_features=6400, bias=False)
        (w2): Linear(in_features=6400, out_features=4096, bias=False)
        (w3): Linear(in_features=4096, out_features=6400, bias=False)
        (act_fn): SiLU()
      )
    )
  )
  (input_layernorm): LayerNorm((4096,), eps=1e-05, elementwise_affine=True)
  (post_attention_layernorm): LayerNorm((4096,), eps=1e-05, elementwise_affine=True)
)
model.layers.30.self_attn
PhiMoESdpaAttention(
  (q_proj): Linear(in_features=4096, out_features=4096, bias=True)
  (k_proj): Linear(in_features=4096, out_features=1024, bias=True)
  (v_proj): Linear(in_features=4096, out_features=1024, bias=True)
  (o_proj): Linear(in_features=4096, out_features=4096, bias=True)
  (rotary_emb): Phi3LongRoPEScaledRotaryEmbedding()
)
model.layers.30.self_attn.q_proj
Linear(in_features=4096, out_features=4096, bias=True)
model.layers.30.self_attn.k_proj
Linear(in_features=4096, out_features=1024, bias=True)
model.layers.30.self_attn.v_proj
Linear(in_features=4096, out_features=1024, bias=True)
model.layers.30.self_attn.o_proj
Linear(in_features=4096, out_features=4096, bias=True)
model.layers.30.self_attn.rotary_emb
Phi3LongRoPEScaledRotaryEmbedding()
model.layers.30.block_sparse_moe
PhiMoESparseMoeBlock(
  (gate): Linear(in_features=4096, out_features=16, bias=False)
  (experts): ModuleList(
    (0-15): 16 x PhiMoEBlockSparseTop2MLP(
      (w1): Linear(in_features=4096, out_features=6400, bias=False)
      (w2): Linear(in_features=6400, out_features=4096, bias=False)
      (w3): Linear(in_features=4096, out_features=6400, bias=False)
      (act_fn): SiLU()
    )
  )
)
model.layers.30.block_sparse_moe.gate
Linear(in_features=4096, out_features=16, bias=False)
model.layers.30.block_sparse_moe.experts
ModuleList(
  (0-15): 16 x PhiMoEBlockSparseTop2MLP(
    (w1): Linear(in_features=4096, out_features=6400, bias=False)
    (w2): Linear(in_features=6400, out_features=4096, bias=False)
    (w3): Linear(in_features=4096, out_features=6400, bias=False)
    (act_fn): SiLU()
  )
)
model.layers.30.block_sparse_moe.experts.0
PhiMoEBlockSparseTop2MLP(
  (w1): Linear(in_features=4096, out_features=6400, bias=False)
  (w2): Linear(in_features=6400, out_features=4096, bias=False)
  (w3): Linear(in_features=4096, out_features=6400, bias=False)
  (act_fn): SiLU()
)
model.layers.30.block_sparse_moe.experts.0.w1
Linear(in_features=4096, out_features=6400, bias=False)
model.layers.30.block_sparse_moe.experts.0.w2
Linear(in_features=6400, out_features=4096, bias=False)
model.layers.30.block_sparse_moe.experts.0.w3
Linear(in_features=4096, out_features=6400, bias=False)
model.layers.30.block_sparse_moe.experts.0.act_fn
SiLU()
model.layers.30.block_sparse_moe.experts.1
PhiMoEBlockSparseTop2MLP(
  (w1): Linear(in_features=4096, out_features=6400, bias=False)
  (w2): Linear(in_features=6400, out_features=4096, bias=False)
  (w3): Linear(in_features=4096, out_features=6400, bias=False)
  (act_fn): SiLU()
)
model.layers.30.block_sparse_moe.experts.1.w1
Linear(in_features=4096, out_features=6400, bias=False)
model.layers.30.block_sparse_moe.experts.1.w2
Linear(in_features=6400, out_features=4096, bias=False)
model.layers.30.block_sparse_moe.experts.1.w3
Linear(in_features=4096, out_features=6400, bias=False)
model.layers.30.block_sparse_moe.experts.1.act_fn
SiLU()
model.layers.30.block_sparse_moe.experts.3
PhiMoEBlockSparseTop2MLP(
  (w1): Linear(in_features=4096, out_features=6400, bias=False)
  (w2): Linear(in_features=6400, out_features=4096, bias=False)
  (w3): Linear(in_features=4096, out_features=6400, bias=False)
  (act_fn): SiLU()
)
model.layers.30.block_sparse_moe.experts.3.w1
Linear(in_features=4096, out_features=6400, bias=False)
model.layers.30.block_sparse_moe.experts.3.w2
Linear(in_features=6400, out_features=4096, bias=False)
model.layers.30.block_sparse_moe.experts.3.w3
Linear(in_features=4096, out_features=6400, bias=False)
model.layers.30.block_sparse_moe.experts.3.act_fn
…
2025-01-08:16:22:07,830 WARNING  [load.py:1569] Using the latest cached version of the module from /root/autodl-tmp/huggingface/modules/datasets_modules/datasets/hails--mmlu_no_train/6e75f77a579ee4ce0a66d822aa8a2660c81c6c5b49d1a3489f5a787e37886aa9 (last modified on Tue Jan  7 01:08:17 2025) since it couldn't be found locally at hails/mmlu_no_train, or remotely on the Hugging Face Hub.
2025-01-08:16:22:07,897 WARNING  [evaluator.py:270] Overwriting default num_fewshot of mmlu_formal_logic from None to 5
2025-01-08:16:22:07,897 INFO     [task.py:415] Building contexts for mmlu_formal_logic on rank 0...
PhiMoEBlockSparseTop2MLP(
  (w1): Linear(in_features=4096, out_features=6400, bias=False)
  (w2): Linear(in_features=6400, out_features=4096, bias=False)
  (w3): Linear(in_features=4096, out_features=6400, bias=False)
  (act_fn): SiLU()
)
model.layers.30.block_sparse_moe.experts.5.w1
Linear(in_features=4096, out_features=6400, bias=False)
model.layers.30.block_sparse_moe.experts.5.w2
Linear(in_features=6400, out_features=4096, bias=False)
model.layers.30.block_sparse_moe.experts.5.w3
Linear(in_features=4096, out_features=6400, bias=False)
model.layers.30.block_sparse_moe.experts.5.act_fn
SiLU()
model.layers.30.input_layernorm
LayerNorm((4096,), eps=1e-05, elementwise_affine=True)
model.layers.30.post_attention_layernorm
LayerNorm((4096,), eps=1e-05, elementwise_affine=True)
model.layers.31
PhiMoEDecoderLayer(
  (self_attn): PhiMoESdpaAttention(
    (q_proj): Linear(in_features=4096, out_features=4096, bias=True)
    (k_proj): Linear(in_features=4096, out_features=1024, bias=True)
    (v_proj): Linear(in_features=4096, out_features=1024, bias=True)
    (o_proj): Linear(in_features=4096, out_features=4096, bias=True)
    (rotary_emb): Phi3LongRoPEScaledRotaryEmbedding()
  )
  (block_sparse_moe): PhiMoESparseMoeBlock(
    (gate): Linear(in_features=4096, out_features=16, bias=False)
    (experts): ModuleList(
      (0-15): 16 x PhiMoEBlockSparseTop2MLP(
        (w1): Linear(in_features=4096, out_features=6400, bias=False)
        (w2): Linear(in_features=6400, out_features=4096, bias=False)
        (w3): Linear(in_features=4096, out_features=6400, bias=False)
        (act_fn): SiLU()
      )
    )
  )
  (input_layernorm): LayerNorm((4096,), eps=1e-05, elementwise_affine=True)
  (post_attention_layernorm): LayerNorm((4096,), eps=1e-05, elementwise_affine=True)
)
model.layers.31.self_attn
PhiMoESdpaAttention(
  (q_proj): Linear(in_features=4096, out_features=4096, bias=True)
  (k_proj): Linear(in_features=4096, out_features=1024, bias=True)
  (v_proj): Linear(in_features=4096, out_features=1024, bias=True)
  (o_proj): Linear(in_features=4096, out_features=4096, bias=True)
  (rotary_emb): Phi3LongRoPEScaledRotaryEmbedding()
)
model.layers.31.self_attn.q_proj
Linear(in_features=4096, out_features=4096, bias=True)
model.layers.31.self_attn.k_proj
Linear(in_features=4096, out_features=1024, bias=True)
model.layers.31.self_attn.v_proj
Linear(in_features=4096, out_features=1024, bias=True)
model.layers.31.self_attn.o_proj
Linear(in_features=4096, out_features=4096, bias=True)
model.layers.31.self_attn.rotary_emb
Phi3LongRoPEScaledRotaryEmbedding()
model.layers.31.block_sparse_moe
PhiMoESparseMoeBlock(
  (gate): Linear(in_features=4096, out_features=16, bias=False)
  (experts): ModuleList(
    (0-15): 16 x PhiMoEBlockSparseTop2MLP(
      (w1): Linear(in_features=4096, out_features=6400, bias=False)
      (w2): Linear(in_features=6400, out_features=4096, bias=False)
      (w3): Linear(in_features=4096, out_features=6400, bias=False)
      (act_fn): SiLU()
    )
  )
)
model.layers.31.block_sparse_moe.gate
Linear(in_features=4096, out_features=16, bias=False)
model.layers.31.block_sparse_moe.experts
ModuleList(
  (0-15): 16 x PhiMoEBlockSparseTop2MLP(
    (w1): Linear(in_features=4096, out_features=6400, bias=False)
    (w2): Linear(in_features=6400, out_features=4096, bias=False)
    (w3): Linear(in_features=4096, out_features=6400, bias=False)
    (act_fn): SiLU()
  )
)
model.layers.31.block_sparse_moe.experts.0
PhiMoEBlockSparseTop2MLP(
  (w1): Linear(in_features=4096, out_features=6400, bias=False)
  (w2): Linear(in_features=6400, out_features=4096, bias=False)
  (w3): Linear(in_features=4096, out_features=6400, bias=False)
  (act_fn): SiLU()
)
model.layers.31.block_sparse_moe.experts.0.w1
Linear(in_features=4096, out_features=6400, bias=False)
model.layers.31.block_sparse_moe.experts.0.w2
Linear(in_features=6400, out_features=4096, bias=False)
model.layers.31.block_sparse_moe.experts.0.w3
Linear(in_features=4096, out_features=6400, bias=False)
model.layers.31.block_sparse_moe.experts.0.act_fn
SiLU()
model.layers.31.block_sparse_moe.experts.3
PhiMoEBlockSparseTop2MLP(
  (w1): Linear(in_features=4096, out_features=6400, bias=False)
  (w2): Linear(in_features=6400, out_features=4096, bias=False)
  (w3): Linear(in_features=4096, out_features=6400, bias=False)
  (act_fn): SiLU()
)
model.layers.31.block_sparse_moe.experts.3.w1
Linear(in_features=4096, out_features=6400, bias=False)
model.layers.31.block_sparse_moe.experts.3.w2
Linear(in_features=6400, out_features=4096, bias=False)
model.layers.31.block_sparse_moe.experts.3.w3
Linear(in_features=4096, out_features=6400, bias=False)
model.layers.31.block_sparse_moe.experts.3.act_fn
SiLU()
model.layers.31.block_sparse_moe.experts.4
PhiMoEBlockSparseTop2MLP(
  (w1): Linear(in_features=4096, out_features=6400, bias=False)
  (w2): Linear(in_features=6400, out_features=4096, bias=False)
  (w3): Linear(in_features=4096, out_features=6400, bias=False)
  (act_fn): SiLU()
)
model.layers.31.block_sparse_moe.experts.4.w1
Linear(in_features=4096, out_features=6400, bias=False)
model.layers.31.block_sparse_moe.experts.4.w2
Linear(in_features=6400, out_features=4096, bias=False)
model.layers.31.block_sparse_moe.experts.4.w3
Linear(in_features=4096, out_features=6400, bias=False)
model.layers.31.block_sparse_moe.experts.4.act_fn
SiLU()
model.layers.31.block_sparse_moe.experts.6
PhiMoEBlockSparseTop2MLP(
  (w1): Linear(in_features=4096, out_features=6400, bias=False)
  (w2): Linear(in_features=6400, out_features=4096, bias=False)
  (w3): Linear(in_features=4096, out_features=6400, bias=False)
  (act_fn): SiLU()
)
model.layers.31.block_sparse_moe.experts.6.w1
Linear(in_features=4096, out_features=6400, bias=False)
model.layers.31.block_sparse_moe.experts.6.w2
Linear(in_features=6400, out_features=4096, bias=False)
model.layers.31.block_sparse_moe.experts.6.w3
Linear(in_features=4096, out_features=6400, bias=False)
model.layers.31.block_sparse_moe.experts.6.act_fn
…
