…
:03<00:16,  1.19s/it]Loading checkpoint shards:  24%|█████████████▍                                           | 4/17 [00:04<00:15,  1.20s/it]Loading checkpoint shards:  29%|████████████████▊                                        | 5/17 [00:05<00:10,  1.11it/s]Loading checkpoint shards: 100%|████████████████████████████████████████████████████████| 17/17 [00:05<00:00,  3.30it/s]
2025-01-07:16:32:45,969 WARNING  [big_modeling.py:440] Some parameters are on the meta device because they were offloaded to the disk.
all_gate number:32

PhiMoEForCausalLM(
  (model): PhiMoEModel(
    (embed_tokens): Embedding(32064, 4096)
    (layers): ModuleList(
      (0-31): 32 x PhiMoEDecoderLayer(
        (self_attn): PhiMoESdpaAttention(
          (q_proj): Linear(in_features=4096, out_features=4096, bias=True)
          (k_proj): Linear(in_features=4096, out_features=1024, bias=True)
          (v_proj): Linear(in_features=4096, out_features=1024, bias=True)
          (o_proj): Linear(in_features=4096, out_features=4096, bias=True)
          (rotary_emb): Phi3LongRoPEScaledRotaryEmbedding()
        )
        (block_sparse_moe): PhiMoESparseMoeBlock(
          (gate): Linear(in_features=4096, out_features=16, bias=False)
          (experts): ModuleList(
            (0-15): 16 x PhiMoEBlockSparseTop2MLP(
              (w1): Linear(in_features=4096, out_features=6400, bias=False)
              (w2): Linear(in_features=6400, out_features=4096, bias=False)
              (w3): Linear(in_features=4096, out_features=6400, bias=False)
              (act_fn): SiLU()
            )
          )
        )
        (input_layernorm): LayerNorm((4096,), eps=1e-05, elementwise_affine=True)
        (post_attention_layernorm): LayerNorm((4096,), eps=1e-05, elementwise_affine=True)
      )
    )
    (norm): LayerNorm((4096,), eps=1e-05, elementwise_affine=True)
  )
  (lm_head): Linear(in_features=4096, out_features=32064, bias=True)
)
model
PhiMoEModel(
  (embed_tokens): Embedding(32064, 4096)
  (layers): ModuleList(
    (0-31): 32 x PhiMoEDecoderLayer(
      (self_attn): PhiMoESdpaAttention(
        (q_proj): Linear(in_features=4096, out_features=4096, bias=True)
        (k_proj): Linear(in_features=4096, out_features=1024, bias=True)
        (v_proj): Linear(in_features=4096, out_features=1024, bias=True)
        (o_proj): Linear(in_features=4096, out_features=4096, bias=True)
        (rotary_emb): Phi3LongRoPEScaledRotaryEmbedding()
      )
      (block_sparse_moe): PhiMoESparseMoeBlock(
        (gate): Linear(in_features=4096, out_features=16, bias=False)
        (experts): ModuleList(
          (0-15): 16 x PhiMoEBlockSparseTop2MLP(
            (w1): Linear(in_features=4096, out_features=6400, bias=False)
            (w2): Linear(in_features=6400, out_features=4096, bias=False)
            (w3): Linear(in_features=4096, out_features=6400, bias=False)
            (act_fn): SiLU()
          )
        )
      )
      (input_layernorm): LayerNorm((4096,), eps=1e-05, elementwise_affine=True)
      (post_attention_layernorm): LayerNorm((4096,), eps=1e-05, elementwise_affine=True)
    )
  )
  (norm): LayerNorm((4096,), eps=1e-05, elementwise_affine=True)
)
model.embed_tokens
Embedding(32064, 4096)
model.layers
ModuleList(
  (0-31): 32 x PhiMoEDecoderLayer(
    (self_attn): PhiMoESdpaAttention(
      (q_proj): Linear(in_features=4096, out_features=4096, bias=True)
      (k_proj): Linear(in_features=4096, out_features=1024, bias=True)
      (v_proj): Linear(in_features=4096, out_features=1024, bias=True)
      (o_proj): Linear(in_features=4096, out_features=4096, bias=True)
      (rotary_emb): Phi3LongRoPEScaledRotaryEmbedding()
    )
    (block_sparse_moe): PhiMoESparseMoeBlock(
      (gate): Linear(in_features=4096, out_features=16, bias=False)
      (experts): ModuleList(
        (0-15): 16 x PhiMoEBlockSparseTop2MLP(
          (w1): Linear(in_features=4096, out_features=6400, bias=False)
          (w2): Linear(in_features=6400, out_features=4096, bias=False)
          (w3): Linear(in_features=4096, out_features=6400, bias=False)
          (act_fn): SiLU()
        )
      )
    )
    (input_layernorm): LayerNorm((4096,), eps=1e-05, elementwise_affine=True)
    (post_attention_layernorm): LayerNorm((4096,), eps=1e-05, elementwise_affine=True)
  )
)
model.layers.0
PhiMoEDecoderLayer(
  (self_attn): PhiMoESdpaAttention(
    (q_proj): Linear(in_features=4096, out_features=4096, bias=True)
    (k_proj): Linear(in_features=4096, out_features=1024, bias=True)
    (v_proj): Linear(in_features=4096, out_features=1024, bias=True)
    (o_proj): Linear(in_features=4096, out_features=4096, bias=True)
    (rotary_emb): Phi3LongRoPEScaledRotaryEmbedding()
  )
  (block_sparse_moe): PhiMoESparseMoeBlock(
    (gate): Linear(in_features=4096, out_features=16, bias=False)
    (experts): ModuleList(
      (0-15): 16 x PhiMoEBlockSparseTop2MLP(
        (w1): Linear(in_features=4096, out_features=6400, bias=False)
        (w2): Linear(in_features=6400, out_features=4096, bias=False)
        (w3): Linear(in_features=4096, out_features=6400, bias=False)
        (act_fn): SiLU()
      )
    )
  )
  (input_layernorm): LayerNorm((4096,), eps=1e-05, elementwise_affine=True)
  (post_attention_layernorm): LayerNorm((4096,), eps=1e-05, elementwise_affine=True)
)
model.layers.0.self_attn
PhiMoESdpaAttention(
  (q_proj): Linear(in_features=4096, out_features=4096, bias=True)
  (k_proj): Linear(in_features=4096, out_features=1024, bias=True)
  (v_proj): Linear(in_features=4096, out_features=1024, bias=True)
  (o_proj): Linear(in_features=4096, out_features=4096, bias=True)
  (rotary_emb): Phi3LongRoPEScaledRotaryEmbedding()
)
model.layers.0.self_attn.q_proj
Linear(in_features=4096, out_features=4096, bias=True)
model.layers.0.self_attn.k_proj
Linear(in_features=4096, out_features=1024, bias=True)
model.layers.0.self_attn.v_proj
Linear(in_features=4096, out_features=1024, bias=True)
model.layers.0.self_attn.o_proj
Linear(in_features=4096, out_features=4096, bias=True)
model.layers.0.self_attn.rotary_emb
Phi3LongRoPEScaledRotaryEmbedding()
model.layers.0.block_sparse_moe
PhiMoESparseMoeBlock(
  (gate): Linear(in_features=4096, out_features=16, bias=False)
  (experts): ModuleList(
    (0-15): 16 x PhiMoEBlockSparseTop2MLP(
      (w1): Linear(in_features=4096, out_features=6400, bias=False)
      (w2): Linear(in_features=6400, out_features=4096, bias=False)
      (w3): Linear(in_features=4096, out_features=6400, bias=False)
      (act_fn): SiLU()
    )
  )
)
model.layers.0.block_sparse_moe.gate
Linear(in_features=4096, out_features=16, bias=False)
model.layers.0.block_sparse_moe.experts
ModuleList(
  (0-15): 16 x PhiMoEBlockSparseTop2MLP(
    (w1): Linear(in_features=4096, out_features=6400, bias=False)
    (w2): Linear(in_features=6400, out_features=4096, bias=False)
    (w3): Linear(in_features=4096, out_features=6400, bias=False)
    (act_fn): SiLU()
  )
)
model.layers.0.block_sparse_moe.experts.0
PhiMoEBlockSparseTop2MLP(
  (w1): Linear(in_features=4096, out_features=6400, bias=False)
  (w2): Linear(in_features=6400, out_features=4096, bias=False)
  (w3): Linear(in_features=4096, out_features=6400, bias=False)
  (act_fn): SiLU()
)
model.layers.0.block_sparse_moe.experts.0.w1
Linear(in_features=4096, out_features=6400, bias=False)
model.layers.0.block_sparse_moe.experts.0.w2
Linear(in_features=6400, out_features=4096, bias=False)
model.layers.0.block_sparse_moe.experts.0.w3
Linear(in_features=4096, out_features=6400, bias=False)
model.layers.0.block_sparse_moe.experts.0.act_fn
SiLU()
model.layers.0.block_sparse_moe.experts.1
PhiMoEBlockSparseTop2MLP(
  (w1): Linear(in_features=4096, out_features=6400, bias=False)
  (w2): Linear(in_features=6400, out_features=4096, bias=False)
  (w3): Linear(in_features=4096, out_features=6400, bias=False)
  (act_fn): SiLU()
)
model.layers.0.block_sparse_moe.experts.1.w1
Linear(in_features=4096, out_features=6400, bias=False)
model.layers.0.block_sparse_moe.experts.1.w2
Linear(in_features=6400, out_features=4096, bias=False)
model.layers.0.block_sparse_moe.experts.1.w3
Linear(in_features=4096, out_features=6400, bias=False)
model.layers.0.block_sparse_moe.experts.1.act_fn
SiLU()
model.layers.0.block_sparse_moe.experts.2
PhiMoEBlockSparseTop2MLP(
  (w1): Linear(in_features=4096, out_features=6400, bias=False)
  (w2): Linear(in_features=6400, out_features=4096, bias=False)
  (w3): Linear(in_features=4096, out_features=6400, bias=False)
  (act_fn): SiLU()
)
model.layers.0.block_sparse_moe.experts.2.w1
Linear(in_features=4096, out_features=6400, bias=False)
model.layers.0.block_sparse_moe.experts.2.w2
Linear(in_features=6400, out_features=4096, bias=False)
model.layers.0.block_sparse_moe.experts.2.w3
Linear(in_features=4096, out_features=6400, bias=False)
model.layers.0.block_sparse_moe.experts.2.act_fn
SiLU()
model.layers.0.block_sparse_moe.experts.3
PhiMoEBlockSparseTop2MLP(
  (w1): Linear(in_features=4096, out_features=6400, bias=False)
  (w2): Linear(in_features=6400, out_features=4096, bias=False)
  (w3): Linear(in_features=4096, out_features=6400, bias=False)
  (act_fn): SiLU()
)
model.layers.0.block_sparse_moe.experts.3.w1
Linear(in_features=4096, out_features=6400, bias=False)
model.layers.0.block_sparse_moe.experts.3.w2
Linear(in_features=6400, out_features=4096, bias=False)
model.layers.0.block_sparse_moe.experts.3.w3
Linear(in_features=4096, out_features=6400, bias=False)
model.layers.0.block_sparse_moe.experts.3.act_fn
SiLU()
model.layers.0.block_sparse_moe.experts.4
PhiMoEBlockSparseTop2MLP(
  (w1): Linear(in_features=4096, out_features=6400, bias=False)
  (w2): Linear(in_features=6400, out_features=4096, bias=False)
  (w3): Linear(in_features=4096, out_features=6400, bias=False)
  (act_fn): SiLU()
)
model.layers.0.block_sparse_moe.experts.4.w1
Linear(in_features=4096, out_features=6400, bias=False)
model.layers.0.block_sparse_moe.experts.4.w2
Linear(in_features=6400, out_features=4096, bias=False)
model.layers.0.block_sparse_moe.experts.4.w3
Linear(in_features=4096, out_features=6400, bias=False)
model.layers.0.block_sparse_moe.experts.4.act_fn
SiLU()
model.layers.0.block_sparse_moe.experts.5
PhiMoEBlockSparseTop2MLP(
  (w1): Linear(in_features=4096, out_features=6400, bias=False)
  (w2): Linear(in_features=6400, out_features=4096, bias=False)
  (w3): Linear(in_features=4096, out_features=6400, bias=False)
  (act_fn): SiLU()
)
model.layers.0.block_sparse_moe.experts.5.w1
Linear(in_features=4096, out_features=6400, bias=False)
model.layers.0.block_sparse_moe.experts.5.w2
Linear(in_features=6400, out_features=4096, bias=False)
model.layers.0.block_sparse_moe.experts.5.w3
Linear(in_features=4096, out_features=6400, bias=False)
model.layers.0.block_sparse_moe.experts.5.act_fn
SiLU()
model.layers.0.block_sparse_moe.experts.6
PhiMoEBlockSparseTop2MLP(
  (w1): Linear(in_features=4096, out_features=6400, bias=False)
  (w2): Linear(in_features=6400, out_features=4096, bias=False)
  (w3): Linear(in_features=4096, out_features=6400, bias=False)
  (act_fn): SiLU()
)
model.layers.0.block_sparse_moe.experts.6.w1
Linear(in_features=4096, out_features=6400, bias=False)
model.layers.0.block_sparse_moe.experts.6.w2
Linear(in_features=6400, out_features=4096, bias=False)
model.layers.0.block_sparse_moe.experts.6.w3
Linear(in_features=4096, out_features=6400, bias=False)
model.layers.0.block_sparse_moe.experts.6.act_fn
SiLU()
model.layers.0.block_sparse_moe.experts.7
PhiMoEBlockSparseTop2MLP(
  (w1): Linear(in_features=4096, out_features=6400, bias=False)
  (w2): Linear(in_features=6400, out_features=4096, bias=False)
  (w3): Linear(in_features=4096, out_features=6400, bias=False)
  (act_fn): SiLU()
)
model.layers.0.block_sparse_moe.experts.7.w1
Linear(in_features=4096, out_features=6400, bias=False)
model.layers.0.block_sparse_moe.experts.7.w2
Linear(in_features=6400, out_features=4096, bias=False)
model.layers.0.block_sparse_moe.experts.7.w3
Linear(in_features=4096, out_features=6400, bias=False)
model.layers.0.block_sparse_moe.experts.7.act_fn
SiLU()
model.layers.0.block_sparse_moe.experts.8
PhiMoEBlockSparseTop2MLP(
  (w1): Linear(in_features=4096, out_features=6400, bias=False)
  (w2): Linear(in_features=6400, out_features=4096, bias=False)
  (w3): Linear(in_features=4096, out_features=6400, bias=False)
  (act_fn): SiLU()
)
model.layers.0.block_sparse_moe.experts.8.w1
Linear(in_features=4096, out_features=6400, bias=False)
model.layers.0.block_sparse_moe.experts.8.w2
Linear(in_features=6400, out_features=4096, bias=False)
model.layers.0.block_sparse_moe.experts.8.w3
Linear(in_features=4096, out_features=6400, bias=False)
model.layers.0.block_sparse_moe.experts.8.act_fn
SiLU()
model.layers.0.block_sparse_moe.experts.9
PhiMoEBlockSparseTop2MLP(
  (w1): Linear(in_features=4096, out_features=6400, bias=False)
  (w2): Linear(in_features=6400, out_features=4096, bias=False)
  (w3): Linear(in_features=4096, out_features=6400, bias=False)
  (act_fn): SiLU()
)
model.layers.0.block_sparse_moe.experts.9.w1
Linear(in_features=4096, out_features=6400, bias=False)
model.layers.0.block_sparse_moe.experts.9.w2
Linear(in_features=6400, out_features=4096, bias=False)
model.layers.0.block_sparse_moe.experts.9.w3
Linear(in_features=4096, out_features=6400, bias=False)
model.layers.0.block_sparse_moe.experts.9.act_fn
SiLU()
model.layers.0.block_sparse_moe.experts.10
PhiMoEBlockSparseTop2MLP(
  (w1): Linear(in_features=4096, out_features=6400, bias=False)
  (w2): Linear(in_features=6400, out_features=4096, bias=False)
  (w3): Linear(in_features=4096, out_features=6400, bias=False)
  (act_fn): SiLU()
)
model.layers.0.block_sparse_moe.experts.10.w1
Linear(in_features=4096, out_features=6400, bias=False)
model.layers.0.block_sparse_moe.experts.10.w2
Linear(in_features=6400, out_features=4096, bias=False)
model.layers.0.block_sparse_moe.experts.10.w3
Linear(in_features=4096, out_features=6400, bias=False)
model.layers.0.block_sparse_moe.experts.10.act_fn
SiLU()
model.layers.0.block_sparse_moe.experts.11
PhiMoEBlockSparseTop2MLP(
  (w1): Linear(in_features=4096, out_features=6400, bias=False)
  (w2): Linear(in_features=6400, out_features=4096, bias=False)
  (w3): Linear(in_features=4096, out_features=6400, bias=False)
  (act_fn): SiLU()
)
model.layers.0.block_sparse_moe.experts.11.w1
Linear(in_features=4096, out_features=6400, bias=False)
model.layers.0.block_sparse_moe.experts.11.w2
Linear(in_features=6400, out_features=4096, bias=False)
model.layers.0.block_sparse_moe.experts.11.w3
Linear(in_features=4096, out_features=6400, bias=False)
model.layers.0.block_sparse_moe.experts.11.act_fn
SiLU()
model.layers.0.block_sparse_moe.experts.12
PhiMoEBlockSparseTop2MLP(
  (w1): Linear(in_features=4096, out_features=6400, bias=False)
  (w2): Linear(in_features=6400, out_features=4096, bias=False)
  (w3): Linear(in_features=4096, out_features=6400, bias=False)
  (act_fn): SiLU()
)
model.layers.0.block_sparse_moe.experts.12.w1
Linear(in_features=4096, out_features=6400, bias=False)
model.layers.0.block_sparse_moe.experts.12.w2
Linear(in_features=6400, out_features=4096, bias=False)
model.layers.0.block_sparse_moe.experts.12.w3
Linear(in_features=4096, out_features=6400, bias=False)
model.layers.0.block_sparse_moe.experts.12.act_fn
SiLU()
model.layers.0.block_sparse_moe.experts.13
PhiMoEBlockSparseTop2MLP(
  (w1): Linear(in_features=4096, out_features=6400, bias=False)
  (w2): Linear(in_features=6400, out_features=4096, bias=False)
  (w3): Linear(in_features=4096, out_features=6400, bias=False)
  (act_fn): SiLU()
)
model.layers.0.block_sparse_moe.experts.13.w1
Linear(in_features=4096, out_features=6400, bias=False)
model.layers.0.block_sparse_moe.experts.13.w2
Linear(in_features=6400, out_features=4096, bias=False)
model.layers.0.block_sparse_moe.experts.13.w3
Linear(in_features=4096, out_features=6400, bias=False)
model.layers.0.block_sparse_moe.experts.13.act_fn
SiLU()
model.layers.0.block_sparse_moe.experts.14
PhiMoEBlockSparseTop2MLP(
  (w1): Linear(in_features=4096, out_features=6400, bias=False)
  (w2): Linear(in_features=6400, out_features=4096, bias=False)
  (w3): Linear(in_features=4096, out_features=6400, bias=False)
  (act_fn): SiLU()
)
model.layers.0.block_sparse_moe.experts.14.w1
Linear(in_features=4096, out_features=6400, bias=False)
model.layers.0.block_sparse_moe.experts.14.w2
Linear(in_features=6400, out_features=4096, bias=False)
model.layers.0.block_sparse_moe.experts.14.w3
Linear(in_features=4096, out_features=6400, bias=False)
model.layers.0.block_sparse_moe.experts.14.act_fn
SiLU()
model.layers.0.block_sparse_moe.experts.15
PhiMoEBlockSparseTop2MLP(
  (w1): Linear(in_features=4096, out_features=6400, bias=False)
  (w2): Linear(in_features=6400, out_features=4096, bias=False)
  (w3): Linear(in_features=4096, out_features=6400, bias=False)
  (act_fn): SiLU()
)
model.layers.0.block_sparse_moe.experts.15.w1
Linear(in_features=4096, out_features=6400, bias=False)
model.layers.0.block_sparse_moe.experts.15.w2
Linear(in_features=6400, out_features=4096, bias=False)
model.layers.0.block_sparse_moe.experts.15.w3
Linear(in_features=4096, out_features=6400, bias=False)
model.layers.0.block_sparse_moe.experts.15.act_fn
SiLU()
model.layers.0.input_layernorm
LayerNorm((4096,), eps=1e-05, elementwise_affine=True)
model.layers.0.post_attention_layernorm
LayerNorm((4096,), eps=1e-05, elementwise_affine=True)
model.layers.1
PhiMoEDecoderLayer(
  (self_attn): PhiMoESdpaAttention(
    (q_proj): Linear(in_features=4096, out_features=4096, bias=True)
    (k_proj): Linear(in_features=4096, out_features=1024, bias=True)
    (v_proj): Linear(in_features=4096, out_features=1024, bias=True)
    (o_proj): Linear(in_features=4096, out_features=4096, bias=True)
    (rotary_emb): Phi3LongRoPEScaledRotaryEmbedding()
  )
  (block_sparse_moe): PhiMoESparseMoeBlock(
    (gate): Linear(in_features=4096, out_features=16, bias=False)
    (experts): ModuleList(
      (0-15): 16 x PhiMoEBlockSparseTop2MLP(
        (w1): Linear(in_features=4096, out_features=6400, bias=False)
        (w2): Linear(in_features=6400, out_features=4096, bias=False)
        (w3): Linear(in_features=4096, out_features=6400, bias=False)
        (act_fn): SiLU()
      )
    )
  )
  (input_layernorm): LayerNorm((4096,), eps=1e-05, elementwise_affine=True)
  (post_attention_layernorm): LayerNorm((4096,), eps=1e-05, elementwise_affine=True)
)
model.layers.1.self_attn
PhiMoESdpaAttention(
  (q_proj): Linear(in_features=4096, out_features=4096, bias=True)
  (k_proj): Linear(in_features=4096, out_features=1024, bias=True)
  (v_proj): Linear(in_features=4096, out_features=1024, bias=True)
  (o_proj): Linear(in_features=4096, out_features=4096, bias=True)
  (rotary_emb): Phi3LongRoPEScaledRotaryEmbedding()
)
model.layers.1.self_attn.q_proj
Linear(in_features=4096, out_features=4096, bias=True)
model.layers.1.self_attn.k_proj
Linear(in_features=4096, out_features=1024, bias=True)
model.layers.1.self_attn.v_proj
Linear(in_features=4096, out_features=1024, bias=True)
model.layers.1.self_attn.o_proj
Linear(in_features=4096, out_features=4096, bias=True)
model.layers.1.self_attn.rotary_emb
Phi3LongRoPEScaledRotaryEmbedding()
model.layers.1.block_sparse_moe
PhiMoESparseMoeBlock(
  (gate): Linear(in_features=4096, out_features=16, bias=False)
  (experts): ModuleList(
    (0-15): 16 x PhiMoEBlockSparseTop2MLP(
      (w1): Linear(in_features=4096, out_features=6400, bias=False)
      (w2): Linear(in_features=6400, out_features=4096, bias=False)
      (w3): Linear(in_features=4096, out_features=6400, bias=False)
      (act_fn): SiLU()
    )
  )
)
model.layers.1.block_sparse_moe.gate
Linear(in_features=4096, out_features=16, bias=False)
model.layers.1.block_sparse_moe.experts
ModuleList(
  (0-15): 16 x PhiMoEBlockSparseTop2MLP(
    (w1): Linear(in_features=4096, out_features=6400, bias=False)
    (w2): Linear(in_features=6400, out_features=4096, bias=False)
    (w3): Linear(in_features=4096, out_features=6400, bias=False)
    (act_fn): SiLU()
  )
)
model.layers.1.block_sparse_moe.experts.0
PhiMoEBlockSparseTop2MLP(
  (w1): Linear(in_features=4096, out_features=6400, bias=False)
  (w2): Linear(in_features=6400, out_features=4096, bias=False)
  (w3): Linear(in_features=4096, out_features=6400, bias=False)
  (act_fn): SiLU()
)
model.layers.1.block_sparse_moe.experts.0.w1
Linear(in_features=4096, out_features=6400, bias=False)
model.layers.1.block_sparse_moe.experts.0.w2
Linear(in_features=6400, out_features=4096, bias=False)
model.layers.1.block_sparse_moe.experts.0.w3
Linear(in_features=4096, out_features=6400, bias=False)
model.layers.1.block_sparse_moe.experts.0.act_fn
SiLU()
model.layers.1.block_sparse_moe.experts.1
PhiMoEBlockSparseTop2MLP(
  (w1): Linear(in_features=4096, out_features=6400, bias=False)
  (w2): Linear(in_features=6400, out_features=4096, bias=False)
  (w3): Linear(in_features=4096, out_features=6400, bias=False)
  (act_fn): SiLU()
)
model.layers.1.block_sparse_moe.experts.1.w1
Linear(in_features=4096, out_features=6400, bias=False)
model.layers.1.block_sparse_moe.experts.1.w2
Linear(in_features=6400, out_features=4096, bias=False)
model.layers.1.block_sparse_moe.experts.1.w3
Linear(in_features=4096, out_features=6400, bias=False)
model.layers.1.block_sparse_moe.experts.1.act_fn
SiLU()
model.layers.1.block_sparse_moe.experts.2
PhiMoEBlockSparseTop2MLP(
  (w1): Linear(in_features=4096, out_features=6400, bias=False)
  (w2): Linear(in_features=6400, out_features=4096, bias=False)
  (w3): Linear(in_features=4096, out_features=6400, bias=False)
  (act_fn): SiLU()
)
model.layers.1.block_sparse_moe.experts.2.w1
Linear(in_features=4096, out_features=6400, bias=False)
model.layers.1.block_sparse_moe.experts.2.w2
Linear(in_features=6400, out_features=4096, bias=False)
model.layers.1.block_sparse_moe.experts.2.w3
Linear(in_features=4096, out_features=6400, bias=False)
model.layers.1.block_sparse_moe.experts.2.act_fn
SiLU()
model.layers.1.block_sparse_moe.experts.3
PhiMoEBlockSparseTop2MLP(
  (w1): Linear(in_features=4096, out_features=6400, bias=False)
  (w2): Linear(in_features=6400, out_features=4096, bias=False)
  (w3): Linear(in_features=4096, out_features=6400, bias=False)
  (act_fn): SiLU()
)
model.layers.1.block_sparse_moe.experts.3.w1
Linear(in_features=4096, out_features=6400, bias=False)
model.layers.1.block_sparse_moe.experts.3.w2
Linear(in_features=6400, out_features=4096, bias=False)
model.layers.1.block_sparse_moe.experts.3.w3
Linear(in_features=4096, out_features=6400, bias=False)
model.layers.1.block_sparse_moe.experts.3.act_fn
SiLU()
model.layers.1.block_sparse_moe.experts.4
PhiMoEBlockSparseTop2MLP(
  (w1): Linear(in_features=4096, out_features=6400, bias=False)
  (w2): Linear(in_features=6400, out_features=4096, bias=False)
  (w3): Linear(in_features=4096, out_features=6400, bias=False)
  (act_fn): SiLU()
)
model.layers.1.block_sparse_moe.experts.4.w1
Linear(in_features=4096, out_features=6400, bias=False)
model.layers.1.block_sparse_moe.experts.4.w2
Linear(in_features=6400, out_features=4096, bias=False)
model.layers.1.block_sparse_moe.experts.4.w3
Linear(in_features=4096, out_features=6400, bias=False)
model.layers.1.block_sparse_moe.experts.4.act_fn
SiLU()
model.layers.1.block_sparse_moe.experts.5
PhiMoEBlockSparseTop2MLP(
  (w1): Linear(in_features=4096, out_features=6400, bias=False)
  (w2): Linear(in_features=6400, out_features=4096, bias=False)
  (w3): Linear(in_features=4096, out_features=6400, bias=False)
  (act_fn): SiLU()
)
model.layers.1.block_sparse_moe.experts.5.w1
Linear(in_features=4096, out_features=6400, bias=False)
model.layers.1.block_sparse_moe.experts.5.w2
Linear(in_features=6400, out_features=4096, bias=False)
model.layers.1.block_sparse_moe.experts.5.w3
Linear(in_features=4096, out_features=6400, bias=False)
model.layers.1.block_sparse_moe.experts.5.act_fn
SiLU()
model.layers.1.block_sparse_moe.experts.6
PhiMoEBlockSparseTop2MLP(
  (w1): Linear(in_features=4096, out_features=6400, bias=False)
  (w2): Linear(in_features=6400, out_features=4096, bias=False)
  (w3): Linear(in_features=4096, out_features=6400, bias=False)
  (act_fn): SiLU()
)
model.layers.1.block_sparse_moe.experts.6.w1
Linear(in_features=4096, out_features=6400, bias=False)
model.layers.1.block_sparse_moe.experts.6.w2
Linear(in_features=6400, out_features=4096, bias=False)
model.layers.1.block_sparse_moe.experts.6.w3
Linear(in_features=4096, out_features=6400, bias=False)
model.layers.1.block_sparse_moe.experts.6.act_fn
SiLU()
model.layers.1.block_sparse_moe.experts.7
PhiMoEBlockSparseTop2MLP(
  (w1): Linear(in_features=4096, out_features=6400, bias=False)
  (w2): Linear(in_features=6400, out_features=4096, bias=False)
  (w3): Linear(in_features=4096, out_features=6400, bias=False)
  (act_fn): SiLU()
)
model.layers.1.block_sparse_moe.experts.7.w1
Linear(in_features=4096, out_features=6400, bias=False)
model.layers.1.block_sparse_moe.experts.7.w2
Linear(in_features=6400, out_features=4096, bias=False)
model.layers.1.block_sparse_moe.experts.7.w3
Linear(in_features=4096, out_features=6400, bias=False)
model.layers.1.block_sparse_moe.experts.7.act_fn
SiLU()
model.layers.1.block_sparse_moe.experts.8
PhiMoEBlockSparseTop2MLP(
  (w1): Linear(in_features=4096, out_features=6400, bias=False)
  (w2): Linear(in_features=6400, out_features=4096, bias=False)
  (w3): Linear(in_features=4096, out_features=6400, bias=False)
  (act_fn): SiLU()
)
model.layers.1.block_sparse_moe.experts.8.w1
Linear(in_features=4096, out_features=6400, bias=False)
model.layers.1.block_sparse_moe.experts.8.w2
Linear(in_features=6400, out_features=4096, bias=False)
model.layers.1.block_sparse_moe.experts.8.w3
Linear(in_features=4096, out_features=6400, bias=False)
model.layers.1.block_sparse_moe.experts.8.act_fn
SiLU()
model.layers.1.block_sparse_moe.experts.9
PhiMoEBlockSparseTop2MLP(
  (w1): Linear(in_features=4096, out_features=6400, bias=False)
  (w2): Linear(in_features=6400, out_features=4096, bias=False)
  (w3): Linear(in_features=4096, out_features=6400, bias=False)
  (act_fn): SiLU()
)
model.layers.1.block_sparse_moe.experts.9.w1
Linear(in_features=4096, out_features=6400, bias=False)
model.layers.1.block_sparse_moe.experts.9.w2
Linear(in_features=6400, out_features=4096, bias=False)
model.layers.1.block_sparse_moe.experts.9.w3
Linear(in_features=4096, out_features=6400, bias=False)
model.layers.1.block_sparse_moe.experts.9.act_fn
SiLU()
model.layers.1.block_sparse_moe.experts.10
PhiMoEBlockSparseTop2MLP(
  (w1): Linear(in_features=4096, out_features=6400, bias=False)
  (w2): Linear(in_features=6400, out_features=4096, bias=False)
  (w3): Linear(in_features=4096, out_features=6400, bias=False)
  (act_fn): SiLU()
)
model.layers.1.block_sparse_moe.experts.10.w1
Linear(in_features=4096, out_features=6400, bias=False)
model.layers.1.block_sparse_moe.experts.10.w2
Linear(in_features=6400, out_features=4096, bias=False)
model.layers.1.block_sparse_moe.experts.10.w3
Linear(in_features=4096, out_features=6400, bias=False)
model.layers.1.block_sparse_moe.experts.10.act_fn
SiLU()
model.layers.1.block_sparse_moe.experts.11
PhiMoEBlockSparseTop2MLP(
  (w1): Linear(in_features=4096, out_features=6400, bias=False)
  (w2): Linear(in_features=6400, out_features=4096, bias=False)
  (w3): Linear(in_features=4096, out_features=6400, bias=False)
  (act_fn): SiLU()
)
model.layers.1.block_sparse_moe.experts.11.w1
Linear(in_features=4096, out_features=6400, bias=False)
model.layers.1.block_sparse_moe.experts.11.w2
Linear(in_features=6400, out_features=4096, bias=False)
model.layers.1.block_sparse_moe.experts.11.w3
Linear(in_features=4096, out_features=6400, bias=False)
model.layers.1.block_sparse_moe.experts.11.act_fn
SiLU()
model.layers.1.block_sparse_moe.experts.12
PhiMoEBlockSparseTop2MLP(
  (w1): Linear(in_features=4096, out_features=6400, bias=False)
  (w2): Linear(in_features=6400, out_features=4096, bias=False)
  (w3): Linear(in_features=4096, out_features=6400, bias=False)
  (act_fn): SiLU()
)
model.layers.1.block_sparse_moe.experts.12.w1
Linear(in_features=4096, out_features=6400, bias=False)
model.layers.1.block_sparse_moe.experts.12.w2
Linear(in_features=6400, out_features=4096, bias=False)
model.layers.1.block_sparse_moe.experts.12.w3
Linear(in_features=4096, out_features=6400, bias=False)
model.layers.1.block_sparse_moe.experts.12.act_fn
SiLU()
model.layers.1.block_sparse_moe.experts.13
PhiMoEBlockSparseTop2MLP(
  (w1): Linear(in_features=4096, out_features=6400, bias=False)
  (w2): Linear(in_features=6400, out_features=4096, bias=False)
  (w3): Linear(in_features=4096, out_features=6400, bias=False)
  (act_fn): SiLU()
)
model.layers.1.block_sparse_moe.experts.13.w1
Linear(in_features=4096, out_features=6400, bias=False)
model.layers.1.block_sparse_moe.experts.13.w2
Linear(in_features=6400, out_features=4096, bias=False)
model.layers.1.block_sparse_moe.experts.13.w3
Linear(in_features=4096, out_features=6400, bias=False)
model.layers.1.block_sparse_moe.experts.13.act_fn
SiLU()
model.layers.1.block_sparse_moe.experts.14
PhiMoEBlockSparseTop2MLP(
  (w1): Linear(in_features=4096, out_features=6400, bias=False)
  (w2): Linear(in_features=6400, out_features=4096, bias=False)
  (w3): Linear(in_features=4096, out_features=6400, bias=False)
  (act_fn): SiLU()
)
model.layers.1.block_sparse_moe.experts.14.w1
Linear(in_features=4096, out_features=6400, bias=False)
model.layers.1.block_sparse_moe.experts.14.w2
Linear(in_features=6400, out_features=4096, bias=False)
model.layers.1.block_sparse_moe.experts.14.w3
Linear(in_features=4096, out_features=6400, bias=False)
model.layers.1.block_sparse_moe.experts.14.act_fn
SiLU()
model.layers.1.block_sparse_moe.experts.15
PhiMoEBlockSparseTop2MLP(
  (w1): Linear(in_features=4096, out_features=6400, bias=False)
  (w2): Linear(in_features=6400, out_features=4096, bias=False)
  (w3): Linear(in_features=4096, out_features=6400, bias=False)
  (act_fn): SiLU()
)
model.layers.1.block_sparse_moe.experts.15.w1
Linear(in_features=4096, out_features=6400, bias=False)
model.layers.1.block_sparse_moe.experts.15.w2
Linear(in_features=6400, out_features=4096, bias=False)
model.layers.1.block_sparse_moe.experts.15.w3
Linear(in_features=4096, out_features=6400, bias=False)
model.layers.1.block_sparse_moe.experts.15.act_fn
SiLU()
model.layers.1.input_layernorm
LayerNorm((4096,), eps=1e-05, elementwise_affine=True)
model.layers.1.post_attention_layernorm
LayerNorm((4096,), eps=1e-05, elementwise_affine=True)
model.layers.2
PhiMoEDecoderLayer(
  (self_attn): PhiMoESdpaAttention(
    (q_proj): Linear(in_features=4096, out_features=4096, bias=True)
    (k_proj): Linear(in_features=4096, out_features=1024, bias=True)
    (v_proj): Linear(in_features=4096, out_features=1024, bias=True)
    (o_proj): Linear(in_features=4096, out_features=4096, bias=True)
    (rotary_emb): Phi3LongRoPEScaledRotaryEmbedding()
  )
  (block_sparse_moe): PhiMoESparseMoeBlock(
    (gate): Linear(in_features=4096, out_features=16, bias=False)
    (experts): ModuleList(
      (0-15): 16 x PhiMoEBlockSparseTop2MLP(
        (w1): Linear(in_features=4096, out_features=6400, bias=False)
        (w2): Linear(in_features=6400, out_features=4096, bias=False)
        (w3): Linear(in_features=4096, out_features=6400, bias=False)
        (act_fn): SiLU()
      )
    )
  )
  (input_layernorm): LayerNorm((4096,), eps=1e-05, elementwise_affine=True)
  (post_attention_layernorm): LayerNorm((4096,), eps=1e-05, elementwise_affine=True)
)
model.layers.2.self_attn
PhiMoESdpaAttention(
  (q_proj): Linear(in_features=4096, out_features=4096, bias=True)
  (k_proj): Linear(in_features=4096, out_features=1024, bias=True)
  (v_proj): Linear(in_features=4096, out_features=1024, bias=True)
  (o_proj): Linear(in_features=4096, out_features=4096, bias=True)
  (rotary_emb): Phi3LongRoPEScaledRotaryEmbedding()
)
model.layers.2.self_attn.q_proj
Linear(in_features=4096, out_features=4096, bias=True)
model.layers.2.self_attn.k_proj
Linear(in_features=4096, out_features=1024, bias=True)
model.layers.2.self_attn.v_proj
Linear(in_features=4096, out_features=1024, bias=True)
model.layers.2.self_attn.o_proj
Linear(in_features=4096, out_features=4096, bias=True)
model.layers.2.self_attn.rotary_emb
Phi3LongRoPEScaledRotaryEmbedding()
model.layers.2.block_sparse_moe
PhiMoESparseMoeBlock(
  (gate): Linear(in_features=4096, out_features=16, bias=False)
  (experts): ModuleList(
    (0-15): 16 x PhiMoEBlockSparseTop2MLP(
      (w1): Linear(in_features=4096, out_features=6400, bias=False)
      (w2): Linear(in_features=6400, out_features=4096, bias=False)
      (w3): Linear(in_features=4096, out_features=6400, bias=False)
      (act_fn): SiLU()
    )
  )
)
model.layers.2.block_sparse_moe.gate
Linear(in_features=4096, out_features=16, bias=False)
model.layers.2.block_sparse_moe.experts
ModuleList(
  (0-15): 16 x PhiMoEBlockSparseTop2MLP(
    (w1): Linear(in_features=4096, out_features=6400, bias=False)
    (w2): Linear(in_features=6400, out_features=4096, bias=False)
    (w3): Linear(in_features=4096, out_features=6400, bias=False)
    (act_fn): SiLU()
  )
)
model.layers.2.block_sparse_moe.experts.0
PhiMoEBlockSparseTop2MLP(
  (w1): Linear(in_features=4096, out_features=6400, bias=False)
  (w2): Linear(in_features=6400, out_features=4096, bias=False)
  (w3): Linear(in_features=4096, out_features=6400, bias=False)
  (act_fn): SiLU()
)
model.layers.2.block_sparse_moe.experts.0.w1
Linear(in_features=4096, out_features=6400, bias=False)
model.layers.2.block_sparse_moe.experts.0.w2
Linear(in_features=6400, out_features=4096, bias=False)
model.layers.2.block_sparse_moe.experts.0.w3
Linear(in_features=4096, out_features=6400, bias=False)
model.layers.2.block_sparse_moe.experts.0.act_fn
SiLU()
model.layers.2.block_sparse_moe.experts.1
PhiMoEBlockSparseTop2MLP(
  (w1): Linear(in_features=4096, out_features=6400, bias=False)
  (w2): Linear(in_features=6400, out_features=4096, bias=False)
  (w3): Linear(in_features=4096, out_features=6400, bias=False)
  (act_fn): SiLU()
)
model.layers.2.block_sparse_moe.experts.1.w1
Linear(in_features=4096, out_features=6400, bias=False)
model.layers.2.block_sparse_moe.experts.1.w2
Linear(in_features=6400, out_features=4096, bias=False)
model.layers.2.block_sparse_moe.experts.1.w3
Linear(in_features=4096, out_features=6400, bias=False)
model.layers.2.block_sparse_moe.experts.1.act_fn
SiLU()
model.layers.2.block_sparse_moe.experts.2
PhiMoEBlockSparseTop2MLP(
  (w1): Linear(in_features=4096, out_features=6400, bias=False)
  (w2): Linear(in_features=6400, out_features=4096, bias=False)
  (w3): Linear(in_features=4096, out_features=6400, bias=False)
  (act_fn): SiLU()
)
model.layers.2.block_sparse_moe.experts.2.w1
Linear(in_features=4096, out_features=6400, bias=False)
model.layers.2.block_sparse_moe.experts.2.w2
Linear(in_features=6400, out_features=4096, bias=False)
model.layers.2.block_sparse_moe.experts.2.w3
Linear(in_features=4096, out_features=6400, bias=False)
model.layers.2.block_sparse_moe.experts.2.act_fn
SiLU()
model.layers.2.block_sparse_moe.experts.3
PhiMoEBlockSparseTop2MLP(
  (w1): Linear(in_features=4096, out_features=6400, bias=False)
  (w2): Linear(in_features=6400, out_features=4096, bias=False)
  (w3): Linear(in_features=4096, out_features=6400, bias=False)
  (act_fn): SiLU()
)
model.layers.2.block_sparse_moe.experts.3.w1
Linear(in_features=4096, out_features=6400, bias=False)
model.layers.2.block_sparse_moe.experts.3.w2
Linear(in_features=6400, out_features=4096, bias=False)
model.layers.2.block_sparse_moe.experts.3.w3
Linear(in_features=4096, out_features=6400, bias=False)
model.layers.2.block_sparse_moe.experts.3.act_fn
SiLU()
model.layers.2.block_sparse_moe.experts.4
PhiMoEBlockSparseTop2MLP(
  (w1): Linear(in_features=4096, out_features=6400, bias=False)
  (w2): Linear(in_features=6400, out_features=4096, bias=False)
  (w3): Linear(in_features=4096, out_features=6400, bias=False)
  (act_fn): SiLU()
)
model.layers.2.block_sparse_moe.experts.4.w1
Linear(in_features=4096, out_features=6400, bias=False)
model.layers.2.block_sparse_moe.experts.4.w2
Linear(in_features=6400, out_features=4096, bias=False)
model.layers.2.block_sparse_moe.experts.4.w3
Linear(in_features=4096, out_features=6400, bias=False)
model.layers.2.block_sparse_moe.experts.4.act_fn
SiLU()
model.layers.2.block_sparse_moe.experts.5
PhiMoEBlockSparseTop2MLP(
  (w1): Linear(in_features=4096, out_features=6400, bias=False)
  (w2): Linear(in_features=6400, out_features=4096, bias=False)
  (w3): Linear(in_features=4096, out_features=6400, bias=False)
  (act_fn): SiLU()
)
model.layers.2.block_sparse_moe.experts.5.w1
Linear(in_features=4096, out_features=6400, bias=False)
model.layers.2.block_sparse_moe.experts.5.w2
Linear(in_features=6400, out_features=4096, bias=False)
model.layers.2.block_sparse_moe.experts.5.w3
Linear(in_features=4096, out_features=6400, bias=False)
model.layers.2.block_sparse_moe.experts.5.act_fn
SiLU()
model.layers.2.block_sparse_moe.experts.6
PhiMoEBlockSparseTop2MLP(
  (w1): Linear(in_features=4096, out_features=6400, bias=False)
  (w2): Linear(in_features=6400, out_features=4096, bias=False)
  (w3): Linear(in_features=4096, out_features=6400, bias=False)
  (act_fn): SiLU()
)
model.layers.2.block_sparse_moe.experts.6.w1
Linear(in_features=4096, out_features=6400, bias=False)
model.layers.2.block_sparse_moe.experts.6.w2
Linear(in_features=6400, out_features=4096, bias=False)
model.layers.2.block_sparse_moe.experts.6.w3
Linear(in_features=4096, out_features=6400, bias=False)
model.layers.2.block_sparse_moe.experts.6.act_fn
SiLU()
model.layers.2.block_sparse_moe.experts.7
PhiMoEBlockSparseTop2MLP(
  (w1): Linear(in_features=4096, out_features=6400, bias=False)
  (w2): Linear(in_features=6400, out_features=4096, bias=False)
  (w3): Linear(in_features=4096, out_features=6400, bias=False)
  (act_fn): SiLU()
)
model.layers.2.block_sparse_moe.experts.7.w1
Linear(in_features=4096, out_features=6400, bias=False)
model.layers.2.block_sparse_moe.experts.7.w2
Linear(in_features=6400, out_features=4096, bias=False)
model.layers.2.block_sparse_moe.experts.7.w3
Linear(in_features=4096, out_features=6400, bias=False)
model.layers.2.block_sparse_moe.experts.7.act_fn
SiLU()
model.layers.2.block_sparse_moe.experts.8
PhiMoEBlockSparseTop2MLP(
  (w1): Linear(in_features=4096, out_features=6400, bias=False)
  (w2): Linear(in_features=6400, out_features=4096, bias=False)
  (w3): Linear(in_features=4096, out_features=6400, bias=False)
  (act_fn): SiLU()
)
model.layers.2.block_sparse_moe.experts.8.w1
Linear(in_features=4096, out_features=6400, bias=False)
model.layers.2.block_sparse_moe.experts.8.w2
Linear(in_features=6400, out_features=4096, bias=False)
model.layers.2.block_sparse_moe.experts.8.w3
Linear(in_features=4096, out_features=6400, bias=False)
model.layers.2.block_sparse_moe.experts.8.act_fn
SiLU()
model.layers.2.block_sparse_moe.experts.9
PhiMoEBlockSparseTop2MLP(
  (w1): Linear(in_features=4096, out_features=6400, bias=False)
  (w2): Linear(in_features=6400, out_features=4096, bias=False)
  (w3): Linear(in_features=4096, out_features=6400, bias=False)
  (act_fn): SiLU()
)
model.layers.2.block_sparse_moe.experts.9.w1
Linear(in_features=4096, out_features=6400, bias=False)
model.layers.2.block_sparse_moe.experts.9.w2
Linear(in_features=6400, out_features=4096, bias=False)
model.layers.2.block_sparse_moe.experts.9.w3
Linear(in_features=4096, out_features=6400, bias=False)
model.layers.2.block_sparse_moe.experts.9.act_fn
SiLU()
model.layers.2.block_sparse_moe.experts.10
PhiMoEBlockSparseTop2MLP(
  (w1): Linear(in_features=4096, out_features=6400, bias=False)
  (w2): Linear(in_features=6400, out_features=4096, bias=False)
  (w3): Linear(in_features=4096, out_features=6400, bias=False)
  (act_fn): SiLU()
)
model.layers.2.block_sparse_moe.experts.10.w1
Linear(in_features=4096, out_features=6400, bias=False)
model.layers.2.block_sparse_moe.experts.10.w2
Linear(in_features=6400, out_features=4096, bias=False)
model.layers.2.block_sparse_moe.experts.10.w3
Linear(in_features=4096, out_features=6400, bias=False)
model.layers.2.block_sparse_moe.experts.10.act_fn
SiLU()
model.layers.2.block_sparse_moe.experts.11
PhiMoEBlockSparseTop2MLP(
  (w1): Linear(in_features=4096, out_features=6400, bias=False)
  (w2): Linear(in_features=6400, out_features=4096, bias=False)
  (w3): Linear(in_features=4096, out_features=6400, bias=False)
  (act_fn): SiLU()
)
model.layers.2.block_sparse_moe.experts.11.w1
Linear(in_features=4096, out_features=6400, bias=False)
model.layers.2.block_sparse_moe.experts.11.w2
Linear(in_features=6400, out_features=4096, bias=False)
model.layers.2.block_sparse_moe.experts.11.w3
Linear(in_features=4096, out_features=6400, bias=False)
model.layers.2.block_sparse_moe.experts.11.act_fn
SiLU()
model.layers.2.block_sparse_moe.experts.12
PhiMoEBlockSparseTop2MLP(
  (w1): Linear(in_features=4096, out_features=6400, bias=False)
  (w2): Linear(in_features=6400, out_features=4096, bias=False)
  (w3): Linear(in_features=4096, out_features=6400, bias=False)
  (act_fn): SiLU()
)
model.layers.2.block_sparse_moe.experts.12.w1
Linear(in_features=4096, out_features=6400, bias=False)
model.layers.2.block_sparse_moe.experts.12.w2
Linear(in_features=6400, out_features=4096, bias=False)
model.layers.2.block_sparse_moe.experts.12.w3
Linear(in_features=4096, out_features=6400, bias=False)
model.layers.2.block_sparse_moe.experts.12.act_fn
SiLU()
model.layers.2.block_sparse_moe.experts.13
PhiMoEBlockSparseTop2MLP(
  (w1): Linear(in_features=4096, out_features=6400, bias=False)
  (w2): Linear(in_features=6400, out_features=4096, bias=False)
  (w3): Linear(in_features=4096, out_features=6400, bias=False)
  (act_fn): SiLU()
)
model.layers.2.block_sparse_moe.experts.13.w1
Linear(in_features=4096, out_features=6400, bias=False)
model.layers.2.block_sparse_moe.experts.13.w2
Linear(in_features=6400, out_features=4096, bias=False)
model.layers.2.block_sparse_moe.experts.13.w3
Linear(in_features=4096, out_features=6400, bias=False)
model.layers.2.block_sparse_moe.experts.13.act_fn
SiLU()
model.layers.2.block_sparse_moe.experts.14
PhiMoEBlockSparseTop2MLP(
  (w1): Linear(in_features=4096, out_features=6400, bias=False)
  (w2): Linear(in_features=6400, out_features=4096, bias=False)
  (w3): Linear(in_features=4096, out_features=6400, bias=False)
  (act_fn): SiLU()
)
model.layers.2.block_sparse_moe.experts.14.w1
Linear(in_features=4096, out_features=6400, bias=False)
model.layers.2.block_sparse_moe.experts.14.w2
Linear(in_features=6400, out_features=4096, bias=False)
model.layers.2.block_sparse_moe.experts.14.w3
Linear(in_features=4096, out_features=6400, bias=False)
model.layers.2.block_sparse_moe.experts.14.act_fn
SiLU()
model.layers.2.block_sparse_moe.experts.15
PhiMoEBlockSparseTop2MLP(
  (w1): Linear(in_features=4096, out_features=6400, bias=False)
  (w2): Linear(in_features=6400, out_features=4096, bias=False)
  (w3): Linear(in_features=4096, out_features=6400, bias=False)
  (act_fn): SiLU()
)
model.layers.2.block_sparse_moe.experts.15.w1
Linear(in_features=4096, out_features=6400, bias=False)
model.layers.2.block_sparse_moe.experts.15.w2
Linear(in_features=6400, out_features=4096, bias=False)
model.layers.2.block_sparse_moe.experts.15.w3
Linear(in_features=4096, out_features=6400, bias=False)
model.layers.2.block_sparse_moe.experts.15.act_fn
SiLU()
model.layers.2.input_layernorm
LayerNorm((4096,), eps=1e-05, elementwise_affine=True)
model.layers.2.post_attention_layernorm
LayerNorm((4096,), eps=1e-05, elementwise_affine=True)
model.layers.3
PhiMoEDecoderLayer(
  (self_attn): PhiMoESdpaAttention(
    (q_proj): Linear(in_features=4096, out_features=4096, bias=True)
    (k_proj): Linear(in_features=4096, out_features=1024, bias=True)
    (v_proj): Linear(in_features=4096, out_features=1024, bias=True)
    (o_proj): Linear(in_features=4096, out_features=4096, bias=True)
    (rotary_emb): Phi3LongRoPEScaledRotaryEmbedding()
  )
  (block_sparse_moe): PhiMoESparseMoeBlock(
    (gate): Linear(in_features=4096, out_features=16, bias=False)
    (experts): ModuleList(
      (0-15): 16 x PhiMoEBlockSparseTop2MLP(
        (w1): Linear(in_features=4096, out_features=6400, bias=False)
        (w2): Linear(in_features=6400, out_features=4096, bias=False)
        (w3): Linear(in_features=4096, out_features=6400, bias=False)
        (act_fn): SiLU()
      )
    )
  )
  (input_layernorm): LayerNorm((4096,), eps=1e-05, elementwise_affine=True)
  (post_attention_layernorm): LayerNorm((4096,), eps=1e-05, elementwise_affine=True)
)
model.layers.3.self_attn
PhiMoESdpaAttention(
  (q_proj): Linear(in_features=4096, out_features=4096, bias=True)
  (k_proj): Linear(in_features=4096, out_features=1024, bias=True)
  (v_proj): Linear(in_features=4096, out_features=1024, bias=True)
  (o_proj): Linear(in_features=4096, out_features=4096, bias=True)
  (rotary_emb): Phi3LongRoPEScaledRotaryEmbedding()
)
model.layers.3.self_attn.q_proj
Linear(in_features=4096, out_features=4096, bias=True)
model.layers.3.self_attn.k_proj
Linear(in_features=4096, out_features=1024, bias=True)
model.layers.3.self_attn.v_proj
Linear(in_features=4096, out_features=1024, bias=True)
model.layers.3.self_attn.o_proj
Linear(in_features=4096, out_features=4096, bias=True)
model.layers.3.self_attn.rotary_emb
Phi3LongRoPEScaledRotaryEmbedding()
model.layers.3.block_sparse_moe
PhiMoESparseMoeBlock(
  (gate): Linear(in_features=4096, out_features=16, bias=False)
  (experts): ModuleList(
    (0-15): 16 x PhiMoEBlockSparseTop2MLP(
      (w1): Linear(in_features=4096, out_features=6400, bias=False)
      (w2): Linear(in_features=6400, out_features=4096, bias=False)
      (w3): Linear(in_features=4096, out_features=6400, bias=False)
      (act_fn): SiLU()
    )
  )
)
model.layers.3.block_sparse_moe.gate
Linear(in_features=4096, out_features=16, bias=False)
model.layers.3.block_sparse_moe.experts
ModuleList(
  (0-15): 16 x PhiMoEBlockSparseTop2MLP(
    (w1): Linear(in_features=4096, out_features=6400, bias=False)
    (w2): Linear(in_features=6400, out_features=4096, bias=False)
    (w3): Linear(in_features=4096, out_features=6400, bias=False)
    (act_fn): SiLU()
  )
)
model.layers.3.block_sparse_moe.experts.0
PhiMoEBlockSparseTop2MLP(
  (w1): Linear(in_features=4096, out_features=6400, bias=False)
  (w2): Linear(in_features=6400, out_features=4096, bias=False)
  (w3): Linear(in_features=4096, out_features=6400, bias=False)
  (act_fn): SiLU()
)
model.layers.3.block_sparse_moe.experts.0.w1
Linear(in_features=4096, out_features=6400, bias=False)
model.layers.3.block_sparse_moe.experts.0.w2
Linear(in_features=6400, out_features=4096, bias=False)
model.layers.3.block_sparse_moe.experts.0.w3
Linear(in_features=4096, out_features=6400, bias=False)
model.layers.3.block_sparse_moe.experts.0.act_fn
SiLU()
model.layers.3.block_sparse_moe.experts.1
PhiMoEBlockSparseTop2MLP(
  (w1): Linear(in_features=4096, out_features=6400, bias=False)
  (w2): Linear(in_features=6400, out_features=4096, bias=False)
  (w3): Linear(in_features=4096, out_features=6400, bias=False)
  (act_fn): SiLU()
)
model.layers.3.block_sparse_moe.experts.1.w1
Linear(in_features=4096, out_features=6400, bias=False)
model.layers.3.block_sparse_moe.experts.1.w2
Linear(in_features=6400, out_features=4096, bias=False)
model.layers.3.block_sparse_moe.experts.1.w3
Linear(in_features=4096, out_features=6400, bias=False)
model.layers.3.block_sparse_moe.experts.1.act_fn
SiLU()
model.layers.3.block_sparse_moe.experts.2
PhiMoEBlockSparseTop2MLP(
  (w1): Linear(in_features=4096, out_features=6400, bias=False)
  (w2): Linear(in_features=6400, out_features=4096, bias=False)
  (w3): Linear(in_features=4096, out_features=6400, bias=False)
  (act_fn): SiLU()
)
model.layers.3.block_sparse_moe.experts.2.w1
Linear(in_features=4096, out_features=6400, bias=False)
model.layers.3.block_sparse_moe.experts.2.w2
Linear(in_features=6400, out_features=4096, bias=False)
model.layers.3.block_sparse_moe.experts.2.w3
Linear(in_features=4096, out_features=6400, bias=False)
model.layers.3.block_sparse_moe.experts.2.act_fn
SiLU()
model.layers.3.block_sparse_moe.experts.3
PhiMoEBlockSparseTop2MLP(
  (w1): Linear(in_features=4096, out_features=6400, bias=False)
  (w2): Linear(in_features=6400, out_features=4096, bias=False)
  (w3): Linear(in_features=4096, out_features=6400, bias=False)
  (act_fn): SiLU()
)
model.layers.3.block_sparse_moe.experts.3.w1
Linear(in_features=4096, out_features=6400, bias=False)
model.layers.3.block_sparse_moe.experts.3.w2
Linear(in_features=6400, out_features=4096, bias=False)
model.layers.3.block_sparse_moe.experts.3.w3
Linear(in_features=4096, out_features=6400, bias=False)
model.layers.3.block_sparse_moe.experts.3.act_fn
SiLU()
model.layers.3.block_sparse_moe.experts.4
PhiMoEBlockSparseTop2MLP(
  (w1): Linear(in_features=4096, out_features=6400, bias=False)
  (w2): Linear(in_features=6400, out_features=4096, bias=False)
  (w3): Linear(in_features=4096, out_features=6400, bias=False)
  (act_fn): SiLU()
)
model.layers.3.block_sparse_moe.experts.4.w1
Linear(in_features=4096, out_features=6400, bias=False)
model.layers.3.block_sparse_moe.experts.4.w2
Linear(in_features=6400, out_features=4096, bias=False)
model.layers.3.block_sparse_moe.experts.4.w3
Linear(in_features=4096, out_features=6400, bias=False)
model.layers.3.block_sparse_moe.experts.4.act_fn
SiLU()
model.layers.3.block_sparse_moe.experts.5
PhiMoEBlockSparseTop2MLP(
  (w1): Linear(in_features=4096, out_features=6400, bias=False)
  (w2): Linear(in_features=6400, out_features=4096, bias=False)
  (w3): Linear(in_features=4096, out_features=6400, bias=False)
  (act_fn): SiLU()
)
model.layers.3.block_sparse_moe.experts.5.w1
Linear(in_features=4096, out_features=6400, bias=False)
model.layers.3.block_sparse_moe.experts.5.w2
Linear(in_features=6400, out_features=4096, bias=False)
model.layers.3.block_sparse_moe.experts.5.w3
Linear(in_features=4096, out_features=6400, bias=False)
model.layers.3.block_sparse_moe.experts.5.act_fn
SiLU()
model.layers.3.block_sparse_moe.experts.6
PhiMoEBlockSparseTop2MLP(
  (w1): Linear(in_features=4096, out_features=6400, bias=False)
  (w2): Linear(in_features=6400, out_features=4096, bias=False)
  (w3): Linear(in_features=4096, out_features=6400, bias=False)
  (act_fn): SiLU()
)
model.layers.3.block_sparse_moe.experts.6.w1
Linear(in_features=4096, out_features=6400, bias=False)
model.layers.3.block_sparse_moe.experts.6.w2
Linear(in_features=6400, out_features=4096, bias=False)
model.layers.3.block_sparse_moe.experts.6.w3
Linear(in_features=4096, out_features=6400, bias=False)
model.layers.3.block_sparse_moe.experts.6.act_fn
SiLU()
model.layers.3.block_sparse_moe.experts.7
PhiMoEBlockSparseTop2MLP(
  (w1): Linear(in_features=4096, out_features=6400, bias=False)
  (w2): Linear(in_features=6400, out_features=4096, bias=False)
  (w3): Linear(in_features=4096, out_features=6400, bias=False)
  (act_fn): SiLU()
)
model.layers.3.block_sparse_moe.experts.7.w1
Linear(in_features=4096, out_features=6400, bias=False)
model.layers.3.block_sparse_moe.experts.7.w2
Linear(in_features=6400, out_features=4096, bias=False)
model.layers.3.block_sparse_moe.experts.7.w3
Linear(in_features=4096, out_features=6400, bias=False)
model.layers.3.block_sparse_moe.experts.7.act_fn
SiLU()
model.layers.3.block_sparse_moe.experts.8
PhiMoEBlockSparseTop2MLP(
  (w1): Linear(in_features=4096, out_features=6400, bias=False)
  (w2): Linear(in_features=6400, out_features=4096, bias=False)
  (w3): Linear(in_features=4096, out_features=6400, bias=False)
  (act_fn): SiLU()
)
model.layers.3.block_sparse_moe.experts.8.w1
Linear(in_features=4096, out_features=6400, bias=False)
model.layers.3.block_sparse_moe.experts.8.w2
Linear(in_features=6400, out_features=4096, bias=False)
model.layers.3.block_sparse_moe.experts.8.w3
Linear(in_features=4096, out_features=6400, bias=False)
model.layers.3.block_sparse_moe.experts.8.act_fn
SiLU()
model.layers.3.block_sparse_moe.experts.9
PhiMoEBlockSparseTop2MLP(
  (w1): Linear(in_features=4096, out_features=6400, bias=False)
  (w2): Linear(in_features=6400, out_features=4096, bias=False)
  (w3): Linear(in_features=4096, out_features=6400, bias=False)
  (act_fn): SiLU()
)
model.layers.3.block_sparse_moe.experts.9.w1
Linear(in_features=4096, out_features=6400, bias=False)
model.layers.3.block_sparse_moe.experts.9.w2
Linear(in_features=6400, out_features=4096, bias=False)
model.layers.3.block_sparse_moe.experts.9.w3
Linear(in_features=4096, out_features=6400, bias=False)
model.layers.3.block_sparse_moe.experts.9.act_fn
SiLU()
model.layers.3.block_sparse_moe.experts.10
PhiMoEBlockSparseTop2MLP(
  (w1): Linear(in_features=4096, out_features=6400, bias=False)
  (w2): Linear(in_features=6400, out_features=4096, bias=False)
  (w3): Linear(in_features=4096, out_features=6400, bias=False)
  (act_fn): SiLU()
)
model.layers.3.block_sparse_moe.experts.10.w1
Linear(in_features=4096, out_features=6400, bias=False)
model.layers.3.block_sparse_moe.experts.10.w2
Linear(in_features=6400, out_features=4096, bias=False)
model.layers.3.block_sparse_moe.experts.10.w3
Linear(in_features=4096, out_features=6400, bias=False)
model.layers.3.block_sparse_moe.experts.10.act_fn
SiLU()
model.layers.3.block_sparse_moe.experts.11
PhiMoEBlockSparseTop2MLP(
  (w1): Linear(in_features=4096, out_features=6400, bias=False)
  (w2): Linear(in_features=6400, out_features=4096, bias=False)
  (w3): Linear(in_features=4096, out_features=6400, bias=False)
  (act_fn): SiLU()
)
model.layers.3.block_sparse_moe.experts.11.w1
Linear(in_features=4096, out_features=6400, bias=False)
model.layers.3.block_sparse_moe.experts.11.w2
Linear(in_features=6400, out_features=4096, bias=False)
model.layers.3.block_sparse_moe.experts.11.w3
Linear(in_features=4096, out_features=6400, bias=False)
model.layers.3.block_sparse_moe.experts.11.act_fn
SiLU()
model.layers.3.block_sparse_moe.experts.12
PhiMoEBlockSparseTop2MLP(
  (w1): Linear(in_features=4096, out_features=6400, bias=False)
  (w2): Linear(in_features=6400, out_features=4096, bias=False)
  (w3): Linear(in_features=4096, out_features=6400, bias=False)
  (act_fn): SiLU()
)
model.layers.3.block_sparse_moe.experts.12.w1
Linear(in_features=4096, out_features=6400, bias=False)
model.layers.3.block_sparse_moe.experts.12.w2
Linear(in_features=6400, out_features=4096, bias=False)
model.layers.3.block_sparse_moe.experts.12.w3
Linear(in_features=4096, out_features=6400, bias=False)
model.layers.3.block_sparse_moe.experts.12.act_fn
SiLU()
model.layers.3.block_sparse_moe.experts.13
PhiMoEBlockSparseTop2MLP(
  (w1): Linear(in_features=4096, out_features=6400, bias=False)
  (w2): Linear(in_features=6400, out_features=4096, bias=False)
  (w3): Linear(in_features=4096, out_features=6400, bias=False)
  (act_fn): SiLU()
)
model.layers.3.block_sparse_moe.experts.13.w1
Linear(in_features=4096, out_features=6400, bias=False)
model.layers.3.block_sparse_moe.experts.13.w2
Linear(in_features=6400, out_features=4096, bias=False)
model.layers.3.block_sparse_moe.experts.13.w3
Linear(in_features=4096, out_features=6400, bias=False)
model.layers.3.block_sparse_moe.experts.13.act_fn
SiLU()
model.layers.3.block_sparse_moe.experts.14
PhiMoEBlockSparseTop2MLP(
  (w1): Linear(in_features=4096, out_features=6400, bias=False)
  (w2): Linear(in_features=6400, out_features=4096, bias=False)
  (w3): Linear(in_features=4096, out_features=6400, bias=False)
  (act_fn): SiLU()
)
model.layers.3.block_sparse_moe.experts.14.w1
Linear(in_features=4096, out_features=6400, bias=False)
model.layers.3.block_sparse_moe.experts.14.w2
Linear(in_features=6400, out_features=4096, bias=False)
model.layers.3.block_sparse_moe.experts.14.w3
Linear(in_features=4096, out_features=6400, bias=False)
model.layers.3.block_sparse_moe.experts.14.act_fn
SiLU()
model.layers.3.block_sparse_moe.experts.15
PhiMoEBlockSparseTop2MLP(
  (w1): Linear(in_features=4096, out_features=6400, bias=False)
  (w2): Linear(in_features=6400, out_features=4096, bias=False)
  (w3): Linear(in_features=4096, out_features=6400, bias=False)
  (act_fn): SiLU()
)
model.layers.3.block_sparse_moe.experts.15.w1
Linear(in_features=4096, out_features=6400, bias=False)
model.layers.3.block_sparse_moe.experts.15.w2
Linear(in_features=6400, out_features=4096, bias=False)
model.layers.3.block_sparse_moe.experts.15.w3
Linear(in_features=4096, out_features=6400, bias=False)
model.layers.3.block_sparse_moe.experts.15.act_fn
SiLU()
model.layers.3.input_layernorm
LayerNorm((4096,), eps=1e-05, elementwise_affine=True)
model.layers.3.post_attention_layernorm
LayerNorm((4096,), eps=1e-05, elementwise_affine=True)
model.layers.4
PhiMoEDecoderLayer(
  (self_attn): PhiMoESdpaAttention(
    (q_proj): Linear(in_features=4096, out_features=4096, bias=True)
    (k_proj): Linear(in_features=4096, out_features=1024, bias=True)
    (v_proj): Linear(in_features=4096, out_features=1024, bias=True)
    (o_proj): Linear(in_features=4096, out_features=4096, bias=True)
    (rotary_emb): Phi3LongRoPEScaledRotaryEmbedding()
  )
  (block_sparse_moe): PhiMoESparseMoeBlock(
    (gate): Linear(in_features=4096, out_features=16, bias=False)
    (experts): ModuleList(
      (0-15): 16 x PhiMoEBlockSparseTop2MLP(
        (w1): Linear(in_features=4096, out_features=6400, bias=False)
        (w2): Linear(in_features=6400, out_features=4096, bias=False)
        (w3): Linear(in_features=4096, out_features=6400, bias=False)
        (act_fn): SiLU()
      )
    )
  )
  (input_layernorm): LayerNorm((4096,), eps=1e-05, elementwise_affine=True)
  (post_attention_layernorm): LayerNorm((4096,), eps=1e-05, elementwise_affine=True)
)
model.layers.4.self_attn
PhiMoESdpaAttention(
  (q_proj): Linear(in_features=4096, out_features=4096, bias=True)
  (k_proj): Linear(in_features=4096, out_features=1024, bias=True)
  (v_proj): Linear(in_features=4096, out_features=1024, bias=True)
  (o_proj): Linear(in_features=4096, out_features=4096, bias=True)
  (rotary_emb): Phi3LongRoPEScaledRotaryEmbedding()
)
model.layers.4.self_attn.q_proj
Linear(in_features=4096, out_features=4096, bias=True)
model.layers.4.self_attn.k_proj
Linear(in_features=4096, out_features=1024, bias=True)
model.layers.4.self_attn.v_proj
Linear(in_features=4096, out_features=1024, bias=True)
model.layers.4.self_attn.o_proj
Linear(in_features=4096, out_features=4096, bias=True)
model.layers.4.self_attn.rotary_emb
Phi3LongRoPEScaledRotaryEmbedding()
model.layers.4.block_sparse_moe
PhiMoESparseMoeBlock(
  (gate): Linear(in_features=4096, out_features=16, bias=False)
  (experts): ModuleList(
    (0-15): 16 x PhiMoEBlockSparseTop2MLP(
      (w1): Linear(in_features=4096, out_features=6400, bias=False)
      (w2): Linear(in_features=6400, out_features=4096, bias=False)
      (w3): Linear(in_features=4096, out_features=6400, bias=False)
      (act_fn): SiLU()
    )
  )
)
model.layers.4.block_sparse_moe.gate
Linear(in_features=4096, out_features=16, bias=False)
model.layers.4.block_sparse_moe.experts
ModuleList(
  (0-15): 16 x PhiMoEBlockSparseTop2MLP(
    (w1): Linear(in_features=4096, out_features=6400, bias=False)
    (w2): Linear(in_features=6400, out_features=4096, bias=False)
    (w3): Linear(in_features=4096, out_features=6400, bias=False)
    (act_fn): SiLU()
  )
)
model.layers.4.block_sparse_moe.experts.0
PhiMoEBlockSparseTop2MLP(
  (w1): Linear(in_features=4096, out_features=6400, bias=False)
  (w2): Linear(in_features=6400, out_features=4096, bias=False)
  (w3): Linear(in_features=4096, out_features=6400, bias=False)
  (act_fn): SiLU()
)
model.layers.4.block_sparse_moe.experts.0.w1
Linear(in_features=4096, out_features=6400, bias=False)
model.layers.4.block_sparse_moe.experts.0.w2
Linear(in_features=6400, out_features=4096, bias=False)
model.layers.4.block_sparse_moe.experts.0.w3
Linear(in_features=4096, out_features=6400, bias=False)
model.layers.4.block_sparse_moe.experts.0.act_fn
SiLU()
model.layers.4.block_sparse_moe.experts.1
PhiMoEBlockSparseTop2MLP(
  (w1): Linear(in_features=4096, out_features=6400, bias=False)
  (w2): Linear(in_features=6400, out_features=4096, bias=False)
  (w3): Linear(in_features=4096, out_features=6400, bias=False)
  (act_fn): SiLU()
)
model.layers.4.block_sparse_moe.experts.1.w1
Linear(in_features=4096, out_features=6400, bias=False)
model.layers.4.block_sparse_moe.experts.1.w2
Linear(in_features=6400, out_features=4096, bias=False)
model.layers.4.block_sparse_moe.experts.1.w3
Linear(in_features=4096, out_features=6400, bias=False)
model.layers.4.block_sparse_moe.experts.1.act_fn
SiLU()
model.layers.4.block_sparse_moe.experts.2
PhiMoEBlockSparseTop2MLP(
  (w1): Linear(in_features=4096, out_features=6400, bias=False)
  (w2): Linear(in_features=6400, out_features=4096, bias=False)
  (w3): Linear(in_features=4096, out_features=6400, bias=False)
  (act_fn): SiLU()
)
model.layers.4.block_sparse_moe.experts.2.w1
Linear(in_features=4096, out_features=6400, bias=False)
model.layers.4.block_sparse_moe.experts.2.w2
Linear(in_features=6400, out_features=4096, bias=False)
model.layers.4.block_sparse_moe.experts.2.w3
Linear(in_features=4096, out_features=6400, bias=False)
model.layers.4.block_sparse_moe.experts.2.act_fn
SiLU()
model.layers.4.block_sparse_moe.experts.3
PhiMoEBlockSparseTop2MLP(
  (w1): Linear(in_features=4096, out_features=6400, bias=False)
  (w2): Linear(in_features=6400, out_features=4096, bias=False)
  (w3): Linear(in_features=4096, out_features=6400, bias=False)
  (act_fn): SiLU()
)
model.layers.4.block_sparse_moe.experts.3.w1
Linear(in_features=4096, out_features=6400, bias=False)
model.layers.4.block_sparse_moe.experts.3.w2
Linear(in_features=6400, out_features=4096, bias=False)
model.layers.4.block_sparse_moe.experts.3.w3
Linear(in_features=4096, out_features=6400, bias=False)
model.layers.4.block_sparse_moe.experts.3.act_fn
SiLU()
model.layers.4.block_sparse_moe.experts.4
PhiMoEBlockSparseTop2MLP(
  (w1): Linear(in_features=4096, out_features=6400, bias=False)
  (w2): Linear(in_features=6400, out_features=4096, bias=False)
  (w3): Linear(in_features=4096, out_features=6400, bias=False)
  (act_fn): SiLU()
)
model.layers.4.block_sparse_moe.experts.4.w1
Linear(in_features=4096, out_features=6400, bias=False)
model.layers.4.block_sparse_moe.experts.4.w2
Linear(in_features=6400, out_features=4096, bias=False)
model.layers.4.block_sparse_moe.experts.4.w3
Linear(in_features=4096, out_features=6400, bias=False)
model.layers.4.block_sparse_moe.experts.4.act_fn
SiLU()
model.layers.4.block_sparse_moe.experts.5
PhiMoEBlockSparseTop2MLP(
  (w1): Linear(in_features=4096, out_features=6400, bias=False)
  (w2): Linear(in_features=6400, out_features=4096, bias=False)
  (w3): Linear(in_features=4096, out_features=6400, bias=False)
  (act_fn): SiLU()
)
model.layers.4.block_sparse_moe.experts.5.w1
Linear(in_features=4096, out_features=6400, bias=False)
model.layers.4.block_sparse_moe.experts.5.w2
Linear(in_features=6400, out_features=4096, bias=False)
model.layers.4.block_sparse_moe.experts.5.w3
Linear(in_features=4096, out_features=6400, bias=False)
model.layers.4.block_sparse_moe.experts.5.act_fn
SiLU()
model.layers.4.block_sparse_moe.experts.6
PhiMoEBlockSparseTop2MLP(
  (w1): Linear(in_features=4096, out_features=6400, bias=False)
  (w2): Linear(in_features=6400, out_features=4096, bias=False)
  (w3): Linear(in_features=4096, out_features=6400, bias=False)
  (act_fn): SiLU()
)
model.layers.4.block_sparse_moe.experts.6.w1
Linear(in_features=4096, out_features=6400, bias=False)
model.layers.4.block_sparse_moe.experts.6.w2
Linear(in_features=6400, out_features=4096, bias=False)
model.layers.4.block_sparse_moe.experts.6.w3
Linear(in_features=4096, out_features=6400, bias=False)
model.layers.4.block_sparse_moe.experts.6.act_fn
SiLU()
model.layers.4.block_sparse_moe.experts.7
PhiMoEBlockSparseTop2MLP(
  (w1): Linear(in_features=4096, out_features=6400, bias=False)
  (w2): Linear(in_features=6400, out_features=4096, bias=False)
  (w3): Linear(in_features=4096, out_features=6400, bias=False)
  (act_fn): SiLU()
)
model.layers.4.block_sparse_moe.experts.7.w1
Linear(in_features=4096, out_features=6400, bias=False)
model.layers.4.block_sparse_moe.experts.7.w2
Linear(in_features=6400, out_features=4096, bias=False)
model.layers.4.block_sparse_moe.experts.7.w3
Linear(in_features=4096, out_features=6400, bias=False)
model.layers.4.block_sparse_moe.experts.7.act_fn
SiLU()
model.layers.4.block_sparse_moe.experts.8
PhiMoEBlockSparseTop2MLP(
  (w1): Linear(in_features=4096, out_features=6400, bias=False)
  (w2): Linear(in_features=6400, out_features=4096, bias=False)
  (w3): Linear(in_features=4096, out_features=6400, bias=False)
  (act_fn): SiLU()
)
model.layers.4.block_sparse_moe.experts.8.w1
Linear(in_features=4096, out_features=6400, bias=False)
model.layers.4.block_sparse_moe.experts.8.w2
Linear(in_features=6400, out_features=4096, bias=False)
model.layers.4.block_sparse_moe.experts.8.w3
Linear(in_features=4096, out_features=6400, bias=False)
model.layers.4.block_sparse_moe.experts.8.act_fn
SiLU()
model.layers.4.block_sparse_moe.experts.9
PhiMoEBlockSparseTop2MLP(
  (w1): Linear(in_features=4096, out_features=6400, bias=False)
  (w2): Linear(in_features=6400, out_features=4096, bias=False)
  (w3): Linear(in_features=4096, out_features=6400, bias=False)
  (act_fn): SiLU()
)
model.layers.4.block_sparse_moe.experts.9.w1
Linear(in_features=4096, out_features=6400, bias=False)
model.layers.4.block_sparse_moe.experts.9.w2
Linear(in_features=6400, out_features=4096, bias=False)
model.layers.4.block_sparse_moe.experts.9.w3
Linear(in_features=4096, out_features=6400, bias=False)
model.layers.4.block_sparse_moe.experts.9.act_fn
SiLU()
model.layers.4.block_sparse_moe.experts.10
PhiMoEBlockSparseTop2MLP(
  (w1): Linear(in_features=4096, out_features=6400, bias=False)
  (w2): Linear(in_features=6400, out_features=4096, bias=False)
  (w3): Linear(in_features=4096, out_features=6400, bias=False)
  (act_fn): SiLU()
)
model.layers.4.block_sparse_moe.experts.10.w1
Linear(in_features=4096, out_features=6400, bias=False)
model.layers.4.block_sparse_moe.experts.10.w2
Linear(in_features=6400, out_features=4096, bias=False)
model.layers.4.block_sparse_moe.experts.10.w3
Linear(in_features=4096, out_features=6400, bias=False)
model.layers.4.block_sparse_moe.experts.10.act_fn
SiLU()
model.layers.4.block_sparse_moe.experts.11
PhiMoEBlockSparseTop2MLP(
  (w1): Linear(in_features=4096, out_features=6400, bias=False)
  (w2): Linear(in_features=6400, out_features=4096, bias=False)
  (w3): Linear(in_features=4096, out_features=6400, bias=False)
  (act_fn): SiLU()
)
model.layers.4.block_sparse_moe.experts.11.w1
Linear(in_features=4096, out_features=6400, bias=False)
model.layers.4.block_sparse_moe.experts.11.w2
Linear(in_features=6400, out_features=4096, bias=False)
model.layers.4.block_sparse_moe.experts.11.w3
Linear(in_features=4096, out_features=6400, bias=False)
model.layers.4.block_sparse_moe.experts.11.act_fn
SiLU()
model.layers.4.block_sparse_moe.experts.12
PhiMoEBlockSparseTop2MLP(
  (w1): Linear(in_features=4096, out_features=6400, bias=False)
  (w2): Linear(in_features=6400, out_features=4096, bias=False)
  (w3): Linear(in_features=4096, out_features=6400, bias=False)
  (act_fn): SiLU()
)
model.layers.4.block_sparse_moe.experts.12.w1
Linear(in_features=4096, out_features=6400, bias=False)
model.layers.4.block_sparse_moe.experts.12.w2
Linear(in_features=6400, out_features=4096, bias=False)
model.layers.4.block_sparse_moe.experts.12.w3
Linear(in_features=4096, out_features=6400, bias=False)
model.layers.4.block_sparse_moe.experts.12.act_fn
SiLU()
model.layers.4.block_sparse_moe.experts.13
PhiMoEBlockSparseTop2MLP(
  (w1): Linear(in_features=4096, out_features=6400, bias=False)
  (w2): Linear(in_features=6400, out_features=4096, bias=False)
  (w3): Linear(in_features=4096, out_features=6400, bias=False)
  (act_fn): SiLU()
)
model.layers.4.block_sparse_moe.experts.13.w1
Linear(in_features=4096, out_features=6400, bias=False)
model.layers.4.block_sparse_moe.experts.13.w2
Linear(in_features=6400, out_features=4096, bias=False)
model.layers.4.block_sparse_moe.experts.13.w3
Linear(in_features=4096, out_features=6400, bias=False)
model.layers.4.block_sparse_moe.experts.13.act_fn
SiLU()
model.layers.4.block_sparse_moe.experts.14
PhiMoEBlockSparseTop2MLP(
  (w1): Linear(in_features=4096, out_features=6400, bias=False)
  (w2): Linear(in_features=6400, out_features=4096, bias=False)
  (w3): Linear(in_features=4096, out_features=6400, bias=False)
  (act_fn): SiLU()
)
model.layers.4.block_sparse_moe.experts.14.w1
Linear(in_features=4096, out_features=6400, bias=False)
model.layers.4.block_sparse_moe.experts.14.w2
Linear(in_features=6400, out_features=4096, bias=False)
model.layers.4.block_sparse_moe.experts.14.w3
Linear(in_features=4096, out_features=6400, bias=False)
model.layers.4.block_sparse_moe.experts.14.act_fn
SiLU()
model.layers.4.block_sparse_moe.experts.15
PhiMoEBlockSparseTop2MLP(
  (w1): Linear(in_features=4096, out_features=6400, bias=False)
  (w2): Linear(in_features=6400, out_features=4096, bias=False)
  (w3): Linear(in_features=4096, out_features=6400, bias=False)
  (act_fn): SiLU()
)
model.layers.4.block_sparse_moe.experts.15.w1
Linear(in_features=4096, out_features=6400, bias=False)
model.layers.4.block_sparse_moe.experts.15.w2
Linear(in_features=6400, out_features=4096, bias=False)
model.layers.4.block_sparse_moe.experts.15.w3
Linear(in_features=4096, out_features=6400, bias=False)
model.layers.4.block_sparse_moe.experts.15.act_fn
SiLU()
model.layers.4.input_layernorm
LayerNorm((4096,), eps=1e-05, elementwise_affine=True)
model.layers.4.post_attention_layernorm
LayerNorm((4096,), eps=1e-05, elementwise_affine=True)
model.layers.5
PhiMoEDecoderLayer(
  (self_attn): PhiMoESdpaAttention(
    (q_proj): Linear(in_features=4096, out_features=4096, bias=True)
    (k_proj): Linear(in_features=4096, out_features=1024, bias=True)
    (v_proj): Linear(in_features=4096, out_features=1024, bias=True)
    (o_proj): Linear(in_features=4096, out_features=4096, bias=True)
    (rotary_emb): Phi3LongRoPEScaledRotaryEmbedding()
  )
  (block_sparse_moe): PhiMoESparseMoeBlock(
    (gate): Linear(in_features=4096, out_features=16, bias=False)
    (experts): ModuleList(
      (0-15): 16 x PhiMoEBlockSparseTop2MLP(
        (w1): Linear(in_features=4096, out_features=6400, bias=False)
        (w2): Linear(in_features=6400, out_features=4096, bias=False)
        (w3): Linear(in_features=4096, out_features=6400, bias=False)
        (act_fn): SiLU()
      )
    )
  )
  (input_layernorm): LayerNorm((4096,), eps=1e-05, elementwise_affine=True)
  (post_attention_layernorm): LayerNorm((4096,), eps=1e-05, elementwise_affine=True)
)
model.layers.5.self_attn
PhiMoESdpaAttention(
  (q_proj): Linear(in_features=4096, out_features=4096, bias=True)
  (k_proj): Linear(in_features=4096, out_features=1024, bias=True)
  (v_proj): Linear(in_features=4096, out_features=1024, bias=True)
  (o_proj): Linear(in_features=4096, out_features=4096, bias=True)
  (rotary_emb): Phi3LongRoPEScaledRotaryEmbedding()
)
model.layers.5.self_attn.q_proj
Linear(in_features=4096, out_features=4096, bias=True)
model.layers.5.self_attn.k_proj
Linear(in_features=4096, out_features=1024, bias=True)
model.layers.5.self_attn.v_proj
Linear(in_features=4096, out_features=1024, bias=True)
model.layers.5.self_attn.o_proj
Linear(in_features=4096, out_features=4096, bias=True)
model.layers.5.self_attn.rotary_emb
Phi3LongRoPEScaledRotaryEmbedding()
model.layers.5.block_sparse_moe
PhiMoESparseMoeBlock(
  (gate): Linear(in_features=4096, out_features=16, bias=False)
  (experts): ModuleList(
    (0-15): 16 x PhiMoEBlockSparseTop2MLP(
      (w1): Linear(in_features=4096, out_features=6400, bias=False)
      (w2): Linear(in_features=6400, out_features=4096, bias=False)
      (w3): Linear(in_features=4096, out_features=6400, bias=False)
      (act_fn): SiLU()
    )
  )
)
model.layers.5.block_sparse_moe.gate
Linear(in_features=4096, out_features=16, bias=False)
model.layers.5.block_sparse_moe.experts
ModuleList(
  (0-15): 16 x PhiMoEBlockSparseTop2MLP(
    (w1): Linear(in_features=4096, out_features=6400, bias=False)
    (w2): Linear(in_features=6400, out_features=4096, bias=False)
    (w3): Linear(in_features=4096, out_features=6400, bias=False)
    (act_fn): SiLU()
  )
)
model.layers.5.block_sparse_moe.experts.0
PhiMoEBlockSparseTop2MLP(
  (w1): Linear(in_features=4096, out_features=6400, bias=False)
  (w2): Linear(in_features=6400, out_features=4096, bias=False)
  (w3): Linear(in_features=4096, out_features=6400, bias=False)
  (act_fn): SiLU()
)
model.layers.5.block_sparse_moe.experts.0.w1
Linear(in_features=4096, out_features=6400, bias=False)
model.layers.5.block_sparse_moe.experts.0.w2
Linear(in_features=6400, out_features=4096, bias=False)
model.layers.5.block_sparse_moe.experts.0.w3
Linear(in_features=4096, out_features=6400, bias=False)
model.layers.5.block_sparse_moe.experts.0.act_fn
SiLU()
model.layers.5.block_sparse_moe.experts.1
PhiMoEBlockSparseTop2MLP(
  (w1): Linear(in_features=4096, out_features=6400, bias=False)
  (w2): Linear(in_features=6400, out_features=4096, bias=False)
  (w3): Linear(in_features=4096, out_features=6400, bias=False)
  (act_fn): SiLU()
)
model.layers.5.block_sparse_moe.experts.1.w1
Linear(in_features=4096, out_features=6400, bias=False)
model.layers.5.block_sparse_moe.experts.1.w2
Linear(in_features=6400, out_features=4096, bias=False)
model.layers.5.block_sparse_moe.experts.1.w3
Linear(in_features=4096, out_features=6400, bias=False)
model.layers.5.block_sparse_moe.experts.1.act_fn
SiLU()
model.layers.5.block_sparse_moe.experts.2
PhiMoEBlockSparseTop2MLP(
  (w1): Linear(in_features=4096, out_features=6400, bias=False)
  (w2): Linear(in_features=6400, out_features=4096, bias=False)
  (w3): Linear(in_features=4096, out_features=6400, bias=False)
  (act_fn): SiLU()
)
model.layers.5.block_sparse_moe.experts.2.w1
Linear(in_features=4096, out_features=6400, bias=False)
model.layers.5.block_sparse_moe.experts.2.w2
Linear(in_features=6400, out_features=4096, bias=False)
model.layers.5.block_sparse_moe.experts.2.w3
Linear(in_features=4096, out_features=6400, bias=False)
model.layers.5.block_sparse_moe.experts.2.act_fn
SiLU()
model.layers.5.block_sparse_moe.experts.3
PhiMoEBlockSparseTop2MLP(
  (w1): Linear(in_features=4096, out_features=6400, bias=False)
  (w2): Linear(in_features=6400, out_features=4096, bias=False)
  (w3): Linear(in_features=4096, out_features=6400, bias=False)
  (act_fn): SiLU()
)
model.layers.5.block_sparse_moe.experts.3.w1
Linear(in_features=4096, out_features=6400, bias=False)
model.layers.5.block_sparse_moe.experts.3.w2
Linear(in_features=6400, out_features=4096, bias=False)
model.layers.5.block_sparse_moe.experts.3.w3
Linear(in_features=4096, out_features=6400, bias=False)
model.layers.5.block_sparse_moe.experts.3.act_fn
SiLU()
model.layers.5.block_sparse_moe.experts.4
PhiMoEBlockSparseTop2MLP(
  (w1): Linear(in_features=4096, out_features=6400, bias=False)
  (w2): Linear(in_features=6400, out_features=4096, bias=False)
  (w3): Linear(in_features=4096, out_features=6400, bias=False)
  (act_fn): SiLU()
)
model.layers.5.block_sparse_moe.experts.4.w1
Linear(in_features=4096, out_features=6400, bias=False)
model.layers.5.block_sparse_moe.experts.4.w2
Linear(in_features=6400, out_features=4096, bias=False)
model.layers.5.block_sparse_moe.experts.4.w3
Linear(in_features=4096, out_features=6400, bias=False)
model.layers.5.block_sparse_moe.experts.4.act_fn
SiLU()
model.layers.5.block_sparse_moe.experts.5
PhiMoEBlockSparseTop2MLP(
  (w1): Linear(in_features=4096, out_features=6400, bias=False)
  (w2): Linear(in_features=6400, out_features=4096, bias=False)
  (w3): Linear(in_features=4096, out_features=6400, bias=False)
  (act_fn): SiLU()
)
model.layers.5.block_sparse_moe.experts.5.w1
Linear(in_features=4096, out_features=6400, bias=False)
model.layers.5.block_sparse_moe.experts.5.w2
Linear(in_features=6400, out_features=4096, bias=False)
model.layers.5.block_sparse_moe.experts.5.w3
Linear(in_features=4096, out_features=6400, bias=False)
model.layers.5.block_sparse_moe.experts.5.act_fn
SiLU()
model.layers.5.block_sparse_moe.experts.6
PhiMoEBlockSparseTop2MLP(
  (w1): Linear(in_features=4096, out_features=6400, bias=False)
  (w2): Linear(in_features=6400, out_features=4096, bias=False)
  (w3): Linear(in_features=4096, out_features=6400, bias=False)
  (act_fn): SiLU()
)
model.layers.5.block_sparse_moe.experts.6.w1
Linear(in_features=4096, out_features=6400, bias=False)
model.layers.5.block_sparse_moe.experts.6.w2
Linear(in_features=6400, out_features=4096, bias=False)
model.layers.5.block_sparse_moe.experts.6.w3
Linear(in_features=4096, out_features=6400, bias=False)
model.layers.5.block_sparse_moe.experts.6.act_fn
SiLU()
model.layers.5.block_sparse_moe.experts.7
PhiMoEBlockSparseTop2MLP(
  (w1): Linear(in_features=4096, out_features=6400, bias=False)
  (w2): Linear(in_features=6400, out_features=4096, bias=False)
  (w3): Linear(in_features=4096, out_features=6400, bias=False)
  (act_fn): SiLU()
)
model.layers.5.block_sparse_moe.experts.7.w1
Linear(in_features=4096, out_features=6400, bias=False)
model.layers.5.block_sparse_moe.experts.7.w2
Linear(in_features=6400, out_features=4096, bias=False)
model.layers.5.block_sparse_moe.experts.7.w3
Linear(in_features=4096, out_features=6400, bias=False)
model.layers.5.block_sparse_moe.experts.7.act_fn
SiLU()
model.layers.5.block_sparse_moe.experts.8
PhiMoEBlockSparseTop2MLP(
  (w1): Linear(in_features=4096, out_features=6400, bias=False)
  (w2): Linear(in_features=6400, out_features=4096, bias=False)
  (w3): Linear(in_features=4096, out_features=6400, bias=False)
  (act_fn): SiLU()
)
model.layers.5.block_sparse_moe.experts.8.w1
Linear(in_features=4096, out_features=6400, bias=False)
model.layers.5.block_sparse_moe.experts.8.w2
Linear(in_features=6400, out_features=4096, bias=False)
model.layers.5.block_sparse_moe.experts.8.w3
Linear(in_features=4096, out_features=6400, bias=False)
model.layers.5.block_sparse_moe.experts.8.act_fn
SiLU()
model.layers.5.block_sparse_moe.experts.9
PhiMoEBlockSparseTop2MLP(
  (w1): Linear(in_features=4096, out_features=6400, bias=False)
  (w2): Linear(in_features=6400, out_features=4096, bias=False)
  (w3): Linear(in_features=4096, out_features=6400, bias=False)
  (act_fn): SiLU()
)
model.layers.5.block_sparse_moe.experts.9.w1
Linear(in_features=4096, out_features=6400, bias=False)
model.layers.5.block_sparse_moe.experts.9.w2
Linear(in_features=6400, out_features=4096, bias=False)
model.layers.5.block_sparse_moe.experts.9.w3
Linear(in_features=4096, out_features=6400, bias=False)
model.layers.5.block_sparse_moe.experts.9.act_fn
SiLU()
model.layers.5.block_sparse_moe.experts.10
PhiMoEBlockSparseTop2MLP(
  (w1): Linear(in_features=4096, out_features=6400, bias=False)
  (w2): Linear(in_features=6400, out_features=4096, bias=False)
  (w3): Linear(in_features=4096, out_features=6400, bias=False)
  (act_fn): SiLU()
)
model.layers.5.block_sparse_moe.experts.10.w1
Linear(in_features=4096, out_features=6400, bias=False)
model.layers.5.block_sparse_moe.experts.10.w2
Linear(in_features=6400, out_features=4096, bias=False)
model.layers.5.block_sparse_moe.experts.10.w3
Linear(in_features=4096, out_features=6400, bias=False)
model.layers.5.block_sparse_moe.experts.10.act_fn
SiLU()
model.layers.5.block_sparse_moe.experts.11
PhiMoEBlockSparseTop2MLP(
  (w1): Linear(in_features=4096, out_features=6400, bias=False)
  (w2): Linear(in_features=6400, out_features=4096, bias=False)
  (w3): Linear(in_features=4096, out_features=6400, bias=False)
  (act_fn): SiLU()
)
model.layers.5.block_sparse_moe.experts.11.w1
Linear(in_features=4096, out_features=6400, bias=False)
model.layers.5.block_sparse_moe.experts.11.w2
Linear(in_features=6400, out_features=4096, bias=False)
model.layers.5.block_sparse_moe.experts.11.w3
Linear(in_features=4096, out_features=6400, bias=False)
model.layers.5.block_sparse_moe.experts.11.act_fn
SiLU()
model.layers.5.block_sparse_moe.experts.12
PhiMoEBlockSparseTop2MLP(
  (w1): Linear(in_features=4096, out_features=6400, bias=False)
  (w2): Linear(in_features=6400, out_features=4096, bias=False)
  (w3): Linear(in_features=4096, out_features=6400, bias=False)
  (act_fn): SiLU()
)
model.layers.5.block_sparse_moe.experts.12.w1
Linear(in_features=4096, out_features=6400, bias=False)
model.layers.5.block_sparse_moe.experts.12.w2
Linear(in_features=6400, out_features=4096, bias=False)
model.layers.5.block_sparse_moe.experts.12.w3
Linear(in_features=4096, out_features=6400, bias=False)
model.layers.5.block_sparse_moe.experts.12.act_fn
SiLU()
model.layers.5.block_sparse_moe.experts.13
PhiMoEBlockSparseTop2MLP(
  (w1): Linear(in_features=4096, out_features=6400, bias=False)
  (w2): Linear(in_features=6400, out_features=4096, bias=False)
  (w3): Linear(in_features=4096, out_features=6400, bias=False)
  (act_fn): SiLU()
)
model.layers.5.block_sparse_moe.experts.13.w1
Linear(in_features=4096, out_features=6400, bias=False)
model.layers.5.block_sparse_moe.experts.13.w2
Linear(in_features=6400, out_features=4096, bias=False)
model.layers.5.block_sparse_moe.experts.13.w3
Linear(in_features=4096, out_features=6400, bias=False)
model.layers.5.block_sparse_moe.experts.13.act_fn
SiLU()
model.layers.5.block_sparse_moe.experts.14
PhiMoEBlockSparseTop2MLP(
  (w1): Linear(in_features=4096, out_features=6400, bias=False)
  (w2): Linear(in_features=6400, out_features=4096, bias=False)
  (w3): Linear(in_features=4096, out_features=6400, bias=False)
  (act_fn): SiLU()
)
model.layers.5.block_sparse_moe.experts.14.w1
Linear(in_features=4096, out_features=6400, bias=False)
model.layers.5.block_sparse_moe.experts.14.w2
Linear(in_features=6400, out_features=4096, bias=False)
model.layers.5.block_sparse_moe.experts.14.w3
Linear(in_features=4096, out_features=6400, bias=False)
model.layers.5.block_sparse_moe.experts.14.act_fn
SiLU()
model.layers.5.block_sparse_moe.experts.15
PhiMoEBlockSparseTop2MLP(
  (w1): Linear(in_features=4096, out_features=6400, bias=False)
  (w2): Linear(in_features=6400, out_features=4096, bias=False)
  (w3): Linear(in_features=4096, out_features=6400, bias=False)
  (act_fn): SiLU()
)
model.layers.5.block_sparse_moe.experts.15.w1
Linear(in_features=4096, out_features=6400, bias=False)
model.layers.5.block_sparse_moe.experts.15.w2
Linear(in_features=6400, out_features=4096, bias=False)
model.layers.5.block_sparse_moe.experts.15.w3
Linear(in_features=4096, out_features=6400, bias=False)
model.layers.5.block_sparse_moe.experts.15.act_fn
SiLU()
model.layers.5.input_layernorm
LayerNorm((4096,), eps=1e-05, elementwise_affine=True)
model.layers.5.post_attention_layernorm
LayerNorm((4096,), eps=1e-05, elementwise_affine=True)
model.layers.6
PhiMoEDecoderLayer(
  (self_attn): PhiMoESdpaAttention(
    (q_proj): Linear(in_features=4096, out_features=4096, bias=True)
    (k_proj): Linear(in_features=4096, out_features=1024, bias=True)
    (v_proj): Linear(in_features=4096, out_features=1024, bias=True)
    (o_proj): Linear(in_features=4096, out_features=4096, bias=True)
    (rotary_emb): Phi3LongRoPEScaledRotaryEmbedding()
  )
  (block_sparse_moe): PhiMoESparseMoeBlock(
    (gate): Linear(in_features=4096, out_features=16, bias=False)
    (experts): ModuleList(
      (0-15): 16 x PhiMoEBlockSparseTop2MLP(
        (w1): Linear(in_features=4096, out_features=6400, bias=False)
        (w2): Linear(in_features=6400, out_features=4096, bias=False)
        (w3): Linear(in_features=4096, out_features=6400, bias=False)
        (act_fn): SiLU()
      )
    )
  )
  (input_layernorm): LayerNorm((4096,), eps=1e-05, elementwise_affine=True)
  (post_attention_layernorm): LayerNorm((4096,), eps=1e-05, elementwise_affine=True)
)
model.layers.6.self_attn
PhiMoESdpaAttention(
  (q_proj): Linear(in_features=4096, out_features=4096, bias=True)
  (k_proj): Linear(in_features=4096, out_features=1024, bias=True)
  (v_proj): Linear(in_features=4096, out_features=1024, bias=True)
  (o_proj): Linear(in_features=4096, out_features=4096, bias=True)
  (rotary_emb): Phi3LongRoPEScaledRotaryEmbedding()
)
model.layers.6.self_attn.q_proj
Linear(in_features=4096, out_features=4096, bias=True)
model.layers.6.self_attn.k_proj
Linear(in_features=4096, out_features=1024, bias=True)
model.layers.6.self_attn.v_proj
Linear(in_features=4096, out_features=1024, bias=True)
model.layers.6.self_attn.o_proj
Linear(in_features=4096, out_features=4096, bias=True)
model.layers.6.self_attn.rotary_emb
Phi3LongRoPEScaledRotaryEmbedding()
model.layers.6.block_sparse_moe
PhiMoESparseMoeBlock(
  (gate): Linear(in_features=4096, out_features=16, bias=False)
  (experts): ModuleList(
    (0-15): 16 x PhiMoEBlockSparseTop2MLP(
      (w1): Linear(in_features=4096, out_features=6400, bias=False)
      (w2): Linear(in_features=6400, out_features=4096, bias=False)
      (w3): Linear(in_features=4096, out_features=6400, bias=False)
      (act_fn): SiLU()
    )
  )
)
model.layers.6.block_sparse_moe.gate
Linear(in_features=4096, out_features=16, bias=False)
model.layers.6.block_sparse_moe.experts
ModuleList(
  (0-15): 16 x PhiMoEBlockSparseTop2MLP(
    (w1): Linear(in_features=4096, out_features=6400, bias=False)
    (w2): Linear(in_features=6400, out_features=4096, bias=False)
    (w3): Linear(in_features=4096, out_features=6400, bias=False)
    (act_fn): SiLU()
  )
)
model.layers.6.block_sparse_moe.experts.0
PhiMoEBlockSparseTop2MLP(
  (w1): Linear(in_features=4096, out_features=6400, bias=False)
  (w2): Linear(in_features=6400, out_features=4096, bias=False)
  (w3): Linear(in_features=4096, out_features=6400, bias=False)
  (act_fn): SiLU()
)
model.layers.6.block_sparse_moe.experts.0.w1
Linear(in_features=4096, out_features=6400, bias=False)
model.layers.6.block_sparse_moe.experts.0.w2
Linear(in_features=6400, out_features=4096, bias=False)
model.layers.6.block_sparse_moe.experts.0.w3
Linear(in_features=4096, out_features=6400, bias=False)
model.layers.6.block_sparse_moe.experts.0.act_fn
SiLU()
model.layers.6.block_sparse_moe.experts.1
PhiMoEBlockSparseTop2MLP(
  (w1): Linear(in_features=4096, out_features=6400, bias=False)
  (w2): Linear(in_features=6400, out_features=4096, bias=False)
  (w3): Linear(in_features=4096, out_features=6400, bias=False)
  (act_fn): SiLU()
)
model.layers.6.block_sparse_moe.experts.1.w1
Linear(in_features=4096, out_features=6400, bias=False)
model.layers.6.block_sparse_moe.experts.1.w2
Linear(in_features=6400, out_features=4096, bias=False)
model.layers.6.block_sparse_moe.experts.1.w3
Linear(in_features=4096, out_features=6400, bias=False)
model.layers.6.block_sparse_moe.experts.1.act_fn
SiLU()
model.layers.6.block_sparse_moe.experts.2
PhiMoEBlockSparseTop2MLP(
  (w1): Linear(in_features=4096, out_features=6400, bias=False)
  (w2): Linear(in_features=6400, out_features=4096, bias=False)
  (w3): Linear(in_features=4096, out_features=6400, bias=False)
  (act_fn): SiLU()
)
model.layers.6.block_sparse_moe.experts.2.w1
Linear(in_features=4096, out_features=6400, bias=False)
model.layers.6.block_sparse_moe.experts.2.w2
Linear(in_features=6400, out_features=4096, bias=False)
model.layers.6.block_sparse_moe.experts.2.w3
Linear(in_features=4096, out_features=6400, bias=False)
model.layers.6.block_sparse_moe.experts.2.act_fn
SiLU()
model.layers.6.block_sparse_moe.experts.3
PhiMoEBlockSparseTop2MLP(
  (w1): Linear(in_features=4096, out_features=6400, bias=False)
  (w2): Linear(in_features=6400, out_features=4096, bias=False)
  (w3): Linear(in_features=4096, out_features=6400, bias=False)
  (act_fn): SiLU()
)
model.layers.6.block_sparse_moe.experts.3.w1
Linear(in_features=4096, out_features=6400, bias=False)
model.layers.6.block_sparse_moe.experts.3.w2
Linear(in_features=6400, out_features=4096, bias=False)
model.layers.6.block_sparse_moe.experts.3.w3
Linear(in_features=4096, out_features=6400, bias=False)
model.layers.6.block_sparse_moe.experts.3.act_fn
SiLU()
model.layers.6.block_sparse_moe.experts.4
PhiMoEBlockSparseTop2MLP(
  (w1): Linear(in_features=4096, out_features=6400, bias=False)
  (w2): Linear(in_features=6400, out_features=4096, bias=False)
  (w3): Linear(in_features=4096, out_features=6400, bias=False)
  (act_fn): SiLU()
)
model.layers.6.block_sparse_moe.experts.4.w1
Linear(in_features=4096, out_features=6400, bias=False)
model.layers.6.block_sparse_moe.experts.4.w2
Linear(in_features=6400, out_features=4096, bias=False)
model.layers.6.block_sparse_moe.experts.4.w3
Linear(in_features=4096, out_features=6400, bias=False)
model.layers.6.block_sparse_moe.experts.4.act_fn
SiLU()
model.layers.6.block_sparse_moe.experts.5
PhiMoEBlockSparseTop2MLP(
  (w1): Linear(in_features=4096, out_features=6400, bias=False)
  (w2): Linear(in_features=6400, out_features=4096, bias=False)
  (w3): Linear(in_features=4096, out_features=6400, bias=False)
  (act_fn): SiLU()
)
model.layers.6.block_sparse_moe.experts.5.w1
Linear(in_features=4096, out_features=6400, bias=False)
model.layers.6.block_sparse_moe.experts.5.w2
Linear(in_features=6400, out_features=4096, bias=False)
model.layers.6.block_sparse_moe.experts.5.w3
Linear(in_features=4096, out_features=6400, bias=False)
model.layers.6.block_sparse_moe.experts.5.act_fn
SiLU()
model.layers.6.block_sparse_moe.experts.6
PhiMoEBlockSparseTop2MLP(
  (w1): Linear(in_features=4096, out_features=6400, bias=False)
  (w2): Linear(in_features=6400, out_features=4096, bias=False)
  (w3): Linear(in_features=4096, out_features=6400, bias=False)
  (act_fn): SiLU()
)
model.layers.6.block_sparse_moe.experts.6.w1
Linear(in_features=4096, out_features=6400, bias=False)
model.layers.6.block_sparse_moe.experts.6.w2
Linear(in_features=6400, out_features=4096, bias=False)
model.layers.6.block_sparse_moe.experts.6.w3
Linear(in_features=4096, out_features=6400, bias=False)
model.layers.6.block_sparse_moe.experts.6.act_fn
SiLU()
model.layers.6.block_sparse_moe.experts.7
PhiMoEBlockSparseTop2MLP(
  (w1): Linear(in_features=4096, out_features=6400, bias=False)
  (w2): Linear(in_features=6400, out_features=4096, bias=False)
  (w3): Linear(in_features=4096, out_features=6400, bias=False)
  (act_fn): SiLU()
)
model.layers.6.block_sparse_moe.experts.7.w1
Linear(in_features=4096, out_features=6400, bias=False)
model.layers.6.block_sparse_moe.experts.7.w2
Linear(in_features=6400, out_features=4096, bias=False)
model.layers.6.block_sparse_moe.experts.7.w3
Linear(in_features=4096, out_features=6400, bias=False)
model.layers.6.block_sparse_moe.experts.7.act_fn
SiLU()
model.layers.6.block_sparse_moe.experts.8
PhiMoEBlockSparseTop2MLP(
  (w1): Linear(in_features=4096, out_features=6400, bias=False)
  (w2): Linear(in_features=6400, out_features=4096, bias=False)
  (w3): Linear(in_features=4096, out_features=6400, bias=False)
  (act_fn): SiLU()
)
model.layers.6.block_sparse_moe.experts.8.w1
Linear(in_features=4096, out_features=6400, bias=False)
model.layers.6.block_sparse_moe.experts.8.w2
Linear(in_features=6400, out_features=4096, bias=False)
model.layers.6.block_sparse_moe.experts.8.w3
Linear(in_features=4096, out_features=6400, bias=False)
model.layers.6.block_sparse_moe.experts.8.act_fn
SiLU()
model.layers.6.block_sparse_moe.experts.9
PhiMoEBlockSparseTop2MLP(
  (w1): Linear(in_features=4096, out_features=6400, bias=False)
  (w2): Linear(in_features=6400, out_features=4096, bias=False)
  (w3): Linear(in_features=4096, out_features=6400, bias=False)
  (act_fn): SiLU()
)
model.layers.6.block_sparse_moe.experts.9.w1
Linear(in_features=4096, out_features=6400, bias=False)
model.layers.6.block_sparse_moe.experts.9.w2
Linear(in_features=6400, out_features=4096, bias=False)
model.layers.6.block_sparse_moe.experts.9.w3
Linear(in_features=4096, out_features=6400, bias=False)
model.layers.6.block_sparse_moe.experts.9.act_fn
SiLU()
model.layers.6.block_sparse_moe.experts.10
PhiMoEBlockSparseTop2MLP(
  (w1): Linear(in_features=4096, out_features=6400, bias=False)
  (w2): Linear(in_features=6400, out_features=4096, bias=False)
  (w3): Linear(in_features=4096, out_features=6400, bias=False)
  (act_fn): SiLU()
)
model.layers.6.block_sparse_moe.experts.10.w1
Linear(in_features=4096, out_features=6400, bias=False)
model.layers.6.block_sparse_moe.experts.10.w2
Linear(in_features=6400, out_features=4096, bias=False)
model.layers.6.block_sparse_moe.experts.10.w3
Linear(in_features=4096, out_features=6400, bias=False)
model.layers.6.block_sparse_moe.experts.10.act_fn
SiLU()
model.layers.6.block_sparse_moe.experts.11
PhiMoEBlockSparseTop2MLP(
  (w1): Linear(in_features=4096, out_features=6400, bias=False)
  (w2): Linear(in_features=6400, out_features=4096, bias=False)
  (w3): Linear(in_features=4096, out_features=6400, bias=False)
  (act_fn): SiLU()
)
model.layers.6.block_sparse_moe.experts.11.w1
Linear(in_features=4096, out_features=6400, bias=False)
model.layers.6.block_sparse_moe.experts.11.w2
Linear(in_features=6400, out_features=4096, bias=False)
model.layers.6.block_sparse_moe.experts.11.w3
Linear(in_features=4096, out_features=6400, bias=False)
model.layers.6.block_sparse_moe.experts.11.act_fn
SiLU()
model.layers.6.block_sparse_moe.experts.12
PhiMoEBlockSparseTop2MLP(
  (w1): Linear(in_features=4096, out_features=6400, bias=False)
  (w2): Linear(in_features=6400, out_features=4096, bias=False)
  (w3): Linear(in_features=4096, out_features=6400, bias=False)
  (act_fn): SiLU()
)
model.layers.6.block_sparse_moe.experts.12.w1
Linear(in_features=4096, out_features=6400, bias=False)
model.layers.6.block_sparse_moe.experts.12.w2
Linear(in_features=6400, out_features=4096, bias=False)
model.layers.6.block_sparse_moe.experts.12.w3
Linear(in_features=4096, out_features=6400, bias=False)
model.layers.6.block_sparse_moe.experts.12.act_fn
SiLU()
model.layers.6.block_sparse_moe.experts.13
PhiMoEBlockSparseTop2MLP(
  (w1): Linear(in_features=4096, out_features=6400, bias=False)
  (w2): Linear(in_features=6400, out_features=4096, bias=False)
  (w3): Linear(in_features=4096, out_features=6400, bias=False)
  (act_fn): SiLU()
)
model.layers.6.block_sparse_moe.experts.13.w1
Linear(in_features=4096, out_features=6400, bias=False)
model.layers.6.block_sparse_moe.experts.13.w2
Linear(in_features=6400, out_features=4096, bias=False)
model.layers.6.block_sparse_moe.experts.13.w3
Linear(in_features=4096, out_features=6400, bias=False)
model.layers.6.block_sparse_moe.experts.13.act_fn
SiLU()
model.layers.6.block_sparse_moe.experts.14
PhiMoEBlockSparseTop2MLP(
  (w1): Linear(in_features=4096, out_features=6400, bias=False)
  (w2): Linear(in_features=6400, out_features=4096, bias=False)
  (w3): Linear(in_features=4096, out_features=6400, bias=False)
  (act_fn): SiLU()
)
model.layers.6.block_sparse_moe.experts.14.w1
Linear(in_features=4096, out_features=6400, bias=False)
model.layers.6.block_sparse_moe.experts.14.w2
Linear(in_features=6400, out_features=4096, bias=False)
model.layers.6.block_sparse_moe.experts.14.w3
Linear(in_features=4096, out_features=6400, bias=False)
model.layers.6.block_sparse_moe.experts.14.act_fn
SiLU()
model.layers.6.block_sparse_moe.experts.15
PhiMoEBlockSparseTop2MLP(
  (w1): Linear(in_features=4096, out_features=6400, bias=False)
  (w2): Linear(in_features=6400, out_features=4096, bias=False)
  (w3): Linear(in_features=4096, out_features=6400, bias=False)
  (act_fn): SiLU()
)
model.layers.6.block_sparse_moe.experts.15.w1
Linear(in_features=4096, out_features=6400, bias=False)
model.layers.6.block_sparse_moe.experts.15.w2
Linear(in_features=6400, out_features=4096, bias=False)
model.layers.6.block_sparse_moe.experts.15.w3
Linear(in_features=4096, out_features=6400, bias=False)
model.layers.6.block_sparse_moe.experts.15.act_fn
SiLU()
model.layers.6.input_layernorm
LayerNorm((4096,), eps=1e-05, elementwise_affine=True)
model.layers.6.post_attention_layernorm
LayerNorm((4096,), eps=1e-05, elementwise_affine=True)
model.layers.7
PhiMoEDecoderLayer(
  (self_attn): PhiMoESdpaAttention(
    (q_proj): Linear(in_features=4096, out_features=4096, bias=True)
    (k_proj): Linear(in_features=4096, out_features=1024, bias=True)
    (v_proj): Linear(in_features=4096, out_features=1024, bias=True)
    (o_proj): Linear(in_features=4096, out_features=4096, bias=True)
    (rotary_emb): Phi3LongRoPEScaledRotaryEmbedding()
  )
  (block_sparse_moe): PhiMoESparseMoeBlock(
    (gate): Linear(in_features=4096, out_features=16, bias=False)
    (experts): ModuleList(
      (0-15): 16 x PhiMoEBlockSparseTop2MLP(
        (w1): Linear(in_features=4096, out_features=6400, bias=False)
        (w2): Linear(in_features=6400, out_features=4096, bias=False)
        (w3): Linear(in_features=4096, out_features=6400, bias=False)
        (act_fn): SiLU()
      )
    )
  )
  (input_layernorm): LayerNorm((4096,), eps=1e-05, elementwise_affine=True)
  (post_attention_layernorm): LayerNorm((4096,), eps=1e-05, elementwise_affine=True)
)
model.layers.7.self_attn
PhiMoESdpaAttention(
  (q_proj): Linear(in_features=4096, out_features=4096, bias=True)
  (k_proj): Linear(in_features=4096, out_features=1024, bias=True)
  (v_proj): Linear(in_features=4096, out_features=1024, bias=True)
  (o_proj): Linear(in_features=4096, out_features=4096, bias=True)
  (rotary_emb): Phi3LongRoPEScaledRotaryEmbedding()
)
model.layers.7.self_attn.q_proj
Linear(in_features=4096, out_features=4096, bias=True)
model.layers.7.self_attn.k_proj
Linear(in_features=4096, out_features=1024, bias=True)
model.layers.7.self_attn.v_proj
Linear(in_features=4096, out_features=1024, bias=True)
model.layers.7.self_attn.o_proj
Linear(in_features=4096, out_features=4096, bias=True)
model.layers.7.self_attn.rotary_emb
Phi3LongRoPEScaledRotaryEmbedding()
model.layers.7.block_sparse_moe
PhiMoESparseMoeBlock(
  (gate): Linear(in_features=4096, out_features=16, bias=False)
  (experts): ModuleList(
    (0-15): 16 x PhiMoEBlockSparseTop2MLP(
      (w1): Linear(in_features=4096, out_features=6400, bias=False)
      (w2): Linear(in_features=6400, out_features=4096, bias=False)
      (w3): Linear(in_features=4096, out_features=6400, bias=False)
      (act_fn): SiLU()
    )
  )
)
model.layers.7.block_sparse_moe.gate
Linear(in_features=4096, out_features=16, bias=False)
model.layers.7.block_sparse_moe.experts
ModuleList(
  (0-15): 16 x PhiMoEBlockSparseTop2MLP(
    (w1): Linear(in_features=4096, out_features=6400, bias=False)
    (w2): Linear(in_features=6400, out_features=4096, bias=False)
    (w3): Linear(in_features=4096, out_features=6400, bias=False)
    (act_fn): SiLU()
  )
)
model.layers.7.block_sparse_moe.experts.0
PhiMoEBlockSparseTop2MLP(
  (w1): Linear(in_features=4096, out_features=6400, bias=False)
  (w2): Linear(in_features=6400, out_features=4096, bias=False)
  (w3): Linear(in_features=4096, out_features=6400, bias=False)
  (act_fn): SiLU()
)
model.layers.7.block_sparse_moe.experts.0.w1
Linear(in_features=4096, out_features=6400, bias=False)
model.layers.7.block_sparse_moe.experts.0.w2
Linear(in_features=6400, out_features=4096, bias=False)
model.layers.7.block_sparse_moe.experts.0.w3
Linear(in_features=4096, out_features=6400, bias=False)
model.layers.7.block_sparse_moe.experts.0.act_fn
SiLU()
model.layers.7.block_sparse_moe.experts.1
PhiMoEBlockSparseTop2MLP(
  (w1): Linear(in_features=4096, out_features=6400, bias=False)
  (w2): Linear(in_features=6400, out_features=4096, bias=False)
  (w3): Linear(in_features=4096, out_features=6400, bias=False)
  (act_fn): SiLU()
)
model.layers.7.block_sparse_moe.experts.1.w1
Linear(in_features=4096, out_features=6400, bias=False)
model.layers.7.block_sparse_moe.experts.1.w2
Linear(in_features=6400, out_features=4096, bias=False)
model.layers.7.block_sparse_moe.experts.1.w3
Linear(in_features=4096, out_features=6400, bias=False)
model.layers.7.block_sparse_moe.experts.1.act_fn
SiLU()
model.layers.7.block_sparse_moe.experts.2
PhiMoEBlockSparseTop2MLP(
  (w1): Linear(in_features=4096, out_features=6400, bias=False)
  (w2): Linear(in_features=6400, out_features=4096, bias=False)
  (w3): Linear(in_features=4096, out_features=6400, bias=False)
  (act_fn): SiLU()
)
model.layers.7.block_sparse_moe.experts.2.w1
Linear(in_features=4096, out_features=6400, bias=False)
model.layers.7.block_sparse_moe.experts.2.w2
Linear(in_features=6400, out_features=4096, bias=False)
model.layers.7.block_sparse_moe.experts.2.w3
Linear(in_features=4096, out_features=6400, bias=False)
model.layers.7.block_sparse_moe.experts.2.act_fn
SiLU()
model.layers.7.block_sparse_moe.experts.3
PhiMoEBlockSparseTop2MLP(
  (w1): Linear(in_features=4096, out_features=6400, bias=False)
  (w2): Linear(in_features=6400, out_features=4096, bias=False)
  (w3): Linear(in_features=4096, out_features=6400, bias=False)
  (act_fn): SiLU()
)
model.layers.7.block_sparse_moe.experts.3.w1
Linear(in_features=4096, out_features=6400, bias=False)
model.layers.7.block_sparse_moe.experts.3.w2
Linear(in_features=6400, out_features=4096, bias=False)
model.layers.7.block_sparse_moe.experts.3.w3
Linear(in_features=4096, out_features=6400, bias=False)
model.layers.7.block_sparse_moe.experts.3.act_fn
SiLU()
model.layers.7.block_sparse_moe.experts.4
PhiMoEBlockSparseTop2MLP(
  (w1): Linear(in_features=4096, out_features=6400, bias=False)
  (w2): Linear(in_features=6400, out_features=4096, bias=False)
  (w3): Linear(in_features=4096, out_features=6400, bias=False)
  (act_fn): SiLU()
)
model.layers.7.block_sparse_moe.experts.4.w1
Linear(in_features=4096, out_features=6400, bias=False)
model.layers.7.block_sparse_moe.experts.4.w2
Linear(in_features=6400, out_features=4096, bias=False)
model.layers.7.block_sparse_moe.experts.4.w3
Linear(in_features=4096, out_features=6400, bias=False)
model.layers.7.block_sparse_moe.experts.4.act_fn
SiLU()
model.layers.7.block_sparse_moe.experts.5
PhiMoEBlockSparseTop2MLP(
  (w1): Linear(in_features=4096, out_features=6400, bias=False)
  (w2): Linear(in_features=6400, out_features=4096, bias=False)
  (w3): Linear(in_features=4096, out_features=6400, bias=False)
  (act_fn): SiLU()
)
model.layers.7.block_sparse_moe.experts.5.w1
Linear(in_features=4096, out_features=6400, bias=False)
model.layers.7.block_sparse_moe.experts.5.w2
Linear(in_features=6400, out_features=4096, bias=False)
model.layers.7.block_sparse_moe.experts.5.w3
Linear(in_features=4096, out_features=6400, bias=False)
model.layers.7.block_sparse_moe.experts.5.act_fn
SiLU()
model.layers.7.block_sparse_moe.experts.6
PhiMoEBlockSparseTop2MLP(
  (w1): Linear(in_features=4096, out_features=6400, bias=False)
  (w2): Linear(in_features=6400, out_features=4096, bias=False)
  (w3): Linear(in_features=4096, out_features=6400, bias=False)
  (act_fn): SiLU()
)
model.layers.7.block_sparse_moe.experts.6.w1
Linear(in_features=4096, out_features=6400, bias=False)
model.layers.7.block_sparse_moe.experts.6.w2
Linear(in_features=6400, out_features=4096, bias=False)
model.layers.7.block_sparse_moe.experts.6.w3
Linear(in_features=4096, out_features=6400, bias=False)
model.layers.7.block_sparse_moe.experts.6.act_fn
SiLU()
model.layers.7.block_sparse_moe.experts.7
PhiMoEBlockSparseTop2MLP(
  (w1): Linear(in_features=4096, out_features=6400, bias=False)
  (w2): Linear(in_features=6400, out_features=4096, bias=False)
  (w3): Linear(in_features=4096, out_features=6400, bias=False)
  (act_fn): SiLU()
)
model.layers.7.block_sparse_moe.experts.7.w1
Linear(in_features=4096, out_features=6400, bias=False)
model.layers.7.block_sparse_moe.experts.7.w2
Linear(in_features=6400, out_features=4096, bias=False)
model.layers.7.block_sparse_moe.experts.7.w3
Linear(in_features=4096, out_features=6400, bias=False)
model.layers.7.block_sparse_moe.experts.7.act_fn
SiLU()
model.layers.7.block_sparse_moe.experts.8
PhiMoEBlockSparseTop2MLP(
  (w1): Linear(in_features=4096, out_features=6400, bias=False)
  (w2): Linear(in_features=6400, out_features=4096, bias=False)
  (w3): Linear(in_features=4096, out_features=6400, bias=False)
  (act_fn): SiLU()
)
model.layers.7.block_sparse_moe.experts.8.w1
Linear(in_features=4096, out_features=6400, bias=False)
model.layers.7.block_sparse_moe.experts.8.w2
Linear(in_features=6400, out_features=4096, bias=False)
model.layers.7.block_sparse_moe.experts.8.w3
Linear(in_features=4096, out_features=6400, bias=False)
model.layers.7.block_sparse_moe.experts.8.act_fn
SiLU()
model.layers.7.block_sparse_moe.experts.9
PhiMoEBlockSparseTop2MLP(
  (w1): Linear(in_features=4096, out_features=6400, bias=False)
  (w2): Linear(in_features=6400, out_features=4096, bias=False)
  (w3): Linear(in_features=4096, out_features=6400, bias=False)
  (act_fn): SiLU()
)
model.layers.7.block_sparse_moe.experts.9.w1
Linear(in_features=4096, out_features=6400, bias=False)
model.layers.7.block_sparse_moe.experts.9.w2
Linear(in_features=6400, out_features=4096, bias=False)
model.layers.7.block_sparse_moe.experts.9.w3
Linear(in_features=4096, out_features=6400, bias=False)
model.layers.7.block_sparse_moe.experts.9.act_fn
SiLU()
model.layers.7.block_sparse_moe.experts.10
PhiMoEBlockSparseTop2MLP(
  (w1): Linear(in_features=4096, out_features=6400, bias=False)
  (w2): Linear(in_features=6400, out_features=4096, bias=False)
  (w3): Linear(in_features=4096, out_features=6400, bias=False)
  (act_fn): SiLU()
)
model.layers.7.block_sparse_moe.experts.10.w1
Linear(in_features=4096, out_features=6400, bias=False)
model.layers.7.block_sparse_moe.experts.10.w2
Linear(in_features=6400, out_features=4096, bias=False)
model.layers.7.block_sparse_moe.experts.10.w3
Linear(in_features=4096, out_features=6400, bias=False)
model.layers.7.block_sparse_moe.experts.10.act_fn
SiLU()
model.layers.7.block_sparse_moe.experts.11
PhiMoEBlockSparseTop2MLP(
  (w1): Linear(in_features=4096, out_features=6400, bias=False)
  (w2): Linear(in_features=6400, out_features=4096, bias=False)
  (w3): Linear(in_features=4096, out_features=6400, bias=False)
  (act_fn): SiLU()
)
model.layers.7.block_sparse_moe.experts.11.w1
Linear(in_features=4096, out_features=6400, bias=False)
model.layers.7.block_sparse_moe.experts.11.w2
Linear(in_features=6400, out_features=4096, bias=False)
model.layers.7.block_sparse_moe.experts.11.w3
Linear(in_features=4096, out_features=6400, bias=False)
model.layers.7.block_sparse_moe.experts.11.act_fn
SiLU()
model.layers.7.block_sparse_moe.experts.12
PhiMoEBlockSparseTop2MLP(
  (w1): Linear(in_features=4096, out_features=6400, bias=False)
  (w2): Linear(in_features=6400, out_features=4096, bias=False)
  (w3): Linear(in_features=4096, out_features=6400, bias=False)
  (act_fn): SiLU()
)
model.layers.7.block_sparse_moe.experts.12.w1
Linear(in_features=4096, out_features=6400, bias=False)
model.layers.7.block_sparse_moe.experts.12.w2
Linear(in_features=6400, out_features=4096, bias=False)
model.layers.7.block_sparse_moe.experts.12.w3
Linear(in_features=4096, out_features=6400, bias=False)
model.layers.7.block_sparse_moe.experts.12.act_fn
SiLU()
model.layers.7.block_sparse_moe.experts.13
PhiMoEBlockSparseTop2MLP(
  (w1): Linear(in_features=4096, out_features=6400, bias=False)
  (w2): Linear(in_features=6400, out_features=4096, bias=False)
  (w3): Linear(in_features=4096, out_features=6400, bias=False)
  (act_fn): SiLU()
)
model.layers.7.block_sparse_moe.experts.13.w1
Linear(in_features=4096, out_features=6400, bias=False)
model.layers.7.block_sparse_moe.experts.13.w2
Linear(in_features=6400, out_features=4096, bias=False)
model.layers.7.block_sparse_moe.experts.13.w3
Linear(in_features=4096, out_features=6400, bias=False)
model.layers.7.block_sparse_moe.experts.13.act_fn
SiLU()
model.layers.7.block_sparse_moe.experts.14
PhiMoEBlockSparseTop2MLP(
  (w1): Linear(in_features=4096, out_features=6400, bias=False)
  (w2): Linear(in_features=6400, out_features=4096, bias=False)
  (w3): Linear(in_features=4096, out_features=6400, bias=False)
  (act_fn): SiLU()
)
model.layers.7.block_sparse_moe.experts.14.w1
Linear(in_features=4096, out_features=6400, bias=False)
model.layers.7.block_sparse_moe.experts.14.w2
Linear(in_features=6400, out_features=4096, bias=False)
model.layers.7.block_sparse_moe.experts.14.w3
Linear(in_features=4096, out_features=6400, bias=False)
model.layers.7.block_sparse_moe.experts.14.act_fn
SiLU()
model.layers.7.block_sparse_moe.experts.15
PhiMoEBlockSparseTop2MLP(
  (w1): Linear(in_features=4096, out_features=6400, bias=False)
  (w2): Linear(in_features=6400, out_features=4096, bias=False)
  (w3): Linear(in_features=4096, out_features=6400, bias=False)
  (act_fn): SiLU()
)
model.layers.7.block_sparse_moe.experts.15.w1
Linear(in_features=4096, out_features=6400, bias=False)
model.layers.7.block_sparse_moe.experts.15.w2
Linear(in_features=6400, out_features=4096, bias=False)
model.layers.7.block_sparse_moe.experts.15.w3
Linear(in_features=4096, out_features=6400, bias=False)
model.layers.7.block_sparse_moe.experts.15.act_fn
SiLU()
model.layers.7.input_layernorm
LayerNorm((4096,), eps=1e-05, elementwise_affine=True)
model.layers.7.post_attention_layernorm
LayerNorm((4096,), eps=1e-05, elementwise_affine=True)
model.layers.8
PhiMoEDecoderLayer(
  (self_attn): PhiMoESdpaAttention(
    (q_proj): Linear(in_features=4096, out_features=4096, bias=True)
    (k_proj): Linear(in_features=4096, out_features=1024, bias=True)
    (v_proj): Linear(in_features=4096, out_features=1024, bias=True)
    (o_proj): Linear(in_features=4096, out_features=4096, bias=True)
    (rotary_emb): Phi3LongRoPEScaledRotaryEmbedding()
  )
  (block_sparse_moe): PhiMoESparseMoeBlock(
    (gate): Linear(in_features=4096, out_features=16, bias=False)
    (experts): ModuleList(
      (0-15): 16 x PhiMoEBlockSparseTop2MLP(
        (w1): Linear(in_features=4096, out_features=6400, bias=False)
        (w2): Linear(in_features=6400, out_features=4096, bias=False)
        (w3): Linear(in_features=4096, out_features=6400, bias=False)
        (act_fn): SiLU()
      )
    )
  )
  (input_layernorm): LayerNorm((4096,), eps=1e-05, elementwise_affine=True)
  (post_attention_layernorm): LayerNorm((4096,), eps=1e-05, elementwise_affine=True)
)
model.layers.8.self_attn
PhiMoESdpaAttention(
  (q_proj): Linear(in_features=4096, out_features=4096, bias=True)
  (k_proj): Linear(in_features=4096, out_features=1024, bias=True)
  (v_proj): Linear(in_features=4096, out_features=1024, bias=True)
  (o_proj): Linear(in_features=4096, out_features=4096, bias=True)
  (rotary_emb): Phi3LongRoPEScaledRotaryEmbedding()
)
model.layers.8.self_attn.q_proj
Linear(in_features=4096, out_features=4096, bias=True)
model.layers.8.self_attn.k_proj
Linear(in_features=4096, out_features=1024, bias=True)
model.layers.8.self_attn.v_proj
Linear(in_features=4096, out_features=1024, bias=True)
model.layers.8.self_attn.o_proj
Linear(in_features=4096, out_features=4096, bias=True)
model.layers.8.self_attn.rotary_emb
Phi3LongRoPEScaledRotaryEmbedding()
model.layers.8.block_sparse_moe
PhiMoESparseMoeBlock(
  (gate): Linear(in_features=4096, out_features=16, bias=False)
  (experts): ModuleList(
    (0-15): 16 x PhiMoEBlockSparseTop2MLP(
      (w1): Linear(in_features=4096, out_features=6400, bias=False)
      (w2): Linear(in_features=6400, out_features=4096, bias=False)
      (w3): Linear(in_features=4096, out_features=6400, bias=False)
      (act_fn): SiLU()
    )
  )
)
model.layers.8.block_sparse_moe.gate
Linear(in_features=4096, out_features=16, bias=False)
model.layers.8.block_sparse_moe.experts
ModuleList(
  (0-15): 16 x PhiMoEBlockSparseTop2MLP(
    (w1): Linear(in_features=4096, out_features=6400, bias=False)
    (w2): Linear(in_features=6400, out_features=4096, bias=False)
    (w3): Linear(in_features=4096, out_features=6400, bias=False)
    (act_fn): SiLU()
  )
)
model.layers.8.block_sparse_moe.experts.0
PhiMoEBlockSparseTop2MLP(
  (w1): Linear(in_features=4096, out_features=6400, bias=False)
  (w2): Linear(in_features=6400, out_features=4096, bias=False)
  (w3): Linear(in_features=4096, out_features=6400, bias=False)
  (act_fn): SiLU()
)
model.layers.8.block_sparse_moe.experts.0.w1
Linear(in_features=4096, out_features=6400, bias=False)
model.layers.8.block_sparse_moe.experts.0.w2
Linear(in_features=6400, out_features=4096, bias=False)
model.layers.8.block_sparse_moe.experts.0.w3
Linear(in_features=4096, out_features=6400, bias=False)
model.layers.8.block_sparse_moe.experts.0.act_fn
SiLU()
model.layers.8.block_sparse_moe.experts.1
PhiMoEBlockSparseTop2MLP(
  (w1): Linear(in_features=4096, out_features=6400, bias=False)
  (w2): Linear(in_features=6400, out_features=4096, bias=False)
  (w3): Linear(in_features=4096, out_features=6400, bias=False)
  (act_fn): SiLU()
)
model.layers.8.block_sparse_moe.experts.1.w1
Linear(in_features=4096, out_features=6400, bias=False)
model.layers.8.block_sparse_moe.experts.1.w2
Linear(in_features=6400, out_features=4096, bias=False)
model.layers.8.block_sparse_moe.experts.1.w3
Linear(in_features=4096, out_features=6400, bias=False)
model.layers.8.block_sparse_moe.experts.1.act_fn
SiLU()
model.layers.8.block_sparse_moe.experts.2
PhiMoEBlockSparseTop2MLP(
  (w1): Linear(in_features=4096, out_features=6400, bias=False)
  (w2): Linear(in_features=6400, out_features=4096, bias=False)
  (w3): Linear(in_features=4096, out_features=6400, bias=False)
  (act_fn): SiLU()
)
model.layers.8.block_sparse_moe.experts.2.w1
Linear(in_features=4096, out_features=6400, bias=False)
model.layers.8.block_sparse_moe.experts.2.w2
Linear(in_features=6400, out_features=4096, bias=False)
model.layers.8.block_sparse_moe.experts.2.w3
Linear(in_features=4096, out_features=6400, bias=False)
model.layers.8.block_sparse_moe.experts.2.act_fn
SiLU()
model.layers.8.block_sparse_moe.experts.3
PhiMoEBlockSparseTop2MLP(
  (w1): Linear(in_features=4096, out_features=6400, bias=False)
  (w2): Linear(in_features=6400, out_features=4096, bias=False)
  (w3): Linear(in_features=4096, out_features=6400, bias=False)
  (act_fn): SiLU()
)
model.layers.8.block_sparse_moe.experts.3.w1
Linear(in_features=4096, out_features=6400, bias=False)
model.layers.8.block_sparse_moe.experts.3.w2
Linear(in_features=6400, out_features=4096, bias=False)
model.layers.8.block_sparse_moe.experts.3.w3
Linear(in_features=4096, out_features=6400, bias=False)
model.layers.8.block_sparse_moe.experts.3.act_fn
SiLU()
model.layers.8.block_sparse_moe.experts.4
PhiMoEBlockSparseTop2MLP(
  (w1): Linear(in_features=4096, out_features=6400, bias=False)
  (w2): Linear(in_features=6400, out_features=4096, bias=False)
  (w3): Linear(in_features=4096, out_features=6400, bias=False)
  (act_fn): SiLU()
)
model.layers.8.block_sparse_moe.experts.4.w1
Linear(in_features=4096, out_features=6400, bias=False)
model.layers.8.block_sparse_moe.experts.4.w2
Linear(in_features=6400, out_features=4096, bias=False)
model.layers.8.block_sparse_moe.experts.4.w3
Linear(in_features=4096, out_features=6400, bias=False)
model.layers.8.block_sparse_moe.experts.4.act_fn
SiLU()
model.layers.8.block_sparse_moe.experts.5
PhiMoEBlockSparseTop2MLP(
  (w1): Linear(in_features=4096, out_features=6400, bias=False)
  (w2): Linear(in_features=6400, out_features=4096, bias=False)
  (w3): Linear(in_features=4096, out_features=6400, bias=False)
  (act_fn): SiLU()
)
model.layers.8.block_sparse_moe.experts.5.w1
Linear(in_features=4096, out_features=6400, bias=False)
model.layers.8.block_sparse_moe.experts.5.w2
Linear(in_features=6400, out_features=4096, bias=False)
model.layers.8.block_sparse_moe.experts.5.w3
Linear(in_features=4096, out_features=6400, bias=False)
model.layers.8.block_sparse_moe.experts.5.act_fn
SiLU()
model.layers.8.block_sparse_moe.experts.6
PhiMoEBlockSparseTop2MLP(
  (w1): Linear(in_features=4096, out_features=6400, bias=False)
  (w2): Linear(in_features=6400, out_features=4096, bias=False)
  (w3): Linear(in_features=4096, out_features=6400, bias=False)
  (act_fn): SiLU()
)
model.layers.8.block_sparse_moe.experts.6.w1
Linear(in_features=4096, out_features=6400, bias=False)
model.layers.8.block_sparse_moe.experts.6.w2
Linear(in_features=6400, out_features=4096, bias=False)
model.layers.8.block_sparse_moe.experts.6.w3
Linear(in_features=4096, out_features=6400, bias=False)
model.layers.8.block_sparse_moe.experts.6.act_fn
SiLU()
model.layers.8.block_sparse_moe.experts.7
PhiMoEBlockSparseTop2MLP(
  (w1): Linear(in_features=4096, out_features=6400, bias=False)
  (w2): Linear(in_features=6400, out_features=4096, bias=False)
  (w3): Linear(in_features=4096, out_features=6400, bias=False)
  (act_fn): SiLU()
)
model.layers.8.block_sparse_moe.experts.7.w1
Linear(in_features=4096, out_features=6400, bias=False)
model.layers.8.block_sparse_moe.experts.7.w2
Linear(in_features=6400, out_features=4096, bias=False)
model.layers.8.block_sparse_moe.experts.7.w3
Linear(in_features=4096, out_features=6400, bias=False)
model.layers.8.block_sparse_moe.experts.7.act_fn
SiLU()
model.layers.8.block_sparse_moe.experts.8
PhiMoEBlockSparseTop2MLP(
  (w1): Linear(in_features=4096, out_features=6400, bias=False)
  (w2): Linear(in_features=6400, out_features=4096, bias=False)
  (w3): Linear(in_features=4096, out_features=6400, bias=False)
  (act_fn): SiLU()
)
model.layers.8.block_sparse_moe.experts.8.w1
Linear(in_features=4096, out_features=6400, bias=False)
model.layers.8.block_sparse_moe.experts.8.w2
Linear(in_features=6400, out_features=4096, bias=False)
model.layers.8.block_sparse_moe.experts.8.w3
Linear(in_features=4096, out_features=6400, bias=False)
model.layers.8.block_sparse_moe.experts.8.act_fn
SiLU()
model.layers.8.block_sparse_moe.experts.9
PhiMoEBlockSparseTop2MLP(
  (w1): Linear(in_features=4096, out_features=6400, bias=False)
  (w2): Linear(in_features=6400, out_features=4096, bias=False)
  (w3): Linear(in_features=4096, out_features=6400, bias=False)
  (act_fn): SiLU()
)
model.layers.8.block_sparse_moe.experts.9.w1
Linear(in_features=4096, out_features=6400, bias=False)
model.layers.8.block_sparse_moe.experts.9.w2
Linear(in_features=6400, out_features=4096, bias=False)
model.layers.8.block_sparse_moe.experts.9.w3
Linear(in_features=4096, out_features=6400, bias=False)
model.layers.8.block_sparse_moe.experts.9.act_fn
SiLU()
model.layers.8.block_sparse_moe.experts.10
PhiMoEBlockSparseTop2MLP(
  (w1): Linear(in_features=4096, out_features=6400, bias=False)
  (w2): Linear(in_features=6400, out_features=4096, bias=False)
  (w3): Linear(in_features=4096, out_features=6400, bias=False)
  (act_fn): SiLU()
)
model.layers.8.block_sparse_moe.experts.10.w1
Linear(in_features=4096, out_features=6400, bias=False)
model.layers.8.block_sparse_moe.experts.10.w2
Linear(in_features=6400, out_features=4096, bias=False)
model.layers.8.block_sparse_moe.experts.10.w3
Linear(in_features=4096, out_features=6400, bias=False)
model.layers.8.block_sparse_moe.experts.10.act_fn
SiLU()
model.layers.8.block_sparse_moe.experts.11
PhiMoEBlockSparseTop2MLP(
  (w1): Linear(in_features=4096, out_features=6400, bias=False)
  (w2): Linear(in_features=6400, out_features=4096, bias=False)
  (w3): Linear(in_features=4096, out_features=6400, bias=False)
  (act_fn): SiLU()
)
model.layers.8.block_sparse_moe.experts.11.w1
Linear(in_features=4096, out_features=6400, bias=False)
model.layers.8.block_sparse_moe.experts.11.w2
Linear(in_features=6400, out_features=4096, bias=False)
model.layers.8.block_sparse_moe.experts.11.w3
Linear(in_features=4096, out_features=6400, bias=False)
model.layers.8.block_sparse_moe.experts.11.act_fn
SiLU()
model.layers.8.block_sparse_moe.experts.12
PhiMoEBlockSparseTop2MLP(
  (w1): Linear(in_features=4096, out_features=6400, bias=False)
  (w2): Linear(in_features=6400, out_features=4096, bias=False)
  (w3): Linear(in_features=4096, out_features=6400, bias=False)
  (act_fn): SiLU()
)
model.layers.8.block_sparse_moe.experts.12.w1
Linear(in_features=4096, out_features=6400, bias=False)
model.layers.8.block_sparse_moe.experts.12.w2
Linear(in_features=6400, out_features=4096, bias=False)
model.layers.8.block_sparse_moe.experts.12.w3
Linear(in_features=4096, out_features=6400, bias=False)
model.layers.8.block_sparse_moe.experts.12.act_fn
SiLU()
model.layers.8.block_sparse_moe.experts.13
PhiMoEBlockSparseTop2MLP(
  (w1): Linear(in_features=4096, out_features=6400, bias=False)
  (w2): Linear(in_features=6400, out_features=4096, bias=False)
  (w3): Linear(in_features=4096, out_features=6400, bias=False)
  (act_fn): SiLU()
)
model.layers.8.block_sparse_moe.experts.13.w1
Linear(in_features=4096, out_features=6400, bias=False)
model.layers.8.block_sparse_moe.experts.13.w2
Linear(in_features=6400, out_features=4096, bias=False)
model.layers.8.block_sparse_moe.experts.13.w3
Linear(in_features=4096, out_features=6400, bias=False)
model.layers.8.block_sparse_moe.experts.13.act_fn
SiLU()
model.layers.8.block_sparse_moe.experts.14
PhiMoEBlockSparseTop2MLP(
  (w1): Linear(in_features=4096, out_features=6400, bias=False)
  (w2): Linear(in_features=6400, out_features=4096, bias=False)
  (w3): Linear(in_features=4096, out_features=6400, bias=False)
  (act_fn): SiLU()
)
model.layers.8.block_sparse_moe.experts.14.w1
Linear(in_features=4096, out_features=6400, bias=False)
model.layers.8.block_sparse_moe.experts.14.w2
Linear(in_features=6400, out_features=4096, bias=False)
model.layers.8.block_sparse_moe.experts.14.w3
Linear(in_features=4096, out_features=6400, bias=False)
model.layers.8.block_sparse_moe.experts.14.act_fn
SiLU()
model.layers.8.block_sparse_moe.experts.15
PhiMoEBlockSparseTop2MLP(
  (w1): Linear(in_features=4096, out_features=6400, bias=False)
  (w2): Linear(in_features=6400, out_features=4096, bias=False)
  (w3): Linear(in_features=4096, out_features=6400, bias=False)
  (act_fn): SiLU()
)
model.layers.8.block_sparse_moe.experts.15.w1
Linear(in_features=4096, out_features=6400, bias=False)
model.layers.8.block_sparse_moe.experts.15.w2
Linear(in_features=6400, out_features=4096, bias=False)
model.layers.8.block_sparse_moe.experts.15.w3
Linear(in_features=4096, out_features=6400, bias=False)
model.layers.8.block_sparse_moe.experts.15.act_fn
SiLU()
model.layers.8.input_layernorm
LayerNorm((4096,), eps=1e-05, elementwise_affine=True)
model.layers.8.post_attention_layernorm
LayerNorm((4096,), eps=1e-05, elementwise_affine=True)
model.layers.9
PhiMoEDecoderLayer(
  (self_attn): PhiMoESdpaAttention(
    (q_proj): Linear(in_features=4096, out_features=4096, bias=True)
    (k_proj): Linear(in_features=4096, out_features=1024, bias=True)
    (v_proj): Linear(in_features=4096, out_features=1024, bias=True)
    (o_proj): Linear(in_features=4096, out_features=4096, bias=True)
    (rotary_emb): Phi3LongRoPEScaledRotaryEmbedding()
  )
  (block_sparse_moe): PhiMoESparseMoeBlock(
    (gate): Linear(in_features=4096, out_features=16, bias=False)
    (experts): ModuleList(
      (0-15): 16 x PhiMoEBlockSparseTop2MLP(
        (w1): Linear(in_features=4096, out_features=6400, bias=False)
        (w2): Linear(in_features=6400, out_features=4096, bias=False)
        (w3): Linear(in_features=4096, out_features=6400, bias=False)
        (act_fn): SiLU()
      )
    )
  )
  (input_layernorm): LayerNorm((4096,), eps=1e-05, elementwise_affine=True)
  (post_attention_layernorm): LayerNorm((4096,), eps=1e-05, elementwise_affine=True)
)
model.layers.9.self_attn
PhiMoESdpaAttention(
  (q_proj): Linear(in_features=4096, out_features=4096, bias=True)
  (k_proj): Linear(in_features=4096, out_features=1024, bias=True)
  (v_proj): Linear(in_features=4096, out_features=1024, bias=True)
  (o_proj): Linear(in_features=4096, out_features=4096, bias=True)
  (rotary_emb): Phi3LongRoPEScaledRotaryEmbedding()
)
model.layers.9.self_attn.q_proj
Linear(in_features=4096, out_features=4096, bias=True)
model.layers.9.self_attn.k_proj
Linear(in_features=4096, out_features=1024, bias=True)
model.layers.9.self_attn.v_proj
Linear(in_features=4096, out_features=1024, bias=True)
model.layers.9.self_attn.o_proj
Linear(in_features=4096, out_features=4096, bias=True)
model.layers.9.self_attn.rotary_emb
Phi3LongRoPEScaledRotaryEmbedding()
model.layers.9.block_sparse_moe
PhiMoESparseMoeBlock(
  (gate): Linear(in_features=4096, out_features=16, bias=False)
  (experts): ModuleList(
    (0-15): 16 x PhiMoEBlockSparseTop2MLP(
      (w1): Linear(in_features=4096, out_features=6400, bias=False)
      (w2): Linear(in_features=6400, out_features=4096, bias=False)
      (w3): Linear(in_features=4096, out_features=6400, bias=False)
      (act_fn): SiLU()
    )
  )
)
model.layers.9.block_sparse_moe.gate
Linear(in_features=4096, out_features=16, bias=False)
model.layers.9.block_sparse_moe.experts
ModuleList(
  (0-15): 16 x PhiMoEBlockSparseTop2MLP(
    (w1): Linear(in_features=4096, out_features=6400, bias=False)
    (w2): Linear(in_features=6400, out_features=4096, bias=False)
    (w3): Linear(in_features=4096, out_features=6400, bias=False)
    (act_fn): SiLU()
  )
)
model.layers.9.block_sparse_moe.experts.0
PhiMoEBlockSparseTop2MLP(
  (w1): Linear(in_features=4096, out_features=6400, bias=False)
  (w2): Linear(in_features=6400, out_features=4096, bias=False)
  (w3): Linear(in_features=4096, out_features=6400, bias=False)
  (act_fn): SiLU()
)
model.layers.9.block_sparse_moe.experts.0.w1
Linear(in_features=4096, out_features=6400, bias=False)
model.layers.9.block_sparse_moe.experts.0.w2
Linear(in_features=6400, out_features=4096, bias=False)
model.layers.9.block_sparse_moe.experts.0.w3
Linear(in_features=4096, out_features=6400, bias=False)
model.layers.9.block_sparse_moe.experts.0.act_fn
SiLU()
model.layers.9.block_sparse_moe.experts.1
PhiMoEBlockSparseTop2MLP(
  (w1): Linear(in_features=4096, out_features=6400, bias=False)
  (w2): Linear(in_features=6400, out_features=4096, bias=False)
  (w3): Linear(in_features=4096, out_features=6400, bias=False)
  (act_fn): SiLU()
)
model.layers.9.block_sparse_moe.experts.1.w1
Linear(in_features=4096, out_features=6400, bias=False)
model.layers.9.block_sparse_moe.experts.1.w2
Linear(in_features=6400, out_features=4096, bias=False)
model.layers.9.block_sparse_moe.experts.1.w3
Linear(in_features=4096, out_features=6400, bias=False)
model.layers.9.block_sparse_moe.experts.1.act_fn
SiLU()
model.layers.9.block_sparse_moe.experts.2
PhiMoEBlockSparseTop2MLP(
  (w1): Linear(in_features=4096, out_features=6400, bias=False)
  (w2): Linear(in_features=6400, out_features=4096, bias=False)
  (w3): Linear(in_features=4096, out_features=6400, bias=False)
  (act_fn): SiLU()
)
model.layers.9.block_sparse_moe.experts.2.w1
Linear(in_features=4096, out_features=6400, bias=False)
model.layers.9.block_sparse_moe.experts.2.w2
Linear(in_features=6400, out_features=4096, bias=False)
model.layers.9.block_sparse_moe.experts.2.w3
Linear(in_features=4096, out_features=6400, bias=False)
model.layers.9.block_sparse_moe.experts.2.act_fn
SiLU()
model.layers.9.block_sparse_moe.experts.3
PhiMoEBlockSparseTop2MLP(
  (w1): Linear(in_features=4096, out_features=6400, bias=False)
  (w2): Linear(in_features=6400, out_features=4096, bias=False)
  (w3): Linear(in_features=4096, out_features=6400, bias=False)
  (act_fn): SiLU()
)
model.layers.9.block_sparse_moe.experts.3.w1
Linear(in_features=4096, out_features=6400, bias=False)
model.layers.9.block_sparse_moe.experts.3.w2
Linear(in_features=6400, out_features=4096, bias=False)
model.layers.9.block_sparse_moe.experts.3.w3
Linear(in_features=4096, out_features=6400, bias=False)
model.layers.9.block_sparse_moe.experts.3.act_fn
SiLU()
model.layers.9.block_sparse_moe.experts.4
PhiMoEBlockSparseTop2MLP(
  (w1): Linear(in_features=4096, out_features=6400, bias=False)
  (w2): Linear(in_features=6400, out_features=4096, bias=False)
  (w3): Linear(in_features=4096, out_features=6400, bias=False)
  (act_fn): SiLU()
)
model.layers.9.block_sparse_moe.experts.4.w1
Linear(in_features=4096, out_features=6400, bias=False)
model.layers.9.block_sparse_moe.experts.4.w2
Linear(in_features=6400, out_features=4096, bias=False)
model.layers.9.block_sparse_moe.experts.4.w3
Linear(in_features=4096, out_features=6400, bias=False)
model.layers.9.block_sparse_moe.experts.4.act_fn
SiLU()
model.layers.9.block_sparse_moe.experts.5
PhiMoEBlockSparseTop2MLP(
  (w1): Linear(in_features=4096, out_features=6400, bias=False)
  (w2): Linear(in_features=6400, out_features=4096, bias=False)
  (w3): Linear(in_features=4096, out_features=6400, bias=False)
  (act_fn): SiLU()
)
model.layers.9.block_sparse_moe.experts.5.w1
Linear(in_features=4096, out_features=6400, bias=False)
model.layers.9.block_sparse_moe.experts.5.w2
Linear(in_features=6400, out_features=4096, bias=False)
model.layers.9.block_sparse_moe.experts.5.w3
Linear(in_features=4096, out_features=6400, bias=False)
model.layers.9.block_sparse_moe.experts.5.act_fn
SiLU()
model.layers.9.block_sparse_moe.experts.6
PhiMoEBlockSparseTop2MLP(
  (w1): Linear(in_features=4096, out_features=6400, bias=False)
  (w2): Linear(in_features=6400, out_features=4096, bias=False)
  (w3): Linear(in_features=4096, out_features=6400, bias=False)
  (act_fn): SiLU()
)
model.layers.9.block_sparse_moe.experts.6.w1
Linear(in_features=4096, out_features=6400, bias=False)
model.layers.9.block_sparse_moe.experts.6.w2
Linear(in_features=6400, out_features=4096, bias=False)
model.layers.9.block_sparse_moe.experts.6.w3
Linear(in_features=4096, out_features=6400, bias=False)
model.layers.9.block_sparse_moe.experts.6.act_fn
SiLU()
model.layers.9.block_sparse_moe.experts.7
PhiMoEBlockSparseTop2MLP(
  (w1): Linear(in_features=4096, out_features=6400, bias=False)
  (w2): Linear(in_features=6400, out_features=4096, bias=False)
  (w3): Linear(in_features=4096, out_features=6400, bias=False)
  (act_fn): SiLU()
)
model.layers.9.block_sparse_moe.experts.7.w1
Linear(in_features=4096, out_features=6400, bias=False)
model.layers.9.block_sparse_moe.experts.7.w2
Linear(in_features=6400, out_features=4096, bias=False)
model.layers.9.block_sparse_moe.experts.7.w3
Linear(in_features=4096, out_features=6400, bias=False)
model.layers.9.block_sparse_moe.experts.7.act_fn
SiLU()
model.layers.9.block_sparse_moe.experts.8
PhiMoEBlockSparseTop2MLP(
  (w1): Linear(in_features=4096, out_features=6400, bias=False)
  (w2): Linear(in_features=6400, out_features=4096, bias=False)
  (w3): Linear(in_features=4096, out_features=6400, bias=False)
  (act_fn): SiLU()
)
model.layers.9.block_sparse_moe.experts.8.w1
Linear(in_features=4096, out_features=6400, bias=False)
model.layers.9.block_sparse_moe.experts.8.w2
Linear(in_features=6400, out_features=4096, bias=False)
model.layers.9.block_sparse_moe.experts.8.w3
Linear(in_features=4096, out_features=6400, bias=False)
model.layers.9.block_sparse_moe.experts.8.act_fn
SiLU()
model.layers.9.block_sparse_moe.experts.9
PhiMoEBlockSparseTop2MLP(
  (w1): Linear(in_features=4096, out_features=6400, bias=False)
  (w2): Linear(in_features=6400, out_features=4096, bias=False)
  (w3): Linear(in_features=4096, out_features=6400, bias=False)
  (act_fn): SiLU()
)
model.layers.9.block_sparse_moe.experts.9.w1
Linear(in_features=4096, out_features=6400, bias=False)
model.layers.9.block_sparse_moe.experts.9.w2
Linear(in_features=6400, out_features=4096, bias=False)
model.layers.9.block_sparse_moe.experts.9.w3
Linear(in_features=4096, out_features=6400, bias=False)
model.layers.9.block_sparse_moe.experts.9.act_fn
SiLU()
model.layers.9.block_sparse_moe.experts.10
PhiMoEBlockSparseTop2MLP(
  (w1): Linear(in_features=4096, out_features=6400, bias=False)
  (w2): Linear(in_features=6400, out_features=4096, bias=False)
  (w3): Linear(in_features=4096, out_features=6400, bias=False)
  (act_fn): SiLU()
)
model.layers.9.block_sparse_moe.experts.10.w1
Linear(in_features=4096, out_features=6400, bias=False)
model.layers.9.block_sparse_moe.experts.10.w2
Linear(in_features=6400, out_features=4096, bias=False)
model.layers.9.block_sparse_moe.experts.10.w3
Linear(in_features=4096, out_features=6400, bias=False)
model.layers.9.block_sparse_moe.experts.10.act_fn
SiLU()
model.layers.9.block_sparse_moe.experts.11
PhiMoEBlockSparseTop2MLP(
  (w1): Linear(in_features=4096, out_features=6400, bias=False)
  (w2): Linear(in_features=6400, out_features=4096, bias=False)
  (w3): Linear(in_features=4096, out_features=6400, bias=False)
  (act_fn): SiLU()
)
model.layers.9.block_sparse_moe.experts.11.w1
Linear(in_features=4096, out_features=6400, bias=False)
model.layers.9.block_sparse_moe.experts.11.w2
Linear(in_features=6400, out_features=4096, bias=False)
model.layers.9.block_sparse_moe.experts.11.w3
Linear(in_features=4096, out_features=6400, bias=False)
model.layers.9.block_sparse_moe.experts.11.act_fn
SiLU()
model.layers.9.block_sparse_moe.experts.12
PhiMoEBlockSparseTop2MLP(
  (w1): Linear(in_features=4096, out_features=6400, bias=False)
  (w2): Linear(in_features=6400, out_features=4096, bias=False)
  (w3): Linear(in_features=4096, out_features=6400, bias=False)
  (act_fn): SiLU()
)
model.layers.9.block_sparse_moe.experts.12.w1
Linear(in_features=4096, out_features=6400, bias=False)
model.layers.9.block_sparse_moe.experts.12.w2
Linear(in_features=6400, out_features=4096, bias=False)
model.layers.9.block_sparse_moe.experts.12.w3
Linear(in_features=4096, out_features=6400, bias=False)
model.layers.9.block_sparse_moe.experts.12.act_fn
SiLU()
model.layers.9.block_sparse_moe.experts.13
PhiMoEBlockSparseTop2MLP(
  (w1): Linear(in_features=4096, out_features=6400, bias=False)
  (w2): Linear(in_features=6400, out_features=4096, bias=False)
  (w3): Linear(in_features=4096, out_features=6400, bias=False)
  (act_fn): SiLU()
)
model.layers.9.block_sparse_moe.experts.13.w1
Linear(in_features=4096, out_features=6400, bias=False)
model.layers.9.block_sparse_moe.experts.13.w2
Linear(in_features=6400, out_features=4096, bias=False)
model.layers.9.block_sparse_moe.experts.13.w3
Linear(in_features=4096, out_features=6400, bias=False)
model.layers.9.block_sparse_moe.experts.13.act_fn
SiLU()
model.layers.9.block_sparse_moe.experts.14
PhiMoEBlockSparseTop2MLP(
  (w1): Linear(in_features=4096, out_features=6400, bias=False)
  (w2): Linear(in_features=6400, out_features=4096, bias=False)
  (w3): Linear(in_features=4096, out_features=6400, bias=False)
  (act_fn): SiLU()
)
model.layers.9.block_sparse_moe.experts.14.w1
Linear(in_features=4096, out_features=6400, bias=False)
model.layers.9.block_sparse_moe.experts.14.w2
Linear(in_features=6400, out_features=4096, bias=False)
model.layers.9.block_sparse_moe.experts.14.w3
Linear(in_features=4096, out_features=6400, bias=False)
model.layers.9.block_sparse_moe.experts.14.act_fn
SiLU()
model.layers.9.block_sparse_moe.experts.15
PhiMoEBlockSparseTop2MLP(
  (w1): Linear(in_features=4096, out_features=6400, bias=False)
  (w2): Linear(in_features=6400, out_features=4096, bias=False)
  (w3): Linear(in_features=4096, out_features=6400, bias=False)
  (act_fn): SiLU()
)
model.layers.9.block_sparse_moe.experts.15.w1
Linear(in_features=4096, out_features=6400, bias=False)
model.layers.9.block_sparse_moe.experts.15.w2
Linear(in_features=6400, out_features=4096, bias=False)
model.layers.9.block_sparse_moe.experts.15.w3
Linear(in_features=4096, out_features=6400, bias=False)
model.layers.9.block_sparse_moe.experts.15.act_fn
SiLU()
model.layers.9.input_layernorm
LayerNorm((4096,), eps=1e-05, elementwise_affine=True)
model.layers.9.post_attention_layernorm
LayerNorm((4096,), eps=1e-05, elementwise_affine=True)
model.layers.10
PhiMoEDecoderLayer(
  (self_attn): PhiMoESdpaAttention(
    (q_proj): Linear(in_features=4096, out_features=4096, bias=True)
    (k_proj): Linear(in_features=4096, out_features=1024, bias=True)
    (v_proj): Linear(in_features=4096, out_features=1024, bias=True)
    (o_proj): Linear(in_features=4096, out_features=4096, bias=True)
    (rotary_emb): Phi3LongRoPEScaledRotaryEmbedding()
  )
  (block_sparse_moe): PhiMoESparseMoeBlock(
    (gate): Linear(in_features=4096, out_features=16, bias=False)
    (experts): ModuleList(
      (0-15): 16 x PhiMoEBlockSparseTop2MLP(
        (w1): Linear(in_features=4096, out_features=6400, bias=False)
        (w2): Linear(in_features=6400, out_features=4096, bias=False)
        (w3): Linear(in_features=4096, out_features=6400, bias=False)
        (act_fn): SiLU()
      )
    )
  )
  (input_layernorm): LayerNorm((4096,), eps=1e-05, elementwise_affine=True)
  (post_attention_layernorm): LayerNorm((4096,), eps=1e-05, elementwise_affine=True)
)
model.layers.10.self_attn
PhiMoESdpaAttention(
  (q_proj): Linear(in_features=4096, out_features=4096, bias=True)
  (k_proj): Linear(in_features=4096, out_features=1024, bias=True)
  (v_proj): Linear(in_features=4096, out_features=1024, bias=True)
  (o_proj): Linear(in_features=4096, out_features=4096, bias=True)
  (rotary_emb): Phi3LongRoPEScaledRotaryEmbedding()
)
model.layers.10.self_attn.q_proj
Linear(in_features=4096, out_features=4096, bias=True)
model.layers.10.self_attn.k_proj
Linear(in_features=4096, out_features=1024, bias=True)
model.layers.10.self_attn.v_proj
Linear(in_features=4096, out_features=1024, bias=True)
model.layers.10.self_attn.o_proj
Linear(in_features=4096, out_features=4096, bias=True)
model.layers.10.self_attn.rotary_emb
Phi3LongRoPEScaledRotaryEmbedding()
model.layers.10.block_sparse_moe
PhiMoESparseMoeBlock(
  (gate): Linear(in_features=4096, out_features=16, bias=False)
  (experts): ModuleList(
    (0-15): 16 x PhiMoEBlockSparseTop2MLP(
      (w1): Linear(in_features=4096, out_features=6400, bias=False)
      (w2): Linear(in_features=6400, out_features=4096, bias=False)
      (w3): Linear(in_features=4096, out_features=6400, bias=False)
      (act_fn): SiLU()
    )
  )
)
model.layers.10.block_sparse_moe.gate
Linear(in_features=4096, out_features=16, bias=False)
model.layers.10.block_sparse_moe.experts
ModuleList(
  (0-15): 16 x PhiMoEBlockSparseTop2MLP(
    (w1): Linear(in_features=4096, out_features=6400, bias=False)
    (w2): Linear(in_features=6400, out_features=4096, bias=False)
    (w3): Linear(in_features=4096, out_features=6400, bias=False)
    (act_fn): SiLU()
  )
)
model.layers.10.block_sparse_moe.experts.0
PhiMoEBlockSparseTop2MLP(
  (w1): Linear(in_features=4096, out_features=6400, bias=False)
  (w2): Linear(in_features=6400, out_features=4096, bias=False)
  (w3): Linear(in_features=4096, out_features=6400, bias=False)
  (act_fn): SiLU()
)
model.layers.10.block_sparse_moe.experts.0.w1
Linear(in_features=4096, out_features=6400, bias=False)
model.layers.10.block_sparse_moe.experts.0.w2
Linear(in_features=6400, out_features=4096, bias=False)
model.layers.10.block_sparse_moe.experts.0.w3
Linear(in_features=4096, out_features=6400, bias=False)
model.layers.10.block_sparse_moe.experts.0.act_fn
SiLU()
model.layers.10.block_sparse_moe.experts.1
PhiMoEBlockSparseTop2MLP(
  (w1): Linear(in_features=4096, out_features=6400, bias=False)
  (w2): Linear(in_features=6400, out_features=4096, bias=False)
  (w3): Linear(in_features=4096, out_features=6400, bias=False)
  (act_fn): SiLU()
)
model.layers.10.block_sparse_moe.experts.1.w1
Linear(in_features=4096, out_features=6400, bias=False)
model.layers.10.block_sparse_moe.experts.1.w2
Linear(in_features=6400, out_features=4096, bias=False)
model.layers.10.block_sparse_moe.experts.1.w3
Linear(in_features=4096, out_features=6400, bias=False)
model.layers.10.block_sparse_moe.experts.1.act_fn
SiLU()
model.layers.10.block_sparse_moe.experts.2
PhiMoEBlockSparseTop2MLP(
  (w1): Linear(in_features=4096, out_features=6400, bias=False)
  (w2): Linear(in_features=6400, out_features=4096, bias=False)
  (w3): Linear(in_features=4096, out_features=6400, bias=False)
  (act_fn): SiLU()
)
model.layers.10.block_sparse_moe.experts.2.w1
Linear(in_features=4096, out_features=6400, bias=False)
model.layers.10.block_sparse_moe.experts.2.w2
Linear(in_features=6400, out_features=4096, bias=False)
model.layers.10.block_sparse_moe.experts.2.w3
Linear(in_features=4096, out_features=6400, bias=False)
model.layers.10.block_sparse_moe.experts.2.act_fn
SiLU()
model.layers.10.block_sparse_moe.experts.3
PhiMoEBlockSparseTop2MLP(
  (w1): Linear(in_features=4096, out_features=6400, bias=False)
  (w2): Linear(in_features=6400, out_features=4096, bias=False)
  (w3): Linear(in_features=4096, out_features=6400, bias=False)
  (act_fn): SiLU()
)
model.layers.10.block_sparse_moe.experts.3.w1
Linear(in_features=4096, out_features=6400, bias=False)
model.layers.10.block_sparse_moe.experts.3.w2
Linear(in_features=6400, out_features=4096, bias=False)
model.layers.10.block_sparse_moe.experts.3.w3
Linear(in_features=4096, out_features=6400, bias=False)
model.layers.10.block_sparse_moe.experts.3.act_fn
SiLU()
model.layers.10.block_sparse_moe.experts.4
PhiMoEBlockSparseTop2MLP(
  (w1): Linear(in_features=4096, out_features=6400, bias=False)
  (w2): Linear(in_features=6400, out_features=4096, bias=False)
  (w3): Linear(in_features=4096, out_features=6400, bias=False)
  (act_fn): SiLU()
)
model.layers.10.block_sparse_moe.experts.4.w1
Linear(in_features=4096, out_features=6400, bias=False)
model.layers.10.block_sparse_moe.experts.4.w2
Linear(in_features=6400, out_features=4096, bias=False)
model.layers.10.block_sparse_moe.experts.4.w3
Linear(in_features=4096, out_features=6400, bias=False)
model.layers.10.block_sparse_moe.experts.4.act_fn
SiLU()
model.layers.10.block_sparse_moe.experts.5
PhiMoEBlockSparseTop2MLP(
  (w1): Linear(in_features=4096, out_features=6400, bias=False)
  (w2): Linear(in_features=6400, out_features=4096, bias=False)
  (w3): Linear(in_features=4096, out_features=6400, bias=False)
  (act_fn): SiLU()
)
model.layers.10.block_sparse_moe.experts.5.w1
Linear(in_features=4096, out_features=6400, bias=False)
model.layers.10.block_sparse_moe.experts.5.w2
Linear(in_features=6400, out_features=4096, bias=False)
model.layers.10.block_sparse_moe.experts.5.w3
Linear(in_features=4096, out_features=6400, bias=False)
model.layers.10.block_sparse_moe.experts.5.act_fn
SiLU()
model.layers.10.block_sparse_moe.experts.6
PhiMoEBlockSparseTop2MLP(
  (w1): Linear(in_features=4096, out_features=6400, bias=False)
  (w2): Linear(in_features=6400, out_features=4096, bias=False)
  (w3): Linear(in_features=4096, out_features=6400, bias=False)
  (act_fn): SiLU()
)
model.layers.10.block_sparse_moe.experts.6.w1
Linear(in_features=4096, out_features=6400, bias=False)
model.layers.10.block_sparse_moe.experts.6.w2
Linear(in_features=6400, out_features=4096, bias=False)
model.layers.10.block_sparse_moe.experts.6.w3
Linear(in_features=4096, out_features=6400, bias=False)
model.layers.10.block_sparse_moe.experts.6.act_fn
SiLU()
model.layers.10.block_sparse_moe.experts.7
PhiMoEBlockSparseTop2MLP(
  (w1): Linear(in_features=4096, out_features=6400, bias=False)
  (w2): Linear(in_features=6400, out_features=4096, bias=False)
  (w3): Linear(in_features=4096, out_features=6400, bias=False)
  (act_fn): SiLU()
)
model.layers.10.block_sparse_moe.experts.7.w1
Linear(in_features=4096, out_features=6400, bias=False)
model.layers.10.block_sparse_moe.experts.7.w2
Linear(in_features=6400, out_features=4096, bias=False)
model.layers.10.block_sparse_moe.experts.7.w3
Linear(in_features=4096, out_features=6400, bias=False)
model.layers.10.block_sparse_moe.experts.7.act_fn
SiLU()
model.layers.10.block_sparse_moe.experts.8
PhiMoEBlockSparseTop2MLP(
  (w1): Linear(in_features=4096, out_features=6400, bias=False)
  (w2): Linear(in_features=6400, out_features=4096, bias=False)
  (w3): Linear(in_features=4096, out_features=6400, bias=False)
  (act_fn): SiLU()
)
model.layers.10.block_sparse_moe.experts.8.w1
Linear(in_features=4096, out_features=6400, bias=False)
model.layers.10.block_sparse_moe.experts.8.w2
Linear(in_features=6400, out_features=4096, bias=False)
model.layers.10.block_sparse_moe.experts.8.w3
Linear(in_features=4096, out_features=6400, bias=False)
model.layers.10.block_sparse_moe.experts.8.act_fn
SiLU()
model.layers.10.block_sparse_moe.experts.9
PhiMoEBlockSparseTop2MLP(
  (w1): Linear(in_features=4096, out_features=6400, bias=False)
  (w2): Linear(in_features=6400, out_features=4096, bias=False)
  (w3): Linear(in_features=4096, out_features=6400, bias=False)
  (act_fn): SiLU()
)
model.layers.10.block_sparse_moe.experts.9.w1
Linear(in_features=4096, out_features=6400, bias=False)
model.layers.10.block_sparse_moe.experts.9.w2
Linear(in_features=6400, out_features=4096, bias=False)
model.layers.10.block_sparse_moe.experts.9.w3
Linear(in_features=4096, out_features=6400, bias=False)
model.layers.10.block_sparse_moe.experts.9.act_fn
SiLU()
model.layers.10.block_sparse_moe.experts.10
PhiMoEBlockSparseTop2MLP(
  (w1): Linear(in_features=4096, out_features=6400, bias=False)
  (w2): Linear(in_features=6400, out_features=4096, bias=False)
  (w3): Linear(in_features=4096, out_features=6400, bias=False)
  (act_fn): SiLU()
)
model.layers.10.block_sparse_moe.experts.10.w1
Linear(in_features=4096, out_features=6400, bias=False)
model.layers.10.block_sparse_moe.experts.10.w2
Linear(in_features=6400, out_features=4096, bias=False)
model.layers.10.block_sparse_moe.experts.10.w3
Linear(in_features=4096, out_features=6400, bias=False)
model.layers.10.block_sparse_moe.experts.10.act_fn
SiLU()
model.layers.10.block_sparse_moe.experts.11
PhiMoEBlockSparseTop2MLP(
  (w1): Linear(in_features=4096, out_features=6400, bias=False)
  (w2): Linear(in_features=6400, out_features=4096, bias=False)
  (w3): Linear(in_features=4096, out_features=6400, bias=False)
  (act_fn): SiLU()
)
model.layers.10.block_sparse_moe.experts.11.w1
Linear(in_features=4096, out_features=6400, bias=False)
model.layers.10.block_sparse_moe.experts.11.w2
Linear(in_features=6400, out_features=4096, bias=False)
model.layers.10.block_sparse_moe.experts.11.w3
Linear(in_features=4096, out_features=6400, bias=False)
model.layers.10.block_sparse_moe.experts.11.act_fn
SiLU()
model.layers.10.block_sparse_moe.experts.12
PhiMoEBlockSparseTop2MLP(
  (w1): Linear(in_features=4096, out_features=6400, bias=False)
  (w2): Linear(in_features=6400, out_features=4096, bias=False)
  (w3): Linear(in_features=4096, out_features=6400, bias=False)
  (act_fn): SiLU()
)
model.layers.10.block_sparse_moe.experts.12.w1
Linear(in_features=4096, out_features=6400, bias=False)
model.layers.10.block_sparse_moe.experts.12.w2
Linear(in_features=6400, out_features=4096, bias=False)
model.layers.10.block_sparse_moe.experts.12.w3
Linear(in_features=4096, out_features=6400, bias=False)
model.layers.10.block_sparse_moe.experts.12.act_fn
SiLU()
model.layers.10.block_sparse_moe.experts.13
PhiMoEBlockSparseTop2MLP(
  (w1): Linear(in_features=4096, out_features=6400, bias=False)
  (w2): Linear(in_features=6400, out_features=4096, bias=False)
  (w3): Linear(in_features=4096, out_features=6400, bias=False)
  (act_fn): SiLU()
)
model.layers.10.block_sparse_moe.experts.13.w1
Linear(in_features=4096, out_features=6400, bias=False)
model.layers.10.block_sparse_moe.experts.13.w2
Linear(in_features=6400, out_features=4096, bias=False)
model.layers.10.block_sparse_moe.experts.13.w3
Linear(in_features=4096, out_features=6400, bias=False)
model.layers.10.block_sparse_moe.experts.13.act_fn
SiLU()
model.layers.10.block_sparse_moe.experts.14
PhiMoEBlockSparseTop2MLP(
  (w1): Linear(in_features=4096, out_features=6400, bias=False)
  (w2): Linear(in_features=6400, out_features=4096, bias=False)
  (w3): Linear(in_features=4096, out_features=6400, bias=False)
  (act_fn): SiLU()
)
model.layers.10.block_sparse_moe.experts.14.w1
Linear(in_features=4096, out_features=6400, bias=False)
model.layers.10.block_sparse_moe.experts.14.w2
Linear(in_features=6400, out_features=4096, bias=False)
model.layers.10.block_sparse_moe.experts.14.w3
Linear(in_features=4096, out_features=6400, bias=False)
model.layers.10.block_sparse_moe.experts.14.act_fn
SiLU()
model.layers.10.block_sparse_moe.experts.15
PhiMoEBlockSparseTop2MLP(
  (w1): Linear(in_features=4096, out_features=6400, bias=False)
  (w2): Linear(in_features=6400, out_features=4096, bias=False)
  (w3): Linear(in_features=4096, out_features=6400, bias=False)
  (act_fn): SiLU()
)
model.layers.10.block_sparse_moe.experts.15.w1
Linear(in_features=4096, out_features=6400, bias=False)
model.layers.10.block_sparse_moe.experts.15.w2
Linear(in_features=6400, out_features=4096, bias=False)
model.layers.10.block_sparse_moe.experts.15.w3
Linear(in_features=4096, out_features=6400, bias=False)
model.layers.10.block_sparse_moe.experts.15.act_fn
SiLU()
model.layers.10.input_layernorm
LayerNorm((4096,), eps=1e-05, elementwise_affine=True)
model.layers.10.post_attention_layernorm
LayerNorm((4096,), eps=1e-05, elementwise_affine=True)
model.layers.11
PhiMoEDecoderLayer(
  (self_attn): PhiMoESdpaAttention(
    (q_proj): Linear(in_features=4096, out_features=4096, bias=True)
    (k_proj): Linear(in_features=4096, out_features=1024, bias=True)
    (v_proj): Linear(in_features=4096, out_features=1024, bias=True)
    (o_proj): Linear(in_features=4096, out_features=4096, bias=True)
    (rotary_emb): Phi3LongRoPEScaledRotaryEmbedding()
  )
  (block_sparse_moe): PhiMoESparseMoeBlock(
    (gate): Linear(in_features=4096, out_features=16, bias=False)
    (experts): ModuleList(
      (0-15): 16 x PhiMoEBlockSparseTop2MLP(
        (w1): Linear(in_features=4096, out_features=6400, bias=False)
        (w2): Linear(in_features=6400, out_features=4096, bias=False)
        (w3): Linear(in_features=4096, out_features=6400, bias=False)
        (act_fn): SiLU()
      )
    )
  )
  (input_layernorm): LayerNorm((4096,), eps=1e-05, elementwise_affine=True)
  (post_attention_layernorm): LayerNorm((4096,), eps=1e-05, elementwise_affine=True)
)
model.layers.11.self_attn
PhiMoESdpaAttention(
  (q_proj): Linear(in_features=4096, out_features=4096, bias=True)
  (k_proj): Linear(in_features=4096, out_features=1024, bias=True)
  (v_proj): Linear(in_features=4096, out_features=1024, bias=True)
  (o_proj): Linear(in_features=4096, out_features=4096, bias=True)
  (rotary_emb): Phi3LongRoPEScaledRotaryEmbedding()
)
model.layers.11.self_attn.q_proj
Linear(in_features=4096, out_features=4096, bias=True)
model.layers.11.self_attn.k_proj
Linear(in_features=4096, out_features=1024, bias=True)
model.layers.11.self_attn.v_proj
Linear(in_features=4096, out_features=1024, bias=True)
model.layers.11.self_attn.o_proj
Linear(in_features=4096, out_features=4096, bias=True)
model.layers.11.self_attn.rotary_emb
…
Linear(in_features=4096, out_features=6400, bias=False)
model.layers.28.block_sparse_moe.experts.0.w2
Linear(in_features=6400, out_features=4096, bias=False)
model.layers.28.block_sparse_moe.experts.0.w3
Linear(in_features=4096, out_features=6400, bias=False)
model.layers.28.block_sparse_moe.experts.0.act_fn
SiLU()
model.layers.28.block_sparse_moe.experts.1
PhiMoEBlockSparseTop2MLP(
  (w1): Linear(in_features=4096, out_features=6400, bias=False)
  (w2): Linear(in_features=6400, out_features=4096, bias=False)
  (w3): Linear(in_features=4096, out_features=6400, bias=False)
  (act_fn): SiLU()
)
model.layers.28.block_sparse_moe.experts.1.w1
Linear(in_features=4096, out_features=6400, bias=False)
model.layers.28.block_sparse_moe.experts.1.w2
Linear(in_features=6400, out_features=4096, bias=False)
model.layers.28.block_sparse_moe.experts.1.w3
Linear(in_features=4096, out_features=6400, bias=False)
model.layers.28.block_sparse_moe.experts.1.act_fn
SiLU()
model.layers.28.block_sparse_moe.experts.2
PhiMoEBlockSparseTop2MLP(
  (w1): Linear(in_features=4096, out_features=6400, bias=False)
  (w2): Linear(in_features=6400, out_features=4096, bias=False)
  (w3): Linear(in_features=4096, out_features=6400, bias=False)
  (act_fn): SiLU()
)
model.layers.28.block_sparse_moe.experts.2.w1
Linear(in_features=4096, out_features=6400, bias=False)
model.layers.28.block_sparse_moe.experts.2.w2
Linear(in_features=6400, out_features=4096, bias=False)
model.layers.28.block_sparse_moe.experts.2.w3
Linear(in_features=4096, out_features=6400, bias=False)
model.layers.28.block_sparse_moe.experts.2.act_fn
SiLU()
model.layers.28.block_sparse_moe.experts.3
PhiMoEBlockSparseTop2MLP(
  (w1): Linear(in_features=4096, out_features=6400, bias=False)
  (w2): Linear(in_features=6400, out_features=4096, bias=False)
  (w3): Linear(in_features=4096, out_features=6400, bias=False)
  (act_fn): SiLU()
)
model.layers.28.block_sparse_moe.experts.3.w1
Linear(in_features=4096, out_features=6400, bias=False)
model.layers.28.block_sparse_moe.experts.3.w2
Linear(in_features=6400, out_features=4096, bias=False)
model.layers.28.block_sparse_moe.experts.3.w3
Linear(in_features=4096, out_features=6400, bias=False)
model.layers.28.block_sparse_moe.experts.3.act_fn
SiLU()
model.layers.28.block_sparse_moe.experts.4
PhiMoEBlockSparseTop2MLP(
  (w1): Linear(in_features=4096, out_features=6400, bias=False)
  (w2): Linear(in_features=6400, out_features=4096, bias=False)
  (w3): Linear(in_features=4096, out_features=6400, bias=False)
  (act_fn): SiLU()
)
model.layers.28.block_sparse_moe.experts.4.w1
Linear(in_features=4096, out_features=6400, bias=False)
model.layers.28.block_sparse_moe.experts.4.w2
Linear(in_features=6400, out_features=4096, bias=False)
model.layers.28.block_sparse_moe.experts.4.w3
Linear(in_features=4096, out_features=6400, bias=False)
model.layers.28.block_sparse_moe.experts.4.act_fn
SiLU()
model.layers.28.block_sparse_moe.experts.5
PhiMoEBlockSparseTop2MLP(
  (w1): Linear(in_features=4096, out_features=6400, bias=False)
  (w2): Linear(in_features=6400, out_features=4096, bias=False)
  (w3): Linear(in_features=4096, out_features=6400, bias=False)
  (act_fn): SiLU()
)
model.layers.28.block_sparse_moe.experts.5.w1
Linear(in_features=4096, out_features=6400, bias=False)
model.layers.28.block_sparse_moe.experts.5.w2
Linear(in_features=6400, out_features=4096, bias=False)
model.layers.28.block_sparse_moe.experts.5.w3
Linear(in_features=4096, out_features=6400, bias=False)
model.layers.28.block_sparse_moe.experts.5.act_fn
SiLU()
model.layers.28.block_sparse_moe.experts.6
PhiMoEBlockSparseTop2MLP(
  (w1): Linear(in_features=4096, out_features=6400, bias=False)
  (w2): Linear(in_features=6400, out_features=4096, bias=False)
  (w3): Linear(in_features=4096, out_features=6400, bias=False)
  (act_fn): SiLU()
)
model.layers.28.block_sparse_moe.experts.6.w1
Linear(in_features=4096, out_features=6400, bias=False)
model.layers.28.block_sparse_moe.experts.6.w2
Linear(in_features=6400, out_features=4096, bias=False)
model.layers.28.block_sparse_moe.experts.6.w3
Linear(in_features=4096, out_features=6400, bias=False)
model.layers.28.block_sparse_moe.experts.6.act_fn
SiLU()
model.layers.28.block_sparse_moe.experts.7
PhiMoEBlockSparseTop2MLP(
  (w1): Linear(in_features=4096, out_features=6400, bias=False)
  (w2): Linear(in_features=6400, out_features=4096, bias=False)
  (w3): Linear(in_features=4096, out_features=6400, bias=False)
  (act_fn): SiLU()
)
model.layers.28.block_sparse_moe.experts.7.w1
Linear(in_features=4096, out_features=6400, bias=False)
model.layers.28.block_sparse_moe.experts.7.w2
Linear(in_features=6400, out_features=4096, bias=False)
model.layers.28.block_sparse_moe.experts.7.w3
Linear(in_features=4096, out_features=6400, bias=False)
model.layers.28.block_sparse_moe.experts.7.act_fn
SiLU()
model.layers.28.block_sparse_moe.experts.8
PhiMoEBlockSparseTop2MLP(
  (w1): Linear(in_features=4096, out_features=6400, bias=False)
  (w2): Linear(in_features=6400, out_features=4096, bias=False)
  (w3): Linear(in_features=4096, out_features=6400, bias=False)
  (act_fn): SiLU()
)
model.layers.28.block_sparse_moe.experts.8.w1
Linear(in_features=4096, out_features=6400, bias=False)
model.layers.28.block_sparse_moe.experts.8.w2
Linear(in_features=6400, out_features=4096, bias=False)
model.layers.28.block_sparse_moe.experts.8.w3
Linear(in_features=4096, out_features=6400, bias=False)
model.layers.28.block_sparse_moe.experts.8.act_fn
SiLU()
model.layers.28.block_sparse_moe.experts.9
PhiMoEBlockSparseTop2MLP(
  (w1): Linear(in_features=4096, out_features=6400, bias=False)
  (w2): Linear(in_features=6400, out_features=4096, bias=False)
  (w3): Linear(in_features=4096, out_features=6400, bias=False)
  (act_fn): SiLU()
)
model.layers.28.block_sparse_moe.experts.9.w1
Linear(in_features=4096, out_features=6400, bias=False)
model.layers.28.block_sparse_moe.experts.9.w2
Linear(in_features=6400, out_features=4096, bias=False)
model.layers.28.block_sparse_moe.experts.9.w3
Linear(in_features=4096, out_features=6400, bias=False)
model.layers.28.block_sparse_moe.experts.9.act_fn
SiLU()
model.layers.28.block_sparse_moe.experts.10
PhiMoEBlockSparseTop2MLP(
  (w1): Linear(in_features=4096, out_features=6400, bias=False)
  (w2): Linear(in_features=6400, out_features=4096, bias=False)
  (w3): Linear(in_features=4096, out_features=6400, bias=False)
  (act_fn): SiLU()
)
model.layers.28.block_sparse_moe.experts.10.w1
Linear(in_features=4096, out_features=6400, bias=False)
model.layers.28.block_sparse_moe.experts.10.w2
Linear(in_features=6400, out_features=4096, bias=False)
model.layers.28.block_sparse_moe.experts.10.w3
Linear(in_features=4096, out_features=6400, bias=False)
model.layers.28.block_sparse_moe.experts.10.act_fn
SiLU()
model.layers.28.block_sparse_moe.experts.11
PhiMoEBlockSparseTop2MLP(
  (w1): Linear(in_features=4096, out_features=6400, bias=False)
  (w2): Linear(in_features=6400, out_features=4096, bias=False)
  (w3): Linear(in_features=4096, out_features=6400, bias=False)
  (act_fn): SiLU()
)
model.layers.28.block_sparse_moe.experts.11.w1
Linear(in_features=4096, out_features=6400, bias=False)
model.layers.28.block_sparse_moe.experts.11.w2
Linear(in_features=6400, out_features=4096, bias=False)
model.layers.28.block_sparse_moe.experts.11.w3
Linear(in_features=4096, out_features=6400, bias=False)
model.layers.28.block_sparse_moe.experts.11.act_fn
SiLU()
model.layers.28.block_sparse_moe.experts.12
PhiMoEBlockSparseTop2MLP(
  (w1): Linear(in_features=4096, out_features=6400, bias=False)
  (w2): Linear(in_features=6400, out_features=4096, bias=False)
  (w3): Linear(in_features=4096, out_features=6400, bias=False)
  (act_fn): SiLU()
)
model.layers.28.block_sparse_moe.experts.12.w1
Linear(in_features=4096, out_features=6400, bias=False)
model.layers.28.block_sparse_moe.experts.12.w2
Linear(in_features=6400, out_features=4096, bias=False)
model.layers.28.block_sparse_moe.experts.12.w3
Linear(in_features=4096, out_features=6400, bias=False)
model.layers.28.block_sparse_moe.experts.12.act_fn
SiLU()
model.layers.28.block_sparse_moe.experts.13
PhiMoEBlockSparseTop2MLP(
  (w1): Linear(in_features=4096, out_features=6400, bias=False)
  (w2): Linear(in_features=6400, out_features=4096, bias=False)
  (w3): Linear(in_features=4096, out_features=6400, bias=False)
  (act_fn): SiLU()
)
model.layers.28.block_sparse_moe.experts.13.w1
Linear(in_features=4096, out_features=6400, bias=False)
model.layers.28.block_sparse_moe.experts.13.w2
Linear(in_features=6400, out_features=4096, bias=False)
model.layers.28.block_sparse_moe.experts.13.w3
Linear(in_features=4096, out_features=6400, bias=False)
model.layers.28.block_sparse_moe.experts.13.act_fn
SiLU()
model.layers.28.block_sparse_moe.experts.14
PhiMoEBlockSparseTop2MLP(
  (w1): Linear(in_features=4096, out_features=6400, bias=False)
  (w2): Linear(in_features=6400, out_features=4096, bias=False)
  (w3): Linear(in_features=4096, out_features=6400, bias=False)
  (act_fn): SiLU()
)
model.layers.28.block_sparse_moe.experts.14.w1
Linear(in_features=4096, out_features=6400, bias=False)
model.layers.28.block_sparse_moe.experts.14.w2
Linear(in_features=6400, out_features=4096, bias=False)
model.layers.28.block_sparse_moe.experts.14.w3
Linear(in_features=4096, out_features=6400, bias=False)
model.layers.28.block_sparse_moe.experts.14.act_fn
SiLU()
model.layers.28.block_sparse_moe.experts.15
PhiMoEBlockSparseTop2MLP(
  (w1): Linear(in_features=4096, out_features=6400, bias=False)
  (w2): Linear(in_features=6400, out_features=4096, bias=False)
  (w3): Linear(in_features=4096, out_features=6400, bias=False)
  (act_fn): SiLU()
)
model.layers.28.block_sparse_moe.experts.15.w1
Linear(in_features=4096, out_features=6400, bias=False)
model.layers.28.block_sparse_moe.experts.15.w2
Linear(in_features=6400, out_features=4096, bias=False)
model.layers.28.block_sparse_moe.experts.15.w3
Linear(in_features=4096, out_features=6400, bias=False)
model.layers.28.block_sparse_moe.experts.15.act_fn
SiLU()
model.layers.28.input_layernorm
LayerNorm((4096,), eps=1e-05, elementwise_affine=True)
model.layers.28.post_attention_layernorm
LayerNorm((4096,), eps=1e-05, elementwise_affine=True)
model.layers.29
PhiMoEDecoderLayer(
  (self_attn): PhiMoESdpaAttention(
    (q_proj): Linear(in_features=4096, out_features=4096, bias=True)
    (k_proj): Linear(in_features=4096, out_features=1024, bias=True)
    (v_proj): Linear(in_features=4096, out_features=1024, bias=True)
    (o_proj): Linear(in_features=4096, out_features=4096, bias=True)
    (rotary_emb): Phi3LongRoPEScaledRotaryEmbedding()
  )
  (block_sparse_moe): PhiMoESparseMoeBlock(
    (gate): Linear(in_features=4096, out_features=16, bias=False)
    (experts): ModuleList(
      (0-15): 16 x PhiMoEBlockSparseTop2MLP(
        (w1): Linear(in_features=4096, out_features=6400, bias=False)
        (w2): Linear(in_features=6400, out_features=4096, bias=False)
        (w3): Linear(in_features=4096, out_features=6400, bias=False)
        (act_fn): SiLU()
      )
    )
  )
  (input_layernorm): LayerNorm((4096,), eps=1e-05, elementwise_affine=True)
  (post_attention_layernorm): LayerNorm((4096,), eps=1e-05, elementwise_affine=True)
)
model.layers.29.self_attn
PhiMoESdpaAttention(
  (q_proj): Linear(in_features=4096, out_features=4096, bias=True)
  (k_proj): Linear(in_features=4096, out_features=1024, bias=True)
  (v_proj): Linear(in_features=4096, out_features=1024, bias=True)
  (o_proj): Linear(in_features=4096, out_features=4096, bias=True)
  (rotary_emb): Phi3LongRoPEScaledRotaryEmbedding()
)
model.layers.29.self_attn.q_proj
Linear(in_features=4096, out_features=4096, bias=True)
model.layers.29.self_attn.k_proj
Linear(in_features=4096, out_features=1024, bias=True)
model.layers.29.self_attn.v_proj
Linear(in_features=4096, out_features=1024, bias=True)
model.layers.29.self_attn.o_proj
Linear(in_features=4096, out_features=4096, bias=True)
model.layers.29.self_attn.rotary_emb
Phi3LongRoPEScaledRotaryEmbedding()
model.layers.29.block_sparse_moe
PhiMoESparseMoeBlock(
  (gate): Linear(in_features=4096, out_features=16, bias=False)
  (experts): ModuleList(
    (0-15): 16 x PhiMoEBlockSparseTop2MLP(
      (w1): Linear(in_features=4096, out_features=6400, bias=False)
      (w2): Linear(in_features=6400, out_features=4096, bias=False)
      (w3): Linear(in_features=4096, out_features=6400, bias=False)
      (act_fn): SiLU()
    )
  )
)
model.layers.29.block_sparse_moe.gate
Linear(in_features=4096, out_features=16, bias=False)
model.layers.29.block_sparse_moe.experts
ModuleList(
  (0-15): 16 x PhiMoEBlockSparseTop2MLP(
    (w1): Linear(in_features=4096, out_features=6400, bias=False)
    (w2): Linear(in_features=6400, out_features=4096, bias=False)
    (w3): Linear(in_features=4096, out_features=6400, bias=False)
    (act_fn): SiLU()
  )
)
model.layers.29.block_sparse_moe.experts.0
PhiMoEBlockSparseTop2MLP(
  (w1): Linear(in_features=4096, out_features=6400, bias=False)
  (w2): Linear(in_features=6400, out_features=4096, bias=False)
  (w3): Linear(in_features=4096, out_features=6400, bias=False)
  (act_fn): SiLU()
)
model.layers.29.block_sparse_moe.experts.0.w1
Linear(in_features=4096, out_features=6400, bias=False)
model.layers.29.block_sparse_moe.experts.0.w2
Linear(in_features=6400, out_features=4096, bias=False)
model.layers.29.block_sparse_moe.experts.0.w3
Linear(in_features=4096, out_features=6400, bias=False)
model.layers.29.block_sparse_moe.experts.0.act_fn
SiLU()
model.layers.29.block_sparse_moe.experts.1
PhiMoEBlockSparseTop2MLP(
  (w1): Linear(in_features=4096, out_features=6400, bias=False)
  (w2): Linear(in_features=6400, out_features=4096, bias=False)
  (w3): Linear(in_features=4096, out_features=6400, bias=False)
  (act_fn): SiLU()
)
model.layers.29.block_sparse_moe.experts.1.w1
Linear(in_features=4096, out_features=6400, bias=False)
model.layers.29.block_sparse_moe.experts.1.w2
Linear(in_features=6400, out_features=4096, bias=False)
model.layers.29.block_sparse_moe.experts.1.w3
Linear(in_features=4096, out_features=6400, bias=False)
model.layers.29.block_sparse_moe.experts.1.act_fn
SiLU()
model.layers.29.block_sparse_moe.experts.2
PhiMoEBlockSparseTop2MLP(
  (w1): Linear(in_features=4096, out_features=6400, bias=False)
  (w2): Linear(in_features=6400, out_features=4096, bias=False)
  (w3): Linear(in_features=4096, out_features=6400, bias=False)
  (act_fn): SiLU()
)
model.layers.29.block_sparse_moe.experts.2.w1
Linear(in_features=4096, out_features=6400, bias=False)
model.layers.29.block_sparse_moe.experts.2.w2
Linear(in_features=6400, out_features=4096, bias=False)
model.layers.29.block_sparse_moe.experts.2.w3
Linear(in_features=4096, out_features=6400, bias=False)
model.layers.29.block_sparse_moe.experts.2.act_fn
SiLU()
model.layers.29.block_sparse_moe.experts.3
PhiMoEBlockSparseTop2MLP(
  (w1): Linear(in_features=4096, out_features=6400, bias=False)
  (w2): Linear(in_features=6400, out_features=4096, bias=False)
  (w3): Linear(in_features=4096, out_features=6400, bias=False)
  (act_fn): SiLU()
)
model.layers.29.block_sparse_moe.experts.3.w1
Linear(in_features=4096, out_features=6400, bias=False)
model.layers.29.block_sparse_moe.experts.3.w2
Linear(in_features=6400, out_features=4096, bias=False)
model.layers.29.block_sparse_moe.experts.3.w3
Linear(in_features=4096, out_features=6400, bias=False)
model.layers.29.block_sparse_moe.experts.3.act_fn
SiLU()
model.layers.29.block_sparse_moe.experts.4
PhiMoEBlockSparseTop2MLP(
  (w1): Linear(in_features=4096, out_features=6400, bias=False)
  (w2): Linear(in_features=6400, out_features=4096, bias=False)
  (w3): Linear(in_features=4096, out_features=6400, bias=False)
  (act_fn): SiLU()
)
model.layers.29.block_sparse_moe.experts.4.w1
Linear(in_features=4096, out_features=6400, bias=False)
model.layers.29.block_sparse_moe.experts.4.w2
Linear(in_features=6400, out_features=4096, bias=False)
model.layers.29.block_sparse_moe.experts.4.w3
Linear(in_features=4096, out_features=6400, bias=False)
model.layers.29.block_sparse_moe.experts.4.act_fn
SiLU()
model.layers.29.block_sparse_moe.experts.5
PhiMoEBlockSparseTop2MLP(
  (w1): Linear(in_features=4096, out_features=6400, bias=False)
  (w2): Linear(in_features=6400, out_features=4096, bias=False)
  (w3): Linear(in_features=4096, out_features=6400, bias=False)
  (act_fn): SiLU()
)
model.layers.29.block_sparse_moe.experts.5.w1
Linear(in_features=4096, out_features=6400, bias=False)
model.layers.29.block_sparse_moe.experts.5.w2
Linear(in_features=6400, out_features=4096, bias=False)
model.layers.29.block_sparse_moe.experts.5.w3
Linear(in_features=4096, out_features=6400, bias=False)
model.layers.29.block_sparse_moe.experts.5.act_fn
SiLU()
model.layers.29.block_sparse_moe.experts.6
PhiMoEBlockSparseTop2MLP(
  (w1): Linear(in_features=4096, out_features=6400, bias=False)
  (w2): Linear(in_features=6400, out_features=4096, bias=False)
  (w3): Linear(in_features=4096, out_features=6400, bias=False)
  (act_fn): SiLU()
)
model.layers.29.block_sparse_moe.experts.6.w1
Linear(in_features=4096, out_features=6400, bias=False)
model.layers.29.block_sparse_moe.experts.6.w2
Linear(in_features=6400, out_features=4096, bias=False)
model.layers.29.block_sparse_moe.experts.6.w3
Linear(in_features=4096, out_features=6400, bias=False)
model.layers.29.block_sparse_moe.experts.6.act_fn
SiLU()
model.layers.29.block_sparse_moe.experts.7
PhiMoEBlockSparseTop2MLP(
  (w1): Linear(in_features=4096, out_features=6400, bias=False)
  (w2): Linear(in_features=6400, out_features=4096, bias=False)
  (w3): Linear(in_features=4096, out_features=6400, bias=False)
  (act_fn): SiLU()
)
model.layers.29.block_sparse_moe.experts.7.w1
Linear(in_features=4096, out_features=6400, bias=False)
model.layers.29.block_sparse_moe.experts.7.w2
Linear(in_features=6400, out_features=4096, bias=False)
model.layers.29.block_sparse_moe.experts.7.w3
Linear(in_features=4096, out_features=6400, bias=False)
model.layers.29.block_sparse_moe.experts.7.act_fn
SiLU()
model.layers.29.block_sparse_moe.experts.8
PhiMoEBlockSparseTop2MLP(
  (w1): Linear(in_features=4096, out_features=6400, bias=False)
  (w2): Linear(in_features=6400, out_features=4096, bias=False)
  (w3): Linear(in_features=4096, out_features=6400, bias=False)
  (act_fn): SiLU()
)
model.layers.29.block_sparse_moe.experts.8.w1
Linear(in_features=4096, out_features=6400, bias=False)
model.layers.29.block_sparse_moe.experts.8.w2
Linear(in_features=6400, out_features=4096, bias=False)
model.layers.29.block_sparse_moe.experts.8.w3
Linear(in_features=4096, out_features=6400, bias=False)
model.layers.29.block_sparse_moe.experts.8.act_fn
SiLU()
model.layers.29.block_sparse_moe.experts.9
PhiMoEBlockSparseTop2MLP(
  (w1): Linear(in_features=4096, out_features=6400, bias=False)
  (w2): Linear(in_features=6400, out_features=4096, bias=False)
  (w3): Linear(in_features=4096, out_features=6400, bias=False)
  (act_fn): SiLU()
)
model.layers.29.block_sparse_moe.experts.9.w1
Linear(in_features=4096, out_features=6400, bias=False)
model.layers.29.block_sparse_moe.experts.9.w2
Linear(in_features=6400, out_features=4096, bias=False)
model.layers.29.block_sparse_moe.experts.9.w3
Linear(in_features=4096, out_features=6400, bias=False)
model.layers.29.block_sparse_moe.experts.9.act_fn
SiLU()
model.layers.29.block_sparse_moe.experts.10
PhiMoEBlockSparseTop2MLP(
  (w1): Linear(in_features=4096, out_features=6400, bias=False)
  (w2): Linear(in_features=6400, out_features=4096, bias=False)
  (w3): Linear(in_features=4096, out_features=6400, bias=False)
  (act_fn): SiLU()
)
model.layers.29.block_sparse_moe.experts.10.w1
Linear(in_features=4096, out_features=6400, bias=False)
model.layers.29.block_sparse_moe.experts.10.w2
Linear(in_features=6400, out_features=4096, bias=False)
model.layers.29.block_sparse_moe.experts.10.w3
Linear(in_features=4096, out_features=6400, bias=False)
model.layers.29.block_sparse_moe.experts.10.act_fn
SiLU()
model.layers.29.block_sparse_moe.experts.11
PhiMoEBlockSparseTop2MLP(
  (w1): Linear(in_features=4096, out_features=6400, bias=False)
  (w2): Linear(in_features=6400, out_features=4096, bias=False)
  (w3): Linear(in_features=4096, out_features=6400, bias=False)
  (act_fn): SiLU()
)
model.layers.29.block_sparse_moe.experts.11.w1
Linear(in_features=4096, out_features=6400, bias=False)
model.layers.29.block_sparse_moe.experts.11.w2
Linear(in_features=6400, out_features=4096, bias=False)
model.layers.29.block_sparse_moe.experts.11.w3
Linear(in_features=4096, out_features=6400, bias=False)
model.layers.29.block_sparse_moe.experts.11.act_fn
SiLU()
model.layers.29.block_sparse_moe.experts.12
PhiMoEBlockSparseTop2MLP(
  (w1): Linear(in_features=4096, out_features=6400, bias=False)
  (w2): Linear(in_features=6400, out_features=4096, bias=False)
  (w3): Linear(in_features=4096, out_features=6400, bias=False)
  (act_fn): SiLU()
)
model.layers.29.block_sparse_moe.experts.12.w1
Linear(in_features=4096, out_features=6400, bias=False)
model.layers.29.block_sparse_moe.experts.12.w2
Linear(in_features=6400, out_features=4096, bias=False)
model.layers.29.block_sparse_moe.experts.12.w3
Linear(in_features=4096, out_features=6400, bias=False)
model.layers.29.block_sparse_moe.experts.12.act_fn
SiLU()
model.layers.29.block_sparse_moe.experts.13
PhiMoEBlockSparseTop2MLP(
  (w1): Linear(in_features=4096, out_features=6400, bias=False)
  (w2): Linear(in_features=6400, out_features=4096, bias=False)
  (w3): Linear(in_features=4096, out_features=6400, bias=False)
  (act_fn): SiLU()
)
model.layers.29.block_sparse_moe.experts.13.w1
Linear(in_features=4096, out_features=6400, bias=False)
model.layers.29.block_sparse_moe.experts.13.w2
Linear(in_features=6400, out_features=4096, bias=False)
model.layers.29.block_sparse_moe.experts.13.w3
Linear(in_features=4096, out_features=6400, bias=False)
model.layers.29.block_sparse_moe.experts.13.act_fn
SiLU()
model.layers.29.block_sparse_moe.experts.14
PhiMoEBlockSparseTop2MLP(
  (w1): Linear(in_features=4096, out_features=6400, bias=False)
  (w2): Linear(in_features=6400, out_features=4096, bias=False)
  (w3): Linear(in_features=4096, out_features=6400, bias=False)
  (act_fn): SiLU()
)
model.layers.29.block_sparse_moe.experts.14.w1
Linear(in_features=4096, out_features=6400, bias=False)
model.layers.29.block_sparse_moe.experts.14.w2
Linear(in_features=6400, out_features=4096, bias=False)
model.layers.29.block_sparse_moe.experts.14.w3
Linear(in_features=4096, out_features=6400, bias=False)
model.layers.29.block_sparse_moe.experts.14.act_fn
SiLU()
model.layers.29.block_sparse_moe.experts.15
PhiMoEBlockSparseTop2MLP(
  (w1): Linear(in_features=4096, out_features=6400, bias=False)
  (w2): Linear(in_features=6400, out_features=4096, bias=False)
  (w3): Linear(in_features=4096, out_features=6400, bias=False)
  (act_fn): SiLU()
)
model.layers.29.block_sparse_moe.experts.15.w1
Linear(in_features=4096, out_features=6400, bias=False)
model.layers.29.block_sparse_moe.experts.15.w2
Linear(in_features=6400, out_features=4096, bias=False)
model.layers.29.block_sparse_moe.experts.15.w3
Linear(in_features=4096, out_features=6400, bias=False)
model.layers.29.block_sparse_moe.experts.15.act_fn
SiLU()
model.layers.29.input_layernorm
LayerNorm((4096,), eps=1e-05, elementwise_affine=True)
model.layers.29.post_attention_layernorm
LayerNorm((4096,), eps=1e-05, elementwise_affine=True)
model.layers.30
PhiMoEDecoderLayer(
  (self_attn): PhiMoESdpaAttention(
    (q_proj): Linear(in_features=4096, out_features=4096, bias=True)
    (k_proj): Linear(in_features=4096, out_features=1024, bias=True)
    (v_proj): Linear(in_features=4096, out_features=1024, bias=True)
    (o_proj): Linear(in_features=4096, out_features=4096, bias=True)
    (rotary_emb): Phi3LongRoPEScaledRotaryEmbedding()
  )
  (block_sparse_moe): PhiMoESparseMoeBlock(
    (gate): Linear(in_features=4096, out_features=16, bias=False)
    (experts): ModuleList(
      (0-15): 16 x PhiMoEBlockSparseTop2MLP(
        (w1): Linear(in_features=4096, out_features=6400, bias=False)
        (w2): Linear(in_features=6400, out_features=4096, bias=False)
        (w3): Linear(in_features=4096, out_features=6400, bias=False)
        (act_fn): SiLU()
      )
    )
  )
  (input_layernorm): LayerNorm((4096,), eps=1e-05, elementwise_affine=True)
  (post_attention_layernorm): LayerNorm((4096,), eps=1e-05, elementwise_affine=True)
)
model.layers.30.self_attn
PhiMoESdpaAttention(
  (q_proj): Linear(in_features=4096, out_features=4096, bias=True)
  (k_proj): Linear(in_features=4096, out_features=1024, bias=True)
  (v_proj): Linear(in_features=4096, out_features=1024, bias=True)
  (o_proj): Linear(in_features=4096, out_features=4096, bias=True)
  (rotary_emb): Phi3LongRoPEScaledRotaryEmbedding()
)
model.layers.30.self_attn.q_proj
Linear(in_features=4096, out_features=4096, bias=True)
model.layers.30.self_attn.k_proj
Linear(in_features=4096, out_features=1024, bias=True)
model.layers.30.self_attn.v_proj
Linear(in_features=4096, out_features=1024, bias=True)
model.layers.30.self_attn.o_proj
Linear(in_features=4096, out_features=4096, bias=True)
model.layers.30.self_attn.rotary_emb
Phi3LongRoPEScaledRotaryEmbedding()
model.layers.30.block_sparse_moe
PhiMoESparseMoeBlock(
  (gate): Linear(in_features=4096, out_features=16, bias=False)
  (experts): ModuleList(
    (0-15): 16 x PhiMoEBlockSparseTop2MLP(
      (w1): Linear(in_features=4096, out_features=6400, bias=False)
      (w2): Linear(in_features=6400, out_features=4096, bias=False)
      (w3): Linear(in_features=4096, out_features=6400, bias=False)
      (act_fn): SiLU()
    )
  )
)
model.layers.30.block_sparse_moe.gate
Linear(in_features=4096, out_features=16, bias=False)
model.layers.30.block_sparse_moe.experts
ModuleList(
  (0-15): 16 x PhiMoEBlockSparseTop2MLP(
    (w1): Linear(in_features=4096, out_features=6400, bias=False)
    (w2): Linear(in_features=6400, out_features=4096, bias=False)
    (w3): Linear(in_features=4096, out_features=6400, bias=False)
    (act_fn): SiLU()
  )
)
model.layers.30.block_sparse_moe.experts.0
PhiMoEBlockSparseTop2MLP(
  (w1): Linear(in_features=4096, out_features=6400, bias=False)
  (w2): Linear(in_features=6400, out_features=4096, bias=False)
  (w3): Linear(in_features=4096, out_features=6400, bias=False)
  (act_fn): SiLU()
)
model.layers.30.block_sparse_moe.experts.0.w1
Linear(in_features=4096, out_features=6400, bias=False)
model.layers.30.block_sparse_moe.experts.0.w2
Linear(in_features=6400, out_features=4096, bias=False)
model.layers.30.block_sparse_moe.experts.0.w3
Linear(in_features=4096, out_features=6400, bias=False)
model.layers.30.block_sparse_moe.experts.0.act_fn
SiLU()
model.layers.30.block_sparse_moe.experts.1
PhiMoEBlockSparseTop2MLP(
  (w1): Linear(in_features=4096, out_features=6400, bias=False)
  (w2): Linear(in_features=6400, out_features=4096, bias=False)
  (w3): Linear(in_features=4096, out_features=6400, bias=False)
  (act_fn): SiLU()
)
model.layers.30.block_sparse_moe.experts.1.w1
Linear(in_features=4096, out_features=6400, bias=False)
model.layers.30.block_sparse_moe.experts.1.w2
Linear(in_features=6400, out_features=4096, bias=False)
model.layers.30.block_sparse_moe.experts.1.w3
Linear(in_features=4096, out_features=6400, bias=False)
model.layers.30.block_sparse_moe.experts.1.act_fn
SiLU()
model.layers.30.block_sparse_moe.experts.2
PhiMoEBlockSparseTop2MLP(
  (w1): Linear(in_features=4096, out_features=6400, bias=False)
  (w2): Linear(in_features=6400, out_features=4096, bias=False)
  (w3): Linear(in_features=4096, out_features=6400, bias=False)
  (act_fn): SiLU()
)
model.layers.30.block_sparse_moe.experts.2.w1
Linear(in_features=4096, out_features=6400, bias=False)
model.layers.30.block_sparse_moe.experts.2.w2
Linear(in_features=6400, out_features=4096, bias=False)
model.layers.30.block_sparse_moe.experts.2.w3
Linear(in_features=4096, out_features=6400, bias=False)
model.layers.30.block_sparse_moe.experts.2.act_fn
SiLU()
model.layers.30.block_sparse_moe.experts.3
PhiMoEBlockSparseTop2MLP(
  (w1): Linear(in_features=4096, out_features=6400, bias=False)
  (w2): Linear(in_features=6400, out_features=4096, bias=False)
  (w3): Linear(in_features=4096, out_features=6400, bias=False)
  (act_fn): SiLU()
)
model.layers.30.block_sparse_moe.experts.3.w1
Linear(in_features=4096, out_features=6400, bias=False)
model.layers.30.block_sparse_moe.experts.3.w2
Linear(in_features=6400, out_features=4096, bias=False)
model.layers.30.block_sparse_moe.experts.3.w3
Linear(in_features=4096, out_features=6400, bias=False)
model.layers.30.block_sparse_moe.experts.3.act_fn
SiLU()
model.layers.30.block_sparse_moe.experts.4
PhiMoEBlockSparseTop2MLP(
  (w1): Linear(in_features=4096, out_features=6400, bias=False)
  (w2): Linear(in_features=6400, out_features=4096, bias=False)
  (w3): Linear(in_features=4096, out_features=6400, bias=False)
  (act_fn): SiLU()
)
model.layers.30.block_sparse_moe.experts.4.w1
Linear(in_features=4096, out_features=6400, bias=False)
model.layers.30.block_sparse_moe.experts.4.w2
Linear(in_features=6400, out_features=4096, bias=False)
model.layers.30.block_sparse_moe.experts.4.w3
Linear(in_features=4096, out_features=6400, bias=False)
model.layers.30.block_sparse_moe.experts.4.act_fn
SiLU()
model.layers.30.block_sparse_moe.experts.5
PhiMoEBlockSparseTop2MLP(
  (w1): Linear(in_features=4096, out_features=6400, bias=False)
  (w2): Linear(in_features=6400, out_features=4096, bias=False)
  (w3): Linear(in_features=4096, out_features=6400, bias=False)
  (act_fn): SiLU()
)
model.layers.30.block_sparse_moe.experts.5.w1
Linear(in_features=4096, out_features=6400, bias=False)
model.layers.30.block_sparse_moe.experts.5.w2
Linear(in_features=6400, out_features=4096, bias=False)
model.layers.30.block_sparse_moe.experts.5.w3
Linear(in_features=4096, out_features=6400, bias=False)
model.layers.30.block_sparse_moe.experts.5.act_fn
SiLU()
model.layers.30.block_sparse_moe.experts.6
PhiMoEBlockSparseTop2MLP(
  (w1): Linear(in_features=4096, out_features=6400, bias=False)
  (w2): Linear(in_features=6400, out_features=4096, bias=False)
  (w3): Linear(in_features=4096, out_features=6400, bias=False)
  (act_fn): SiLU()
)
model.layers.30.block_sparse_moe.experts.6.w1
Linear(in_features=4096, out_features=6400, bias=False)
model.layers.30.block_sparse_moe.experts.6.w2
Linear(in_features=6400, out_features=4096, bias=False)
model.layers.30.block_sparse_moe.experts.6.w3
Linear(in_features=4096, out_features=6400, bias=False)
model.layers.30.block_sparse_moe.experts.6.act_fn
SiLU()
model.layers.30.block_sparse_moe.experts.7
PhiMoEBlockSparseTop2MLP(
  (w1): Linear(in_features=4096, out_features=6400, bias=False)
  (w2): Linear(in_features=6400, out_features=4096, bias=False)
  (w3): Linear(in_features=4096, out_features=6400, bias=False)
  (act_fn): SiLU()
)
model.layers.30.block_sparse_moe.experts.7.w1
Linear(in_features=4096, out_features=6400, bias=False)
model.layers.30.block_sparse_moe.experts.7.w2
Linear(in_features=6400, out_features=4096, bias=False)
model.layers.30.block_sparse_moe.experts.7.w3
Linear(in_features=4096, out_features=6400, bias=False)
model.layers.30.block_sparse_moe.experts.7.act_fn
SiLU()
model.layers.30.block_sparse_moe.experts.8
PhiMoEBlockSparseTop2MLP(
  (w1): Linear(in_features=4096, out_features=6400, bias=False)
  (w2): Linear(in_features=6400, out_features=4096, bias=False)
  (w3): Linear(in_features=4096, out_features=6400, bias=False)
  (act_fn): SiLU()
)
model.layers.30.block_sparse_moe.experts.8.w1
Linear(in_features=4096, out_features=6400, bias=False)
model.layers.30.block_sparse_moe.experts.8.w2
Linear(in_features=6400, out_features=4096, bias=False)
model.layers.30.block_sparse_moe.experts.8.w3
Linear(in_features=4096, out_features=6400, bias=False)
model.layers.30.block_sparse_moe.experts.8.act_fn
SiLU()
model.layers.30.block_sparse_moe.experts.9
PhiMoEBlockSparseTop2MLP(
  (w1): Linear(in_features=4096, out_features=6400, bias=False)
  (w2): Linear(in_features=6400, out_features=4096, bias=False)
  (w3): Linear(in_features=4096, out_features=6400, bias=False)
  (act_fn): SiLU()
)
model.layers.30.block_sparse_moe.experts.9.w1
Linear(in_features=4096, out_features=6400, bias=False)
model.layers.30.block_sparse_moe.experts.9.w2
Linear(in_features=6400, out_features=4096, bias=False)
model.layers.30.block_sparse_moe.experts.9.w3
Linear(in_features=4096, out_features=6400, bias=False)
model.layers.30.block_sparse_moe.experts.9.act_fn
SiLU()
model.layers.30.block_sparse_moe.experts.10
PhiMoEBlockSparseTop2MLP(
  (w1): Linear(in_features=4096, out_features=6400, bias=False)
  (w2): Linear(in_features=6400, out_features=4096, bias=False)
  (w3): Linear(in_features=4096, out_features=6400, bias=False)
  (act_fn): SiLU()
)
model.layers.30.block_sparse_moe.experts.10.w1
Linear(in_features=4096, out_features=6400, bias=False)
model.layers.30.block_sparse_moe.experts.10.w2
Linear(in_features=6400, out_features=4096, bias=False)
model.layers.30.block_sparse_moe.experts.10.w3
Linear(in_features=4096, out_features=6400, bias=False)
model.layers.30.block_sparse_moe.experts.10.act_fn
SiLU()
model.layers.30.block_sparse_moe.experts.11
PhiMoEBlockSparseTop2MLP(
  (w1): Linear(in_features=4096, out_features=6400, bias=False)
  (w2): Linear(in_features=6400, out_features=4096, bias=False)
  (w3): Linear(in_features=4096, out_features=6400, bias=False)
  (act_fn): SiLU()
)
model.layers.30.block_sparse_moe.experts.11.w1
Linear(in_features=4096, out_features=6400, bias=False)
model.layers.30.block_sparse_moe.experts.11.w2
Linear(in_features=6400, out_features=4096, bias=False)
model.layers.30.block_sparse_moe.experts.11.w3
Linear(in_features=4096, out_features=6400, bias=False)
model.layers.30.block_sparse_moe.experts.11.act_fn
SiLU()
model.layers.30.block_sparse_moe.experts.12
PhiMoEBlockSparseTop2MLP(
  (w1): Linear(in_features=4096, out_features=6400, bias=False)
  (w2): Linear(in_features=6400, out_features=4096, bias=False)
  (w3): Linear(in_features=4096, out_features=6400, bias=False)
  (act_fn): SiLU()
)
model.layers.30.block_sparse_moe.experts.12.w1
Linear(in_features=4096, out_features=6400, bias=False)
model.layers.30.block_sparse_moe.experts.12.w2
Linear(in_features=6400, out_features=4096, bias=False)
model.layers.30.block_sparse_moe.experts.12.w3
Linear(in_features=4096, out_features=6400, bias=False)
model.layers.30.block_sparse_moe.experts.12.act_fn
SiLU()
model.layers.30.block_sparse_moe.experts.13
PhiMoEBlockSparseTop2MLP(
  (w1): Linear(in_features=4096, out_features=6400, bias=False)
  (w2): Linear(in_features=6400, out_features=4096, bias=False)
  (w3): Linear(in_features=4096, out_features=6400, bias=False)
  (act_fn): SiLU()
)
model.layers.30.block_sparse_moe.experts.13.w1
Linear(in_features=4096, out_features=6400, bias=False)
model.layers.30.block_sparse_moe.experts.13.w2
Linear(in_features=6400, out_features=4096, bias=False)
model.layers.30.block_sparse_moe.experts.13.w3
Linear(in_features=4096, out_features=6400, bias=False)
model.layers.30.block_sparse_moe.experts.13.act_fn
SiLU()
model.layers.30.block_sparse_moe.experts.14
PhiMoEBlockSparseTop2MLP(
  (w1): Linear(in_features=4096, out_features=6400, bias=False)
  (w2): Linear(in_features=6400, out_features=4096, bias=False)
  (w3): Linear(in_features=4096, out_features=6400, bias=False)
  (act_fn): SiLU()
)
model.layers.30.block_sparse_moe.experts.14.w1
Linear(in_features=4096, out_features=6400, bias=False)
model.layers.30.block_sparse_moe.experts.14.w2
Linear(in_features=6400, out_features=4096, bias=False)
model.layers.30.block_sparse_moe.experts.14.w3
Linear(in_features=4096, out_features=6400, bias=False)
model.layers.30.block_sparse_moe.experts.14.act_fn
SiLU()
model.layers.30.block_sparse_moe.experts.15
PhiMoEBlockSparseTop2MLP(
  (w1): Linear(in_features=4096, out_features=6400, bias=False)
  (w2): Linear(in_features=6400, out_features=4096, bias=False)
  (w3): Linear(in_features=4096, out_features=6400, bias=False)
  (act_fn): SiLU()
)
model.layers.30.block_sparse_moe.experts.15.w1
Linear(in_features=4096, out_features=6400, bias=False)
model.layers.30.block_sparse_moe.experts.15.w2
Linear(in_features=6400, out_features=4096, bias=False)
model.layers.30.block_sparse_moe.experts.15.w3
Linear(in_features=4096, out_features=6400, bias=False)
model.layers.30.block_sparse_moe.experts.15.act_fn
SiLU()
model.layers.30.input_layernorm
LayerNorm((4096,), eps=1e-05, elementwise_affine=True)
model.layers.30.post_attention_layernorm
LayerNorm((4096,), eps=1e-05, elementwise_affine=True)
model.layers.31
PhiMoEDecoderLayer(
  (self_attn): PhiMoESdpaAttention(
    (q_proj): Linear(in_features=4096, out_features=4096, bias=True)
    (k_proj): Linear(in_features=4096, out_features=1024, bias=True)
    (v_proj): Linear(in_features=4096, out_features=1024, bias=True)
    (o_proj): Linear(in_features=4096, out_features=4096, bias=True)
    (rotary_emb): Phi3LongRoPEScaledRotaryEmbedding()
  )
  (block_sparse_moe): PhiMoESparseMoeBlock(
    (gate): Linear(in_features=4096, out_features=16, bias=False)
    (experts): ModuleList(
      (0-15): 16 x PhiMoEBlockSparseTop2MLP(
        (w1): Linear(in_features=4096, out_features=6400, bias=False)
        (w2): Linear(in_features=6400, out_features=4096, bias=False)
        (w3): Linear(in_features=4096, out_features=6400, bias=False)
        (act_fn): SiLU()
      )
    )
  )
  (input_layernorm): LayerNorm((4096,), eps=1e-05, elementwise_affine=True)
  (post_attention_layernorm): LayerNorm((4096,), eps=1e-05, elementwise_affine=True)
)
model.layers.31.self_attn
PhiMoESdpaAttention(
  (q_proj): Linear(in_features=4096, out_features=4096, bias=True)
  (k_proj): Linear(in_features=4096, out_features=1024, bias=True)
  (v_proj): Linear(in_features=4096, out_features=1024, bias=True)
  (o_proj): Linear(in_features=4096, out_features=4096, bias=True)
  (rotary_emb): Phi3LongRoPEScaledRotaryEmbedding()
)
model.layers.31.self_attn.q_proj
Linear(in_features=4096, out_features=4096, bias=True)
model.layers.31.self_attn.k_proj
Linear(in_features=4096, out_features=1024, bias=True)
model.layers.31.self_attn.v_proj
Linear(in_features=4096, out_features=1024, bias=True)
model.layers.31.self_attn.o_proj
Linear(in_features=4096, out_features=4096, bias=True)
model.layers.31.self_attn.rotary_emb
Phi3LongRoPEScaledRotaryEmbedding()
model.layers.31.block_sparse_moe
PhiMoESparseMoeBlock(
  (gate): Linear(in_features=4096, out_features=16, bias=False)
  (experts): ModuleList(
    (0-15): 16 x PhiMoEBlockSparseTop2MLP(
      (w1): Linear(in_features=4096, out_features=6400, bias=False)
      (w2): Linear(in_features=6400, out_features=4096, bias=False)
      (w3): Linear(in_features=4096, out_features=6400, bias=False)
      (act_fn): SiLU()
    )
  )
)
model.layers.31.block_sparse_moe.gate
Linear(in_features=4096, out_features=16, bias=False)
model.layers.31.block_sparse_moe.experts
ModuleList(
  (0-15): 16 x PhiMoEBlockSparseTop2MLP(
    (w1): Linear(in_features=4096, out_features=6400, bias=False)
    (w2): Linear(in_features=6400, out_features=4096, bias=False)
    (w3): Linear(in_features=4096, out_features=6400, bias=False)
    (act_fn): SiLU()
  )
)
model.layers.31.block_sparse_moe.experts.0
PhiMoEBlockSparseTop2MLP(
  (w1): Linear(in_features=4096, out_features=6400, bias=False)
  (w2): Linear(in_features=6400, out_features=4096, bias=False)
  (w3): Linear(in_features=4096, out_features=6400, bias=False)
  (act_fn): SiLU()
)
model.layers.31.block_sparse_moe.experts.0.w1
Linear(in_features=4096, out_features=6400, bias=False)
model.layers.31.block_sparse_moe.experts.0.w2
Linear(in_features=6400, out_features=4096, bias=False)
model.layers.31.block_sparse_moe.experts.0.w3
Linear(in_features=4096, out_features=6400, bias=False)
model.layers.31.block_sparse_moe.experts.0.act_fn
SiLU()
model.layers.31.block_sparse_moe.experts.1
PhiMoEBlockSparseTop2MLP(
  (w1): Linear(in_features=4096, out_features=6400, bias=False)
  (w2): Linear(in_features=6400, out_features=4096, bias=False)
  (w3): Linear(in_features=4096, out_features=6400, bias=False)
  (act_fn): SiLU()
)
model.layers.31.block_sparse_moe.experts.1.w1
Linear(in_features=4096, out_features=6400, bias=False)
model.layers.31.block_sparse_moe.experts.1.w2
Linear(in_features=6400, out_features=4096, bias=False)
model.layers.31.block_sparse_moe.experts.1.w3
Linear(in_features=4096, out_features=6400, bias=False)
model.layers.31.block_sparse_moe.experts.1.act_fn
SiLU()
model.layers.31.block_sparse_moe.experts.2
PhiMoEBlockSparseTop2MLP(
  (w1): Linear(in_features=4096, out_features=6400, bias=False)
  (w2): Linear(in_features=6400, out_features=4096, bias=False)
  (w3): Linear(in_features=4096, out_features=6400, bias=False)
  (act_fn): SiLU()
)
model.layers.31.block_sparse_moe.experts.2.w1
Linear(in_features=4096, out_features=6400, bias=False)
model.layers.31.block_sparse_moe.experts.2.w2
Linear(in_features=6400, out_features=4096, bias=False)
model.layers.31.block_sparse_moe.experts.2.w3
Linear(in_features=4096, out_features=6400, bias=False)
model.layers.31.block_sparse_moe.experts.2.act_fn
SiLU()
model.layers.31.block_sparse_moe.experts.3
PhiMoEBlockSparseTop2MLP(
  (w1): Linear(in_features=4096, out_features=6400, bias=False)
  (w2): Linear(in_features=6400, out_features=4096, bias=False)
  (w3): Linear(in_features=4096, out_features=6400, bias=False)
  (act_fn): SiLU()
)
model.layers.31.block_sparse_moe.experts.3.w1
Linear(in_features=4096, out_features=6400, bias=False)
model.layers.31.block_sparse_moe.experts.3.w2
Linear(in_features=6400, out_features=4096, bias=False)
model.layers.31.block_sparse_moe.experts.3.w3
Linear(in_features=4096, out_features=6400, bias=False)
model.layers.31.block_sparse_moe.experts.3.act_fn
SiLU()
model.layers.31.block_sparse_moe.experts.4
PhiMoEBlockSparseTop2MLP(
  (w1): Linear(in_features=4096, out_features=6400, bias=False)
  (w2): Linear(in_features=6400, out_features=4096, bias=False)
  (w3): Linear(in_features=4096, out_features=6400, bias=False)
  (act_fn): SiLU()
)
model.layers.31.block_sparse_moe.experts.4.w1
Linear(in_features=4096, out_features=6400, bias=False)
model.layers.31.block_sparse_moe.experts.4.w2
Linear(in_features=6400, out_features=4096, bias=False)
model.layers.31.block_sparse_moe.experts.4.w3
Linear(in_features=4096, out_features=6400, bias=False)
model.layers.31.block_sparse_moe.experts.4.act_fn
SiLU()
model.layers.31.block_sparse_moe.experts.5
PhiMoEBlockSparseTop2MLP(
  (w1): Linear(in_features=4096, out_features=6400, bias=False)
  (w2): Linear(in_features=6400, out_features=4096, bias=False)
  (w3): Linear(in_features=4096, out_features=6400, bias=False)
  (act_fn): SiLU()
)
model.layers.31.block_sparse_moe.experts.5.w1
Linear(in_features=4096, out_features=6400, bias=False)
model.layers.31.block_sparse_moe.experts.5.w2
Linear(in_features=6400, out_features=4096, bias=False)
model.layers.31.block_sparse_moe.experts.5.w3
Linear(in_features=4096, out_features=6400, bias=False)
model.layers.31.block_sparse_moe.experts.5.act_fn
SiLU()
model.layers.31.block_sparse_moe.experts.6
PhiMoEBlockSparseTop2MLP(
  (w1): Linear(in_features=4096, out_features=6400, bias=False)
  (w2): Linear(in_features=6400, out_features=4096, bias=False)
  (w3): Linear(in_features=4096, out_features=6400, bias=False)
  (act_fn): SiLU()
)
model.layers.31.block_sparse_moe.experts.6.w1
Linear(in_features=4096, out_features=6400, bias=False)
model.layers.31.block_sparse_moe.experts.6.w2
Linear(in_features=6400, out_features=4096, bias=False)
model.layers.31.block_sparse_moe.experts.6.w3
Linear(in_features=4096, out_features=6400, bias=False)
model.layers.31.block_sparse_moe.experts.6.act_fn
SiLU()
model.layers.31.block_sparse_moe.experts.7
PhiMoEBlockSparseTop2MLP(
  (w1): Linear(in_features=4096, out_features=6400, bias=False)
  (w2): Linear(in_features=6400, out_features=4096, bias=False)
  (w3): Linear(in_features=4096, out_features=6400, bias=False)
  (act_fn): SiLU()
)
model.layers.31.block_sparse_moe.experts.7.w1
Linear(in_features=4096, out_features=6400, bias=False)
model.layers.31.block_sparse_moe.experts.7.w2
Linear(in_features=6400, out_features=4096, bias=False)
model.layers.31.block_sparse_moe.experts.7.w3
Linear(in_features=4096, out_features=6400, bias=False)
model.layers.31.block_sparse_moe.experts.7.act_fn
SiLU()
model.layers.31.block_sparse_moe.experts.8
PhiMoEBlockSparseTop2MLP(
  (w1): Linear(in_features=4096, out_features=6400, bias=False)
  (w2): Linear(in_features=6400, out_features=4096, bias=False)
  (w3): Linear(in_features=4096, out_features=6400, bias=False)
  (act_fn): SiLU()
)
model.layers.31.block_sparse_moe.experts.8.w1
Linear(in_features=4096, out_features=6400, bias=False)
model.layers.31.block_sparse_moe.experts.8.w2
Linear(in_features=6400, out_features=4096, bias=False)
model.layers.31.block_sparse_moe.experts.8.w3
Linear(in_features=4096, out_features=6400, bias=False)
model.layers.31.block_sparse_moe.experts.8.act_fn
SiLU()
model.layers.31.block_sparse_moe.experts.9
PhiMoEBlockSparseTop2MLP(
  (w1): Linear(in_features=4096, out_features=6400, bias=False)
  (w2): Linear(in_features=6400, out_features=4096, bias=False)
  (w3): Linear(in_features=4096, out_features=6400, bias=False)
  (act_fn): SiLU()
)
model.layers.31.block_sparse_moe.experts.9.w1
Linear(in_features=4096, out_features=6400, bias=False)
model.layers.31.block_sparse_moe.experts.9.w2
Linear(in_features=6400, out_features=4096, bias=False)
model.layers.31.block_sparse_moe.experts.9.w3
Linear(in_features=4096, out_features=6400, bias=False)
model.layers.31.block_sparse_moe.experts.9.act_fn
SiLU()
model.layers.31.block_sparse_moe.experts.10
PhiMoEBlockSparseTop2MLP(
  (w1): Linear(in_features=4096, out_features=6400, bias=False)
  (w2): Linear(in_features=6400, out_features=4096, bias=False)
  (w3): Linear(in_features=4096, out_features=6400, bias=False)
  (act_fn): SiLU()
)
model.layers.31.block_sparse_moe.experts.10.w1
Linear(in_features=4096, out_features=6400, bias=False)
model.layers.31.block_sparse_moe.experts.10.w2
Linear(in_features=6400, out_features=4096, bias=False)
model.layers.31.block_sparse_moe.experts.10.w3
Linear(in_features=4096, out_features=6400, bias=False)
model.layers.31.block_sparse_moe.experts.10.act_fn
SiLU()
model.layers.31.block_sparse_moe.experts.11
PhiMoEBlockSparseTop2MLP(
  (w1): Linear(in_features=4096, out_features=6400, bias=False)
  (w2): Linear(in_features=6400, out_features=4096, bias=False)
  (w3): Linear(in_features=4096, out_features=6400, bias=False)
  (act_fn): SiLU()
)
2025-01-07:16:33:00,421 INFO     [evaluator.py:164] Setting random seed to 0 | Setting numpy seed to 1234 | Setting torch manual seed to 1234 | Setting fewshot manual seed to 1234
2025-01-07:16:33:00,422 INFO     [evaluator.py:217] Using pre-initialized model
2025-01-07:16:33:04,325 WARNING  [evaluator.py:270] Overwriting default num_fewshot of mmlu_formal_logic from None to 0
2025-01-07:16:33:04,325 INFO     [task.py:415] Building contexts for mmlu_formal_logic on rank 0...
model.layers.31.block_sparse_moe.experts.11.w1
Linear(in_features=4096, out_features=6400, bias=False)
model.layers.31.block_sparse_moe.experts.11.w2
Linear(in_features=6400, out_features=4096, bias=False)
model.layers.31.block_sparse_moe.experts.11.w3
Linear(in_features=4096, out_features=6400, bias=False)
model.layers.31.block_sparse_moe.experts.11.act_fn
SiLU()
model.layers.31.block_sparse_moe.experts.12
PhiMoEBlockSparseTop2MLP(
  (w1): Linear(in_features=4096, out_features=6400, bias=False)
  (w2): Linear(in_features=6400, out_features=4096, bias=False)
  (w3): Linear(in_features=4096, out_features=6400, bias=False)
  (act_fn): SiLU()
)
model.layers.31.block_sparse_moe.experts.12.w1
Linear(in_features=4096, out_features=6400, bias=False)
model.layers.31.block_sparse_moe.experts.12.w2
Linear(in_features=6400, out_features=4096, bias=False)
model.layers.31.block_sparse_moe.experts.12.w3
Linear(in_features=4096, out_features=6400, bias=False)
model.layers.31.block_sparse_moe.experts.12.act_fn
SiLU()
model.layers.31.block_sparse_moe.experts.13
PhiMoEBlockSparseTop2MLP(
  (w1): Linear(in_features=4096, out_features=6400, bias=False)
  (w2): Linear(in_features=6400, out_features=4096, bias=False)
  (w3): Linear(in_features=4096, out_features=6400, bias=False)
  (act_fn): SiLU()
)
model.layers.31.block_sparse_moe.experts.13.w1
Linear(in_features=4096, out_features=6400, bias=False)
model.layers.31.block_sparse_moe.experts.13.w2
Linear(in_features=6400, out_features=4096, bias=False)
model.layers.31.block_sparse_moe.experts.13.w3
Linear(in_features=4096, out_features=6400, bias=False)
model.layers.31.block_sparse_moe.experts.13.act_fn
SiLU()
model.layers.31.block_sparse_moe.experts.14
PhiMoEBlockSparseTop2MLP(
  (w1): Linear(in_features=4096, out_features=6400, bias=False)
  (w2): Linear(in_features=6400, out_features=4096, bias=False)
  (w3): Linear(in_features=4096, out_features=6400, bias=False)
  (act_fn): SiLU()
)
model.layers.31.block_sparse_moe.experts.14.w1
Linear(in_features=4096, out_features=6400, bias=False)
model.layers.31.block_sparse_moe.experts.14.w2
Linear(in_features=6400, out_features=4096, bias=False)
model.layers.31.block_sparse_moe.experts.14.w3
Linear(in_features=4096, out_features=6400, bias=False)
model.layers.31.block_sparse_moe.experts.14.act_fn
SiLU()
model.layers.31.block_sparse_moe.experts.15
PhiMoEBlockSparseTop2MLP(
  (w1): Linear(in_features=4096, out_features=6400, bias=False)
  (w2): Linear(in_features=6400, out_features=4096, bias=False)
  (w3): Linear(in_features=4096, out_features=6400, bias=False)
  (act_fn): SiLU()
)
model.layers.31.block_sparse_moe.experts.15.w1
Linear(in_features=4096, out_features=6400, bias=False)
model.layers.31.block_sparse_moe.experts.15.w2
Linear(in_features=6400, out_features=4096, bias=False)
model.layers.31.block_sparse_moe.experts.15.w3
Linear(in_features=4096, out_features=6400, bias=False)
model.layers.31.block_sparse_moe.experts.15.act_fn
…
